model_to_load/mod64_save8.pt (torch_old, 172265 bytes, 12 tensors)

conv1.weight f4 [18, 64]
000000 9c 4c 3c 3d dc 80 07 be 20 ca 5c 3e c9 b2 53 3d
       0.045971498 -0.1323275 0.2156148 0.051684175
000010 64 ed 6b 3e a0 9f 3e 3e 20 fe f5 3d e4 32 6a 3e
       0.23039776 0.1861558 0.12011361 0.22870976
000020 02 26 20 3c 12 85 10 3e af 96 98 3c c4 74 be bd
       0.009774687 0.14113262 0.018626539 -0.09299615
000030 c4 6d 54 bc f8 0a 40 3e c6 a4 1a be 66 65 d2 bd
       -0.012965623 0.18754184 -0.15101919 -0.102732465
000040 86 93 d5 3d 35 4b 87 be 61 f5 0d be b4 00 04 bd
       0.104285285 -0.26424566 -0.13863136 -0.032227233
000050 b5 73 c0 3d e2 e9 51 be cc ae 12 3e 0d d2 8c 3e
       0.09397069 -0.20499375 0.14324492 0.27504006
000060 ce 81 52 3d d0 a5 8e bd 52 e6 1e 3e da 77 60 3e
       0.051393323 -0.0696522 0.15517548 0.2192072
000070 e5 3e 15 bd 25 ab f1 bd 71 f6 b3 bd 1e 9a 81 3e
       -0.036436934 -0.11800221 -0.08787239 0.25312895
000080 cc 12 23 3e f1 69 c4 bd 85 41 08 3d df 8e 6a 3d
       0.15925139 -0.09590519 0.03326561 0.05726516
000090 76 65 3b be de a0 fd bd be e4 8d bd 3f 18 b6 3c
       -0.18300423 -0.123841986 -0.06928395 0.022228358
0000a0 d7 31 08 3d e6 8e 83 3e 6a b2 3d be 9a ba c8 3d
       0.033250656 0.2569496 -0.18525091 0.098012164
0000b0 c4 e7 88 be 9f f6 0a 3e fe 37 42 3e 45 2e bb bc
       -0.26739323 0.13570641 0.18966672 -0.022849211
0000c0 8a 35 51 3e 96 c0 85 be 72 34 7c be 2e a5 a3 3d
       0.2043058 -0.26123494 -0.24629381 0.0799049
0000d0 69 d7 26 3d 49 4d 00 3e 9d a2 82 bd 94 8e fa bd
       0.040732775 0.12529482 -0.06378672 -0.12234226
0000e0 c3 5d 9c bd 29 4f 05 be 48 fe d5 3d c6 a9 7c 3d
       -0.07635071 -0.13018478 0.10448891 0.061685346
0000f0 52 d9 23 be b5 8c 6a be 05 77 2c 3e 35 0c 1a 3e
       -0.1600087 -0.22905238 0.16842277 0.15043719
000100 8e ae 3e 3e 1d ea 4d bd 43 da f9 bd ef 23 60 be
       0.18621275 -0.050272096 -0.12199833 -0.21888708
000110 c8 46 76 be 70 06 21 3e d4 82 f2 bc 78 37 4b 3d
       -0.24050438 0.15725112 -0.0296034 0.049613446
000120 11 32 2c 3d 39 c0 4b be 39 02 82 bc 6a 45 98 3d
       0.042039935 -0.19897546 -0.0158702 0.07435115
000130 da 3c 83 be 33 c1 dc bd bc d7 1b be 41 7d 43 3e
       -0.25632364 -0.10779037 -0.15219015 0.1909075
000140 0c aa 7d 3e 71 12 6b 3e db 1a 9b 3c 84 60 86 be
       0.24771899 0.22956254 0.018933704 -0.2624551
000150 68 4f 9c 3d 5f 25 23 bd a0 99 c1 3d 95 5d e7 bd
       0.07632333 -0.03983056 0.0945313 -0.11297146
000160 44 b0 a8 bd 65 ea f4 3d f1 ea 1b 3e 4c a7 f5 3d
       -0.08236745 0.1195877 0.15226342 0.119948
000170 78 96 52 3e af 14 1e bd 27 94 37 3e 77 e7 ff 3d
       0.20565212 -0.038593944 0.1792761 0.1249532
000180 5a fc 83 3e b4 0b 68 be 27 96 f6 3d 80 21 43 3e
       0.25778466 -0.22660714 0.12040358 0.19055748
000190 9a eb 40 be 72 c2 80 be b0 d5 62 be 37 20 3f 3e
       -0.18839875 -0.2514835 -0.22151828 0.18664633
0001a0 d8 52 55 be 4e 9a 6b 3e a7 b8 45 bd 2e 15 70 be
       -0.20832384 0.23008081 -0.0482718 -0.2344558
0001b0 fa 5d 9a 3d c8 d1 0f be d0 3d a1 3d eb f1 7b 3e
       0.07537456 -0.14044869 0.07873118 0.24604003
0001c0 80 22 91 bd a9 03 6c 3e 73 3d e5 bd 40 80 fb 3d
       -0.070866585 0.23048271 -0.11193361 0.12280321
0001d0 31 0a 11 be da e9 41 be b1 d6 bc 3c 12 ed b4 bd
       -0.14164044 -0.18936864 0.023051592 -0.0883428
0001e0 7e 78 72 be 66 ee 56 bd 75 b1 3b 3e e4 2d 5c be
       -0.23678777 -0.05247345 0.18329413 -0.21501881
0001f0 90 5f d3 bd 06 fb 2a 3e 55 d0 74 be 23 cf 68 bd
       -0.103209615 0.1669732 -0.23907597 -0.056838166
000200 6f 28 1a be 06 c6 10 3d da 78 f7 bb 63 79 dd 3c
       -0.15054487 0.0353451 -0.0075522484 0.02703542
000210 76 4e 5e 3e 5f b3 7c 3e fa 7e 38 ba 15 e2 d5 3b
       0.21709618 0.246778 -0.0007037964 0.006527195
000220 27 24 7f be 0f f4 5f be 16 59 77 3e 0f c8 73 3e
       -0.24916135 -0.21870445 0.24155077 0.23806785
000230 2c 31 85 be bc a0 da bd 0f 32 7c be 61 ac ab bd
       -0.26014078 -0.10675189 -0.24628471 -0.08382488
000240 9b ad d8 3d 1f 5a 70 bd 48 69 6e be b2 d4 13 3d
       0.105799876 -0.058679696 -0.23282349 0.036091514
000250 1a dd 3d be f2 46 8e bc 13 b0 2d 3e 87 6a 86 be
       -0.18541375 -0.017367814 0.16961698 -0.2625315
000260 22 d8 c6 3b c5 08 d3 bd 30 9d 14 bd df 8f 22 be
       0.0060682455 -0.10304407 -0.03628272 -0.15875195
000270 ec f4 75 3e 99 d0 40 3e 25 e0 0b be ea b4 83 3e
       0.24019212 0.18829574 -0.13659723 0.25723964
000280 27 e3 d2 3b 89 be be bc 0a 3c 2f be 5e 7b dc 3c
       0.00643577 -0.023284214 -0.17112747 0.026914295
000290 3e e6 fd 3b 19 9b dc bd 53 42 3d be eb 7d d8 3d
       0.0077483943 -0.1077177 -0.18482332 0.10570892
0002a0 8a 52 84 3e 47 9c 49 3d 77 9f 76 be a2 6d 78 3e
       0.25844222 0.049221303 -0.24084269 0.24260572
0002b0 dd a7 30 ba cd 1a 0f 3c bc fa 8a 3d 8b b6 2c be
       -0.0006738881 0.008734417 0.06786105 -0.1686651
0002c0 7d 30 7b 3e 7a e9 85 3d b8 89 49 bc 73 9b 91 3c
       0.24530216 0.06538673 -0.012300901 0.01777432
0002d0 21 43 fe 3d 67 17 8e be c7 4d b3 3d ca 6c 5f be
       0.124151476 -0.2775223 0.08755069 -0.21818843
0002e0 15 d0 8e bd 35 87 3a 3e 80 ba 32 be be 56 3c 3e
       -0.06973282 0.1821564 -0.17453957 0.18392465
0002f0 c3 20 51 3d f2 97 04 3e 81 ef 4d 3c 0e 0d 02 be
       0.051056635 0.12948588 0.012569309 -0.12700292
000300 86 00 82 3e ac 46 ed bd 4a d0 fd 3d ae a2 4a 3d
       0.25391024 -0.11585745 0.123932436 0.04947155
000310 c2 f7 6c be fe af 83 3e ea db 4d 3e 07 4d 74 3c
       -0.23141387 0.2572021 0.20103422 0.014910943
000320 60 2a 0f 3e fe 0e 20 3e fb 94 ad bd 26 0a cb 3d
       0.13981009 0.15630719 -0.084756814 0.09914045
000330 90 24 47 be 0b 4a 85 3c dc 31 83 be ce 10 34 3e
       -0.19447541 0.016270658 -0.25623977 0.17584535
000340 f2 87 8d 3d 34 84 40 3e 93 4a 85 be 29 6d 33 be
       0.06910695 0.18800431 -0.26033458 -0.1752211
000350 9e d6 7b 3e ad 32 44 3e dd 98 c4 bd 05 66 07 bc
       0.24593589 0.19159956 -0.09599469 -0.008264069
000360 55 d1 6b 3e 3a 78 54 be 29 cb 5c 3d ae bf ca bc
       0.23029073 -0.20748988 0.053904686 -0.024749603
000370 4c f6 5b 3e 56 8b 77 3d e5 df 05 3e 59 49 09 be
       0.21480674 0.060435615 0.1307369 -0.13406886
000380 e5 12 48 be 76 33 ae bd e0 aa 39 be 82 37 88 3e
       -0.19538458 -0.08505909 -0.1813159 0.2660485
000390 fc 51 04 3e a0 86 ec bd 73 ee 58 be e4 5b 71 3e
       0.129219 -0.11549115 -0.21184711 0.2357021
0003a0 5c b6 6b 3e e5 50 64 3e cd e3 73 be b2 28 5d 3e
       0.23018783 0.22296484 -0.23817368 0.21597555
0003b0 3f 4c 47 3e 17 c9 d6 3d 5c 70 18 3e 52 19 63 be
       0.1946268 0.104875736 0.14886612 -0.22177628
0003c0 cf 68 1b be 9e fd f6 bc c4 f5 6b 3e df 50 fb 3d
       -0.151767 -0.030150231 0.23042971 0.12271284
0003d0 f3 78 84 3e de 41 8a 3e 26 92 16 be 74 fb 56 be
       0.25873527 0.27003378 -0.14704189 -0.20994359
0003e0 6a 02 12 3e c5 43 b3 3d f6 22 b6 bd 32 30 1e be
       0.14258733 0.087531604 -0.08893387 -0.15448073
0003f0 7b 45 ca bd 86 5c 3f 3c 62 13 86 be 62 4c 6d 3e
       -0.098765336 0.011679774 -0.26186663 0.23173669

conv1.bias f4 [64]
000000 9c 7f 19 3b 66 16 08 3b 2a 08 b0 39 4c 6b 9f ba
       0.0023422008 0.0020765304 0.0003357542 -0.0012162714
000010 38 d5 3d 3a f7 02 73 ba 88 18 a0 3a 5e fd 59 3b
       0.000724155 -0.0009270156 0.0012214342 0.003326259
000020 0d 25 b1 ba 9d c7 a1 3b 57 0a 08 3b 86 6f 9f ba
       -0.001351507 0.004937126 0.0020758116 -0.0012163974
000030 ec ed 6e 3b 3d 9b 99 3a 7c a2 b5 3b 2a 2b 34 39
       0.003645773 0.0011719238 0.0055430513 0.00017182218
000040 00 6c e9 39 79 48 61 ba a2 7c 26 3b 67 a3 3b 3b
       0.0004452169 -0.0008593868 0.0025403877 0.002863133
000050 43 c2 33 3b b4 ae 21 bb 85 2a 5d 3a 49 48 a0 3a
       0.0027429021 -0.0024670782 0.0008436817 0.0012228574
000060 9a 85 1a 3a e3 6e 94 39 6c 3c ca 3a 99 6e 1b 3a
       0.0005894542 0.00028311377 0.0015429384 0.0005929261
000070 9e b1 9c 39 6f 63 a4 3b 2c e7 a7 3a 61 6b 0d 3b
       0.00029886974 0.005016736 0.0012809983 0.0021578895
000080 ed 7f 8b 3b 20 22 8d 3b 74 4d 31 3b 89 a1 6e 3b
       0.0042571933 0.0043070465 0.0027054222 0.00364122
000090 3e 27 69 3a 10 3b 93 3b 9a 8a ce 3b c4 f3 1e 3b
       0.0008894092 0.004493125 0.0063031437 0.0024254182
0000a0 39 b4 3d 3a 9a 63 80 3a 45 d7 8c ba 6a a7 96 b8
       0.0007236633 0.0009795309 -0.0010745308 -7.183741e-05
0000b0 9c 7e bc ba 23 eb 01 3b fa 82 24 ba ca 19 dd 3b
       -0.0014380994 0.001982399 -0.00062756205 0.006747459
0000c0 e3 e5 21 bb 14 c8 84 b9 f0 e9 19 bb 2a ac bf ba
       -0.0024703674 -0.00025326072 -0.0023485385 -0.0014623452
0000d0 b2 fd 67 3a 45 1d 2d 3a be 6f f1 ba d6 9d 1a 3b
       0.0008849754 0.0006603788 -0.0018420143 0.0023592613
0000e0 df 82 59 39 18 f7 06 bb bc 58 de 3b 5e 1b de 37
       0.00020743486 -0.0020594057 0.0067854803 2.6477206e-05
0000f0 d2 1c 49 bb 5d 59 ad b9 78 7e 07 3a 1b 82 b5 3b
       -0.0030687344 -0.00033063712 0.00051686866 0.0055391914

conv2.weight f4 [64, 64]
000000 1a 0e 1b be 7b ab 4f 3e 67 13 18 3e 99 f5 f4 bd
       -0.15142098 0.20280258 0.14851151 -0.119609065
000010 c0 8a 27 be 59 c5 c5 3b 36 bf b3 bb 6b f3 02 be
       -0.16361523 0.0060354886 -0.0054854406 -0.12788169
000020 d5 fc 4d 3e 7e 89 2d be 3b 0a 2e be c1 46 0f be
       0.20115979 -0.1694698 -0.1699609 -0.13991834
000030 20 2c 81 bd 8a 3a 2e bd d3 45 ec bd 89 55 42 3e
       -0.06307244 -0.042536296 -0.115367554 0.18977942
000040 c8 39 2a 3d e6 cb 0b be cf 22 43 3e ea 74 64 3c
       0.04155901 -0.13652 0.19056247 0.01394389
000050 00 63 e0 bd fc 25 0c bd c2 1c 58 3e f4 91 3b 3e
       -0.10956383 -0.034215912 0.2110472 0.18317395
000060 9d 3c f6 3d 60 39 49 3e d3 a7 59 3e 86 05 14 be
       0.1202328 0.19650793 0.21255426 -0.14455232
000070 c6 1c 31 be 2a 35 c6 bd a0 27 92 3c 4e e4 23 3e
       -0.17296132 -0.09678109 0.01784116 0.1600506
000080 19 f7 43 be 38 20 54 3e de e3 07 be 24 a5 45 3d
       -0.19137229 0.20715415 -0.13270518 0.048253193
000090 b2 ca 43 bd de b2 f1 3d 4f 45 b0 3d 6a 88 0e bd
       -0.047800727 0.11801694 0.086069696 -0.034798063
0000a0 59 87 1b 3e 37 54 d7 bd 3e 2d 23 3e 8e 32 dd bd
       0.1518835 -0.105141096 0.15935227 -0.10800658
0000b0 b7 14 e3 3d 70 13 30 be d3 53 23 be aa a0 6a 3c
       0.110879354 -0.17194915 -0.15949945 0.014320532
0000c0 49 55 eb 3c 89 9a 06 be c1 3d 87 3d 3d 60 0a be
       0.02872719 -0.13144888 0.066035755 -0.13513274
0000d0 71 e6 1e be d4 24 07 be 4c 18 22 3e 62 7e 52 3e
       -0.15517594 -0.13197643 0.15829581 0.20556024
0000e0 96 69 11 be 58 30 ab 3d c4 23 db 3b 46 d6 6e 3d
       -0.14200434 0.0835883 0.006687613 0.058309816
0000f0 3b e3 c0 3c 05 eb 8b bd 56 96 26 3e f9 19 c3 bd
       0.023545852 -0.06831936 0.16268286 -0.09526438
000100 bd 99 56 bd 1d 1d 87 bd c2 7f 8d 3d 3f 39 64 bd
       -0.05239271 -0.0659735 0.069091335 -0.055718657
000110 6c bb 3f bd 92 e8 01 3e 1a bb 30 3e b4 98 f5 bd
       -0.0468096 0.12686375 0.17258874 -0.119920164
000120 ee d7 10 3e f0 3f 4f be 6f f7 ac bd 43 7b 13 3d
       0.1414487 -0.20239234 -0.08445632 0.036006223
000130 d4 c6 d5 bb bc 32 07 be ef 34 21 be 21 96 1d be
       -0.0065239463 -0.13202947 -0.15742849 -0.15389301
000140 5c b2 0f 3e 27 68 51 be df 34 e9 bd 3e d6 06 3e
       0.14032882 -0.20449887 -0.113870375 0.13167664
000150 b9 88 47 be 44 9f 15 bd a9 1b fd 3d 1c 9f 72 bb
       -0.1948575 -0.03652884 0.123587914 -0.0037021106
000160 49 27 a0 3d 2a e9 0a 3d 47 6a e5 3d 98 7f fe bb
       0.07819993 0.03391377 0.112019114 -0.007766675
000170 c2 a2 cc bd 6b 2b 1d be b8 f7 b5 bd 57 12 7e bc
       -0.09991981 -0.15348594 -0.08885139 -0.015507302
000180 6e b9 14 3e fa 5b 08 3d c8 72 ef bd 77 5a 97 bd
       0.14523861 0.03329084 -0.11691815 -0.07390302
000190 89 2a 47 3e f5 b5 d6 bd e1 e6 93 3c a2 fd dd 3c
       0.1944982 -0.10483924 0.018054428 0.02709848
0001a0 0b df 09 be 15 4e 51 3e 06 4a 5c 3e c6 6e bd 3d
       -0.1346399 0.20439942 0.21512613 0.09249644
0001b0 c2 43 8c 3c d4 ea bf bd 40 17 59 bd e4 5b 9f 3d
       0.017122153 -0.09370962 -0.05300069 0.077811986
0001c0 39 f3 55 3e 8f 32 a5 bd da 9f 3d be 2d cc 9b bb
       0.20893563 -0.08066284 -0.1851801 -0.0047545643
0001d0 4f 9b 19 3d 1f b5 97 bd 31 4c 39 be 00 5c 1e bd
       0.03750163 -0.07407593 -0.18095471 -0.038661957
0001e0 c2 a4 80 bd b4 d5 33 be 9c 08 51 be 73 d5 52 be
       -0.06281425 -0.1756199 -0.2041344 -0.20589237
0001f0 3e fa d0 3c 35 0f 14 3e 59 7f 18 3d 3e 2c 08 3e
       0.02550995 0.14458926 0.037230823 0.13298127
000200 94 11 2d be e6 dd 32 3e 24 28 18 3d 72 21 1f 3e
       -0.16901237 0.1746746 0.037147656 0.15540102
000210 79 ca 2d be 21 af aa bc d7 60 8b 3c 1e a1 d1 3d
       -0.16971768 -0.020835461 0.01701395 0.10235809
000220 9d f3 1f be 92 0d 48 3e f1 65 c3 3d 52 67 6d 3d
       -0.15620275 0.19536427 0.09540928 0.057959862
000230 e1 3e 17 be 2d eb 75 bd 6b de f1 3d 73 8c 3f 3e
       -0.1477008 -0.060038734 0.11810001 0.18705921
000240 fb 62 f5 bd 6d ef 8d 3d 5d 4b f8 bd f2 d3 cd bd
       -0.1198177 0.069304325 -0.121237494 -0.10050191
000250 01 14 2d 3e 47 ac 36 bb f2 58 1f be 91 bb e2 bd
       0.16902162 -0.0027873681 -0.15561274 -0.11070932
000260 1c ef be 3c 5d 1f b8 3d 48 f1 ea 3d 4e f5 ad bd
       0.023307376 0.08990357 0.11471802 -0.08494054
000270 5b 4e 30 be 6e 91 52 3d 2c 62 b8 bd 01 ab 1f 3e
       -0.1721739 0.051408224 -0.090031 0.15592577
000280 53 ab 9f 3d 2e b3 14 3e 17 09 ff bd b2 0a 18 be
       0.077963494 0.14521477 -0.124529056 -0.1484783
000290 32 dc 11 be c2 97 f2 3c ae 6b 2f be 7b d4 5f 3e
       -0.14244154 0.02961338 -0.1713092 0.21858399
0002a0 7d 42 04 be 75 47 ac 3d c5 bd 3e be 6b 85 6e 3c
       -0.12915988 0.08412067 -0.18627079 0.0145581765
0002b0 53 fc 05 be c8 61 55 be 1d 92 ba bc 7c 6a 22 be
       -0.13084535 -0.20838082 -0.02277475 -0.15860933
0002c0 bf 38 33 3d 11 71 8a bc d7 b8 e7 bd 76 2e f5 3d
       0.04375529 -0.016899617 -0.11314552 0.11971752
0002d0 e2 c4 b7 bd ef 3f 21 3e e1 f5 0b be 24 e7 11 3e
       -0.08973099 0.15747045 -0.13668014 0.1424833
0002e0 7d 45 32 be f1 90 82 bd 50 8b 55 3c ac be 03 be
       -0.1740932 -0.06375302 0.013033703 -0.12865704
0002f0 e7 8f 69 3d 74 bd e1 bd 26 5e 50 3e b3 3e 9b bd
       0.057022 -0.110224634 0.20348415 -0.07580318
000300 6c e5 1b 3d 6c 5b 47 3e 7f 8b 59 be 2c 85 04 be
       0.03806059 0.19468468 -0.2124462 -0.12941426
000310 11 9a ea bc 1d 05 45 3d df 11 42 be 5d 1c 23 bd
       -0.028637918 0.04810058 -0.1895213 -0.03982197
000320 98 0d 09 3e a1 a9 e3 3d 13 08 eb bc f2 f7 6c 3d
       0.13384092 0.111163385 -0.028690374 0.057853647
000330 59 17 24 be d0 63 36 be 69 0f 43 3e 44 17 ba 3d
       -0.16024531 -0.17811513 0.19048847 0.09086469
000340 e0 5d 17 be 55 9d 4d be 5d 67 0a 3c d6 f8 09 3e
       -0.14781904 -0.20079549 0.008447495 0.1347383
000350 69 f1 ca bb 99 ef d6 3d 52 c5 ba bd 88 b3 58 be
       -0.006193329 0.104949184 -0.09119667 -0.21162236
000360 17 77 6e 3d b0 64 2d 3e 2d c3 52 bd 1d 42 19 be
       0.05821904 0.1693294 -0.051455665 -0.14966626
000370 ef 7f 25 be 63 79 20 be 95 39 f6 3d 08 54 1f be
       -0.16162084 -0.15671305 0.12022702 -0.15559399
000380 fe 92 4a 3e 13 52 4a 3c f2 56 08 be 84 c0 ae bd
       0.19782636 0.01234867 -0.13314417 -0.08532813
000390 b9 6b 13 3d 6a 05 2b be fb 93 a4 bd 0e 75 97 bc
       0.035991404 -0.16701284 -0.080360375 -0.018488433
0003a0 26 64 61 3d c7 71 31 3e 46 ce 37 bd bb 43 32 be
       0.05502715 0.17328559 -0.044874452 -0.1740865
0003b0 e0 d5 0b 3c f6 fc 06 3d 4f c8 40 3e f2 2d 3c bd
       0.0085348785 0.032956086 0.18826412 -0.045942254
0003c0 d8 51 24 be 4b 4e 20 bd 85 4f 74 bd 60 42 6e bd
       -0.16046846 -0.039137166 -0.05964615 -0.05816877
0003d0 af 9d af bd b4 6f 11 3e 1b 8d 13 3d 91 b7 4b bd
       -0.08574998 0.14202768 0.03602324 -0.04973561
0003e0 10 2f 0b be 79 fd c6 bb 3d 99 9a bd 6c 71 26 3e
       -0.13592172 -0.0060726968 -0.07548759 0.16254205
0003f0 30 9d 26 be 1e d7 87 bd 13 9b 08 3e 05 cb e8 3b
       -0.162709 -0.06632827 0.13340406 0.00710428

conv2.bias f4 [64]
000000 a3 7a 76 bb b0 4e 5e ba 87 5d 53 3b fa aa 1c 3b
       -0.0037609718 -0.0008480353 0.0032251792 0.002390562
000010 3e ca 68 3a ca 0e 7b 3b a5 4c 86 3b 2a 6d 63 39
       0.0008880234 0.0038308376 0.004098492 0.00021689074
000020 7e b3 b2 ba 7b ee 93 3b 22 f0 19 ba 80 23 89 3a
       -0.0013633815 0.004514513 -0.00058722694 0.001046285
000030 e5 00 bf 3a d3 d9 19 3b d4 ce 0d ba ce 47 03 bb
       0.001457241 0.002347578 -0.0005409543 -0.0020031813
000040 1e a2 23 ba 96 8b 33 3b a2 5d 7a 3a fc 84 f1 3b
       -0.0006242114 0.0027396432 0.00095506955 0.0073705893
000050 ee 82 fb 38 ff 63 9b 39 e8 f3 1d bb 13 47 06 ba
       0.00011993 0.00029638407 -0.0024101678 -0.0005122285
000060 40 36 00 3b 3b 95 53 3a a0 5c 31 3b ca a0 28 3b
       0.0019563586 0.00080712483 0.0027063265 0.0025730603
000070 64 a6 4d bb bc 52 db ba 51 59 0d b9 4d a3 f8 b9
       -0.0031379694 -0.0016733031 -0.00013480081 -0.00047423915
000080 dc a0 32 bb 19 37 70 ba b5 3e 87 b9 c0 4a 0c ba
       -0.0027256524 -0.00091634836 -0.00025795927 -0.0005351715
000090 6f 25 ce ba 76 b5 27 3b d9 0b e3 3a 3f 6d a0 3a
       -0.0015727709 0.0025590337 0.0017322256 0.0012239589
0000a0 7a 7a 0c bb de ea 37 3b cb 22 93 3a 69 ef 69 3b
       -0.0021435306 0.0028063576 0.0011225579 0.0035695678
0000b0 1c 49 a6 ba 82 61 9d 39 86 80 4e 3a 23 5c 84 ba
       -0.0012686583 0.00030018023 0.0007877428 -0.001009826
0000c0 b5 fe 60 3a 8f 1a 85 3b 67 c8 d8 39 f0 ab 0c 3b
       0.0008582876 0.004062004 0.00041348042 0.0021464787
0000d0 24 11 6c ba 32 ff bf 3b 18 c7 e2 ba d4 05 41 3b
       -0.00090052397 0.005859279 -0.0017301766 0.0029452937
0000e0 92 b3 e9 3a 9a 5c 8e 3a e6 c5 a1 ba fe 71 52 3b
       0.0017830005 0.0010861338 -0.0012342304 0.0032111402
0000f0 ec ea bd 3a 9b 1a eb 3a 1e 4a 49 3a 38 cd 04 3a
       0.0014489568 0.0017937006 0.0007678586 0.00050659804

conv3.weight f4 [64, 64]
000000 db 87 0d 3e 62 1d e1 3c 17 51 fa 3c 28 cb 0b 3c
       0.13821356 0.027479831 0.030556245 0.008532323
000010 17 1b 09 3d 46 71 04 be 91 e1 89 3d 25 e4 28 be
       0.0334731 -0.12933835 0.067324765 -0.1649328
000020 ca 06 86 3d e6 2c d6 bb 7b c0 21 3e 6d 50 05 be
       0.06544264 -0.006536114 0.15796082 -0.13018961
000030 0b 24 03 3e c7 eb 0f bd 80 3f 79 bc e8 1f 67 3d
       0.12806718 -0.035136964 -0.0152128935 0.056426913
000040 1e 1e d3 bd 5f 00 a8 bd 22 2c 9f 3d 76 6f 26 3d
       -0.10308479 -0.08203196 0.077720895 0.04063364
000050 99 cf a0 3d cd 6a 15 be 4c 6a d2 bc e6 30 e7 bd
       0.07852096 -0.14591523 -0.025685452 -0.112886235
000060 69 1c b0 bc 8c 1f e2 bd aa 70 b0 bd 83 0d 01 be
       -0.021497922 -0.11041173 -0.08615239 -0.1260281
000070 94 0a de bd a2 59 f3 bd bb 21 af 3d ef a9 2c bd
       -0.10841861 -0.118823305 0.085513555 -0.04215425
000080 56 d4 94 3d 95 8b ae bd e9 c7 a7 3b cd 40 16 be
       0.07267062 -0.08522717 0.0051202667 -0.14673157
000090 23 84 a2 bd 55 19 db 3d 70 c4 17 bd 19 75 9b bd
       -0.07935359 0.10698191 -0.03705257 -0.07590694
0000a0 de ef b6 bd ce 46 a1 3d 41 4e 3c bd 49 89 af bb
       -0.0893247 0.07874833 -0.045973066 -0.005356942
0000b0 8e 6f a5 bb 7e 77 2c 3e 5f 02 57 3d 49 38 00 bd
       -0.0050486987 0.16842458 0.052492496 -0.031303678
0000c0 00 0c 57 be d7 bd ad 3d 35 6c e2 3d a4 5c 38 be
       -0.21000671 0.08483475 0.11055795 -0.1800409
0000d0 fa 5e 6a bb ff 61 36 3e cb b6 e2 bc 60 cc 93 bd
       -0.0035762177 0.1781082 -0.027675053 -0.07216716
0000e0 15 1a 32 be 8e 90 5f be e0 41 b2 3d f8 08 b1 bb
       -0.17392762 -0.21832487 0.08703971 -0.0054026805
0000f0 29 a8 05 be d2 a2 ca 3c 39 6b 3b be 5f 19 b1 3d
       -0.1305243 0.024735842 -0.18302621 0.08647417
000100 01 e3 32 be 63 7c 11 be 46 35 24 3e 20 2a 67 3d
       -0.17469408 -0.14207606 0.16035947 0.056436658
000110 1d c0 39 bc a7 3a c2 bc 95 fd eb bd db 3a 23 3e
       -0.011337307 -0.023709608 -0.11522976 0.1594042
000120 a9 e1 a5 3d fb 17 0a 3e 39 40 4c 3e ac 93 c0 3d
       0.08099682 0.1348571 0.19946374 0.09403166
000130 0d 4a 7b bd 0e dc 38 3e 0b 9f ce bd 14 58 3d 3d
       -0.061349917 0.18052694 -0.10088929 0.046226576
000140 6d d2 a5 3d 89 ad 65 3c bd 35 3b be fc 42 a9 3d
       0.08096776 0.014018425 -0.18282218 0.082647294
000150 e2 a7 ed 3d b1 72 de bd 54 e1 3f be 36 8b 56 3c
       0.11604287 -0.108617194 -0.187383 0.013094714
000160 8c 80 0a 3e 29 85 25 be 61 8b 0e bd fb aa a4 bd
       0.13525599 -0.16164078 -0.03480089 -0.080404244
000170 9d 08 ae bc 2a 08 c8 3d 81 c8 34 3e b3 db 5e 3e
       -0.021244342 0.09767182 0.17654611 0.21763496
000180 5a 5b e6 bd 6d ea 8a 3d a8 0d 20 be d3 d2 4e bd
       -0.11247893 0.067829944 -0.1563021 -0.050494026
000190 cb ef 95 bd 3e 78 5b 3e d4 53 a6 bd f4 b7 82 bd
       -0.073211275 0.21432588 -0.08121458 -0.063827425
0001a0 a8 a4 91 bd 98 db 4c be 1e 54 84 3c ca b3 cb bd
       -0.07111484 -0.20005643 0.016153391 -0.099464014
0001b0 33 a3 2c 3e 35 91 02 be 1c 96 bb bd 27 8b dd bd
       0.1685913 -0.12750705 -0.091594905 -0.10817557
0001c0 6a d3 46 3e 46 7b 21 3e a6 b5 18 bd f1 2d e1 bd
       0.19416586 0.15769681 -0.03728261 -0.10995091
0001d0 a5 ce 8e 3d d9 2f be bd 5e d9 a4 bd f7 fe 2e 3e
       0.06973008 -0.0928647 -0.08049272 0.17089449
0001e0 78 42 93 bd 1c 32 47 be b5 65 b0 bd a2 00 ea bd
       -0.07190412 -0.19452709 -0.08613149 -0.11425902
0001f0 7b 20 7d 3d 83 c5 0a 3e 93 25 32 3e 73 88 08 bd
       0.061798554 0.13551907 0.17397146 -0.033333253
000200 16 8f 28 be 1d 7d 50 3e 8e 11 1f be 0d 61 01 3e
       -0.16460833 0.20360227 -0.1553404 0.12634678
000210 cd 7b d2 3d 44 1d 26 3e ea 19 7f bc a1 0e 84 bb
       0.102775194 0.16222101 -0.015570143 -0.004030064
000220 34 d2 20 3e 6a 6a ec 3d 98 5c 29 3c af d0 d9 3d
       0.15705186 0.11543734 0.0103370175 0.10635506
000230 7c b1 2f 3e 39 93 21 3e 1d 62 b1 3d 17 75 7e bd
       0.17157549 0.15778817 0.08661292 -0.062123384
000240 89 8d 02 be 09 34 50 3e 62 aa 1b 3e 47 7b 77 bd
       -0.12749304 0.2033235 0.15201715 -0.0604203
000250 c5 79 94 bd 17 c7 60 bd 52 69 34 bd 01 37 35 3e
       -0.07249788 -0.054877367 -0.044045754 0.17696764
000260 98 31 08 be 3e 06 ec 3d 4f 20 e7 bd 1e cf 15 3e
       -0.13300169 0.11524628 -0.11285459 0.1462979
000270 15 65 af 3d 6e d5 7b 3d b7 3a f2 3a cb 6e 5d be
       0.08564202 0.06148284 0.0018480633 -0.21624295
000280 87 4e d8 3a 52 ec 6b bd 81 33 52 3e 55 52 49 3e
       0.0016502895 -0.05759842 0.2052746 0.19660313
000290 6d d3 9d bd 0e e1 7a bd 5e 12 9f bc 0f 82 46 be
       -0.07706342 -0.061249785 -0.019417938 -0.19385551
0002a0 61 be 16 be c1 58 51 be 08 8b 29 3e 77 a2 43 3e
       -0.14721061 -0.20444013 0.16556942 0.19104944
0002b0 c3 54 1c be 82 1a 18 3c b8 44 a6 3d 18 d3 96 bd
       -0.15266709 0.009283664 0.08118576 -0.07364482
0002c0 09 4a 8d bc 10 00 9d 3d f6 09 0e be 5a c3 2b 3c
       -0.017247217 0.076660275 -0.13870987 0.010483587
0002d0 34 88 90 bd 89 f1 0e be 9d 25 8a bd 52 f6 f0 bc
       -0.07057229 -0.13959326 -0.067454554 -0.02941433
0002e0 4a f2 98 3d 31 27 45 bd 24 66 72 bd 66 c7 c2 3d
       0.07468088 -0.04813308 -0.05917944 0.095106885
0002f0 de 40 32 be 35 f7 d6 bd 05 63 35 3d be 54 d4 bb
       -0.17407557 -0.1049637 0.044283886 -0.0064798286
000300 8b fb 42 be 39 c7 59 bd 64 73 1e 3d 79 5e 02 be
       -0.19041269 -0.05316851 0.038684264 -0.12731351
000310 51 a4 62 be d8 6e 45 3e 0e c6 04 bb 76 da c3 3d
       -0.22132994 0.19280565 -0.0020259651 0.095631525
000320 12 d0 03 3c 25 f7 44 be 80 c2 18 3d a9 81 70 bd
       0.008045213 -0.19234903 0.037294865 -0.058717404
000330 10 eb 7d bd 77 23 19 be 89 c6 21 3e f6 28 44 3e
       -0.06199175 -0.14954935 0.15798391 0.1915625
000340 81 8a 57 be 69 68 52 3c 7a 6d fa bb d0 45 0b be
       -0.21048929 0.012842276 -0.007642445 -0.1360085
000350 38 e4 27 be 89 d1 24 be 7f 3d 5c 3e cf 3a 4e bd
       -0.16395652 -0.16095556 0.21507834 -0.050349053
000360 57 20 03 be 3f 88 ab bd 46 2c a5 bd 81 80 44 3e
       -0.12805305 -0.08375596 -0.08065085 0.19189645
000370 45 4d e0 3d 57 f5 a4 bc 7c c3 4c be e9 b4 82 3c
       0.10952238 -0.020136518 -0.19996446 0.015955405
000380 03 e7 66 bd f2 fe 35 3e 57 61 f4 bd ef 7f 2f 3d
       -0.056372654 0.17773035 -0.119326286 0.042846616
000390 98 2a 24 be 2e 2d ee bd 74 f3 16 3d 57 7d eb 3d
       -0.16031873 -0.11629711 0.03685327 0.11498516
0003a0 a3 93 7f 3d b8 2b e8 bb d7 bd 55 be 32 e9 8a bd
       0.062396657 -0.00708529 -0.208732 -0.0678276
0003b0 86 fe d3 3d bb c3 9d bd 88 d2 04 be 07 46 03 be
       0.10351281 -0.07703348 -0.12970936 -0.12819682
0003c0 02 86 4b be 14 32 94 3c 77 80 d7 bc e3 30 d4 3d
       -0.19875339 0.018090285 -0.026306374 0.10360887
0003d0 82 ac dd bc 80 c6 36 bd eb 64 3c bd d5 45 09 3e
       -0.027059797 -0.044622898 -0.04599468 0.13405545
0003e0 21 90 89 bc 0a df a8 3d bb 28 7d bd 3f b9 36 bd
       -0.016792359 0.08245666 -0.06180642 -0.04461026
0003f0 73 80 31 3e a3 fd 6e 3d 6a f8 e2 3d 4c f1 51 be
       0.17334156 0.058347356 0.110825375 -0.20502204

conv3.bias f4 [64]
000000 34 61 86 3a fd b5 2c bb 25 45 97 38 3b 36 30 bb
       0.0010252357 -0.002635359 7.21312e-05 -0.0026887793
000010 f0 5a 8f 3b 6f f5 96 3b 0d a6 7b 3a 87 de 84 39
       0.0043748543 0.0046068947 0.00095996336 0.00025342798
000020 0e 9e 5f 3a e1 a6 4f 3a 66 ef 7a 3b 20 66 3f bb
       0.0008530327 0.000792129 0.0038289665 -0.0029205158
000030 d4 37 05 bb af b8 da 3a b8 01 8a 3a 53 8d f8 b9
       -0.0020327466 0.001668712 0.0010529077 -0.0004740754
000040 8f 8c 38 ba a9 3d 80 b9 7b 20 83 39 ca ab 56 3a
       -0.0007039988 -0.00024460003 0.00025010467 0.0008189051
000050 bc c5 13 b9 16 c7 0b 3a 4f b0 7d b8 ae eb 1e b9
       -0.00014092674 0.00053320953 -6.04841e-05 -0.00015155852
000060 62 10 8a ba 5f b4 7f 3b c9 47 06 b9 4a 27 6d 3b
       -0.0010533447 0.0039017422 -0.00012805978 0.0036186748
000070 b3 a2 00 3c de 59 20 39 e2 3a f8 ba c2 d0 3a 3b
       0.0078512905 0.00015292267 -0.0018938447 0.0028505777
000080 55 92 12 3a b8 4c 4e 3b 8d 07 87 3a dc 1a 08 3a
       0.0005591263 0.0031478833 0.0010301933 0.00051919906
000090 c4 dc 18 3b 3f 10 02 3c 30 72 48 bb 4c 5d b3 3a
       0.0023324946 0.007938444 -0.003058564 0.0013684421
0000a0 7c 0c 49 3b 97 e5 5f ba 1a 50 4e 3b 98 d6 11 3b
       0.0030677607 -0.00085409865 0.003148085 0.0022253152
0000b0 f2 d4 a3 3a 23 d7 98 3b f2 d1 01 ba 80 2f a4 3b
       0.0012499376 0.004664318 -0.0004952244 0.0050105453
0000c0 4d 53 99 ba 11 40 89 ba e4 15 91 3b 93 72 41 ba
       -0.0011697799 -0.0010471364 0.0044276584 -0.00073794386
0000d0 ec cf e4 3a 42 00 4f 39 f2 65 27 3b fc 31 ea ba
       0.0017456985 0.00019741154 0.0025542942 -0.001786768
0000e0 d5 79 ac 3a 50 1b 17 bb 52 67 ba 3b 4a 1a 3a 3b
       0.0013158867 -0.002305705 0.0056885863 0.0028397017
0000f0 74 c2 99 3b a5 85 e3 3a 21 5f ef ba 21 a8 25 3c
       0.00469237 0.0017358555 -0.0018262604 0.010110886

fc1.weight f4 [128, 192]
000000 e6 6b 4d 3d 47 dd 99 3c a6 85 7a bd 39 19 5a 3c
       0.050151728 0.018782271 -0.061162613 0.013311678
000010 c4 34 24 3d 25 5d 89 bd b7 b0 84 3b d6 1f 65 3c
       0.040089384 -0.06707219 0.0040493864 0.013984641
000020 5a b3 ae bc 21 6b 57 bc 43 df d9 bc 78 5a 6d 3d
       -0.021325756 -0.0131481 -0.026595717 0.057947606
000030 c8 07 66 bc 32 e1 1b bd 63 d4 bd bc 98 ce 26 3c
       -0.014039941 -0.03805656 -0.023172563 0.010181092
000040 a6 5c a8 bc 4a 3c 9f 3c 8e 89 7f bd 48 de 2b bd
       -0.02055199 0.019437928 -0.06238704 -0.04196003
000050 df 63 3c bd 63 21 ed bc 20 e6 17 bd b3 75 70 bc
       -0.045993682 -0.028946584 -0.0370847 -0.014676499
000060 a5 e0 2c bc 7e 47 c4 bb 3f ba 56 bc a4 9e 6b ba
       -0.010551606 -0.005989968 -0.013105928 -0.0008988178
000070 7f cd 33 3b f2 1a 89 bd a5 78 90 3d 29 f5 09 bc
       0.0027435718 -0.066945925 0.07054261 -0.008420267
000080 8c 9b 0b 3d 20 99 71 3d bc 17 27 3d 6b 23 6a bd
       0.034083888 0.058983922 0.04079412 -0.057162683
000090 b8 21 42 bd a1 dd 91 3c 3b 5a 2f bd 2e e3 9d bc
       -0.047395438 0.017805876 -0.04281066 -0.019273367
0000a0 4c 1f 37 3d f5 e0 2d 3d f9 cc 8f bd 50 c9 5f 3d
       0.04470758 0.042450864 -0.07021517 0.054635346
0000b0 c5 04 54 bd 4b a1 fc bc f4 eb 36 3c 9a 4b dc bc
       -0.05176236 -0.03083863 0.011164654 -0.026891518
0000c0 8a 15 1e 3c 79 c9 cb bc bc d5 a9 3c 68 33 8c 3c
       0.00964869 -0.024876343 0.0207318 0.017114356
0000d0 3e 84 86 bd c9 99 87 bd 31 d2 0c 3d 85 17 00 3c
       -0.06568192 -0.06621129 0.03438014 0.0078181075
0000e0 75 d6 00 bd 5b 2a 1f 3d c4 d2 7a bc 9e 8b 20 3d
       -0.031454522 0.038858753 -0.0153090395 0.03919565
0000f0 df 76 1c 3c 3a a5 da 3c ba f4 74 bd d2 a5 89 3d
       0.009549825 0.026690114 -0.059803702 0.06721081
000100 9b 54 50 3d d0 e0 a7 3c e1 27 02 3c f2 04 71 3d
       0.050861936 0.020492941 0.007944078 0.058842607
000110 89 26 f6 3c 05 82 1f 3c ba 06 c3 bc d8 b7 16 3c
       0.030047672 0.009735589 -0.023806918 0.009199105
000120 09 06 82 3d 01 69 8a 3c 2e ee c2 bc e1 6d b5 3c
       0.06348807 0.016895773 -0.023795214 0.02214712
000130 c1 c4 6c bd 9b a5 85 3d 8e a6 2e 3d a6 72 96 3d
       -0.057804827 0.06525727 0.042639308 0.07346086
000140 bd fc b6 bb 72 a4 b3 3c 60 03 34 3d e9 39 23 bc
       -0.005584328 0.021929 0.04394853 -0.009962537
000150 00 71 84 3d c8 b7 45 3c 3c 96 90 bc c0 5e 1b 3d
       0.064668655 0.012067743 -0.017649762 0.037932158
000160 34 d6 a7 3b 5e e5 75 3d 43 fc 7a bd 79 f5 f1 bb
       0.0051219705 0.060033195 -0.06127573 -0.007383999
000170 17 8f 9c 3c 7d 2d 34 bd df 86 1f 3d b2 3b 70 bd
       0.0191112 -0.043988694 0.038946982 -0.05865068
000180 fe e7 37 3c 9a 71 40 bd 5f f2 05 bd 3f 38 51 bd
       0.011224745 -0.04698334 -0.032701846 -0.05107903
000190 d9 a6 3a 3d 09 25 d8 bb 43 6c d3 bb f0 56 52 bd
       0.045569275 -0.006596212 -0.006452115 -0.05135244
0001a0 d0 e8 5b 3d 88 27 89 3d a8 9e c4 bc a7 62 88 bd
       0.053688824 0.06696993 -0.024001434 -0.066594414
0001b0 f8 b1 7b 3d 98 c4 61 bd 18 04 19 bb a7 7d 49 3d
       0.06144902 -0.055119127 -0.0023348387 0.049192097
0001c0 3e f2 c6 bc ce 77 6e bd 7f 68 89 3c 3c 83 c6 bc
       -0.024285432 -0.058219723 0.01677346 -0.0242325
0001d0 67 2e bf bc 96 40 a0 3c 0b 81 e5 3c 81 4b 46 3c
       -0.023337556 0.019562047 0.028015634 0.0121029625
0001e0 19 87 94 bd 2e e0 16 bd 2b 3b 33 3d 32 01 74 3d
       -0.0725233 -0.03683489 0.0437576 0.059571452
0001f0 33 ce 25 3d 9a 14 3a 3d 14 21 58 bd 25 30 ee bc
       0.04047985 0.045429803 -0.05276592 -0.029075691
000200 49 11 28 bd 01 c9 78 bd 64 99 81 bd 09 e8 e8 bc
       -0.04103211 -0.060738567 -0.06328085 -0.028430955
000210 8b 89 74 bd 9c ce 60 3d 94 e5 35 bd 44 a8 77 3d
       -0.059701484 0.054884538 -0.044408396 0.060463205
000220 fb 11 5f 3d cd 0b 2d bb 2c 47 83 3d 79 67 22 bd
       0.054460507 -0.002640474 0.06410059 -0.03964946
000230 5a 6b 34 3c d0 4a 7a bd 0a f3 81 bd 9f 6a 59 bd
       0.011011923 -0.061106503 -0.06345184 -0.053080197
000240 a9 d2 fc 3c a1 a3 f6 bc aa b7 ad 3c 24 58 6c bc
       0.03086217 -0.030107321 0.021205742 -0.014425311
000250 cf 13 b3 bb 4f 20 8a 3d f3 b1 84 bc 74 3c 48 bd
       -0.005465008 0.067444436 -0.016198134 -0.048885778
000260 c7 1f 80 bd c7 76 8b 3d 09 cb a1 3c 1a bb f1 3c
       -0.06256061 0.06809764 0.019750135 0.029508162
000270 d7 7c 7c 3d dd 9f 21 3c 49 bb 86 bd e5 22 90 3c
       0.061642494 0.0098647745 -0.065786906 0.017594764
000280 36 3f fd bc 6d 30 83 bc aa 23 e6 bc 1f 98 31 3b
       -0.03091393 -0.016014302 -0.028093178 0.0027098728
000290 2a 57 a7 3c f7 0a 6d bd b0 bd 14 bd 76 a8 13 bd
       0.020427305 -0.057871785 -0.036313713 -0.03604933
0002a0 a6 eb e3 bc 8f 5e 27 3c 2c ee 7a 3d 38 1c 36 3c
       -0.027822327 0.010215416 0.061262295 0.011115126
0002b0 45 6f 94 3c 24 14 69 bd fd 90 96 3b 60 34 04 3b
       0.018119464 -0.056903973 0.0045949207 0.002017282
0002c0 ca d2 5d 3d ae 6e da 3b 51 f1 8a bd 95 5a 80 bd
       0.054156102 0.006666026 -0.06784309 -0.06267277
0002d0 8f 8b a7 bc ef 43 0d bd fd d0 f7 bc 3d 08 43 3d
       -0.020452289 -0.034488615 -0.03025102 0.04761528
0002e0 08 00 d9 bc 9d ab dc ba 1d b8 92 bd 82 3a 44 3d
       -0.026489273 -0.0016835813 -0.07164023 0.04790736
0002f0 85 6c 03 bd 9a d6 d0 3a f3 33 8b bd d5 8d d6 bc
       -0.032085914 0.0015933097 -0.06797018 -0.026190678
000300 be 10 57 bd 92 91 a3 3c f7 00 19 bd 11 c9 dd bc
       -0.0525062 0.019966874 -0.037354436 -0.027073415
000310 ac 28 42 3d 43 ca 53 bd 01 2d 83 bb 19 6a 5d bd
       0.04740207 -0.051706564 -0.0040031676 -0.05405626
000320 b8 60 83 3d d4 a8 8d 3d f4 b2 25 bd 49 42 e5 bc
       0.06414932 0.06916967 -0.040453866 -0.027985709
000330 bd 43 91 3d 37 8f 86 bd bc 96 12 bb 2f f9 37 bd
       0.07092998 -0.06570285 -0.0022367677 -0.044915374
000340 d7 18 b7 3b 3b cb 88 bd ba 2b 6d bd 79 1c 02 3d
       0.005587678 -0.06679388 -0.05790303 0.031765435
000350 77 26 8f bc a6 61 fa 3c 09 a7 23 bc 05 3d 28 bd
       -0.017474396 0.03056414 -0.009988555 -0.041073818
000360 df 96 36 bd c2 11 60 bc c4 de e5 3a a8 b5 4d bc
       -0.044577476 -0.013676109 0.0017537703 -0.012555517
000370 a5 61 a6 3c 37 31 47 bd cf 07 13 bd 2c b2 5d bd
       0.020310232 -0.04863092 -0.03589612 -0.054124996
000380 44 1c 56 bd 83 ad 38 bd bb df 63 3d 6c d0 29 bd
       -0.05227305 -0.04508735 0.055633288 -0.041458532
000390 b4 e1 2e bb df 76 ce bc fd 9f 25 3d a0 9b ae 3b
       -0.0026684823 -0.025203167 0.04043578 0.0053286105
0003a0 49 d9 86 3d dc 4a 87 3c c0 44 d4 3b 83 78 03 bc
       0.065844126 0.016515188 0.006477922 -0.008024338
0003b0 2e 76 46 3c 1b 25 ee 3c c6 2f 3f bd ab 23 1d 3c
       0.012113137 0.029070428 -0.04667642 0.009591023
0003c0 fa 8d 63 3d 19 0d 19 3d 4f b8 7f 3d 24 ae c9 bc
       0.05555532 0.037366007 0.06243163 -0.02461917
0003d0 3e 2a a6 b9 e2 80 ac bc b6 44 e0 bc e2 dc 54 3b
       -0.0003169346 -0.02105755 -0.027376514 0.003248029
0003e0 06 e3 9d bc cf 26 84 bd 6e 28 c3 3c dc b2 91 3d
       -0.019273292 -0.06452715 0.02382299 0.07114193
0003f0 9d 04 a8 3d 4b ae 06 3d b4 45 04 3d 91 d1 91 bc
       0.08204005 0.032881062 0.032293037 -0.017800124

fc1.bias f4 [128]
000000 a9 ec 83 3d 6e 07 87 3d 78 10 1d 3c 67 46 1d bd
       0.06441624 0.06593214 0.009586446 -0.03839722
000010 d1 77 ca bc 99 5e 4f bd 72 7f a3 3c f8 bd 77 3c
       -0.024715336 -0.050627325 0.019958232 0.015120976
000020 f2 cb 5b 3d f0 4d 33 3d 04 22 64 bd 4e 79 27 bd
       0.053661294 0.0437755 -0.055696502 -0.04088717
000030 6b ff 8a bd 25 0a 3a bd 69 e8 8d 3d 26 7b 63 3d
       -0.06786998 -0.04541983 0.06929094 0.055537365
000040 ee 7d e4 bb 25 4a a0 3b a3 9c 3a 3d ca 75 3d 3d
       -0.00697302 0.004891651 0.045559537 0.04625491
000050 b2 01 21 bd af 70 6a bc b4 eb a4 3c 44 68 3b bc
       -0.039308257 -0.014309092 0.020131923 -0.011438433
000060 a2 06 80 3c 93 74 84 bd a2 e7 4c 3b 45 89 31 3d
       0.015628163 -0.06467547 0.0031265994 0.0433438
000070 d3 3b 85 bc 0c 34 0e 3d b0 f3 9d 3b e4 ca d4 3c
       -0.016263878 0.034717605 0.0048203096 0.025975652
000080 28 5c 68 3d 01 e3 d7 3c 60 1e 0a bc c6 b8 3d 3d
       0.056728512 0.026353361 -0.0084300935 0.04631879
000090 bf 4c 65 3d dd 92 35 3d 35 4b 37 bd 44 86 82 3d
       0.055981394 0.044329513 -0.044749457 0.063732654
0000a0 5a a5 fc bc 3b 7f 37 3d 7c 2e 87 bd f4 05 2f bd
       -0.030840565 0.04479907 -0.06600663 -0.042730287
0000b0 3d 42 3e bc 20 39 40 3d 5c 7a 8a bd 2b b1 1c bd
       -0.011612472 0.04692948 -0.067616194 -0.038254898
0000c0 1f 1f 30 bc 5e 27 30 3c 95 85 7a bd e2 e7 81 bd
       -0.010749607 0.010751573 -0.06116255 -0.06343056
0000d0 f4 4f 0a bc 82 22 44 bd 6f f6 71 3d 21 81 1e 3d
       -0.008441914 -0.04788447 0.059072908 0.038697366
0000e0 3d c1 19 bb 7d dc 68 3d 98 17 0d bd bf 17 82 3d
       -0.0023461126 0.0568509 -0.03444633 0.063521855
0000f0 40 2f 5a bb da bb d1 3a d6 7d 8a bd b0 1f 15 3d
       -0.0033292323 0.0016001419 -0.067622826 0.036407173
000100 a1 f6 3f 3d 30 12 dc bb fd 8f 26 3c 04 ea 56 3d
       0.046866063 -0.0067160353 0.010166165 0.05246927
000110 77 d7 85 3d e4 72 02 bd 13 f3 64 bd 48 2c 52 bc
       0.06535237 -0.03184785 -0.055895876 -0.01282794
000120 4d f3 41 bc a1 7b 51 bc 2a 94 32 bd 1c 69 09 bc
       -0.011837793 -0.012785823 -0.04359833 -0.008386876
000130 cb 5b 65 bd f4 7d 9c 3d 75 2c a4 3c aa 32 3b bd
       -0.055995744 0.07641211 0.02004073 -0.045702614
000140 83 77 82 3c 18 d7 d4 bc f6 8d 2f 3d 39 f6 92 bd
       0.015926128 -0.025981471 0.042859994 -0.071758695
000150 e6 27 13 bc 29 0d 35 bd aa af 04 3d 95 19 5c bd
       -0.0089816805 -0.044202004 0.03239409 -0.053735334
000160 cf 38 03 bd 4f 1e f8 3c ac 90 8e 3d 90 92 8c 3d
       -0.0320366 0.03028789 0.06961188 0.06863892
000170 33 94 39 bd 50 c5 8a bd 43 52 f0 3c 8a dd 11 bd
       -0.04530735 -0.067759156 0.0293361 -0.035611667
000180 7c de 70 bd 8c 44 92 3d 03 e4 80 bd 0e 9b 10 bc
       -0.058805928 0.071419805 -0.0629349 -0.00882603
000190 58 3c d3 3c fb 34 6a bd 59 4c 0e 3b 29 7f 62 3d
       0.02578561 -0.057179432 0.0021712987 0.05529705
0001a0 2e 13 0c 3b cf 5b 3d 3d e1 e3 31 3d df f3 51 3d
       0.0021373737 0.046230134 0.043430213 0.051257964
0001b0 e8 76 95 3c 62 3d 87 bd 74 ba 42 3d 04 65 7c 3d
       0.018245175 -0.06603505 0.047541097 0.061619774
0001c0 18 5e 4e 3d 8c ed 9e 3c 7a e4 93 3b 14 65 54 bd
       0.050382704 0.01940038 0.0045133205 -0.051854208
0001d0 11 d8 25 bd 89 96 4b bd c7 08 a6 3c c7 4d 88 3d
       -0.04048926 -0.04970411 0.020267857 0.0665546
0001e0 e6 bb 50 3d 60 e9 42 bc 68 f5 90 bd 65 6e 67 3d
       0.050960444 -0.011896461 -0.070780575 0.056501765
0001f0 fb 58 81 3d f7 f9 f9 3c e5 4a 5e bd 7b f6 7c 3d
       0.063158 0.0305147 -0.054270644 0.0617585

fc2.weight f4 [64, 128]
000000 39 06 2a bd 96 e2 91 bd 7d 58 3f bd e7 81 03 3c
       -0.04150984 -0.07123296 -0.04671525 0.008026577
000010 7a 14 a3 bd 7b bc 87 3d c0 b2 28 bd 53 dc 96 3d
       -0.0796289 0.06627747 -0.041186094 0.07366242
000020 06 fd 93 3d 23 9e 8d bd fd 5c 52 bd 08 ce 1e bd
       0.07225995 -0.06914928 -0.05135821 -0.038770705
000030 28 b8 a2 bd 28 74 0a bd f6 fb b6 3d 1d ba b6 3d
       -0.07945281 -0.03380218 0.089347765 0.08922217
000040 4a 7c 91 bb f8 27 71 bc ef a1 48 bd 55 06 5c 3d
       -0.0044398652 -0.014719002 -0.048982557 0.053716976
000050 16 e9 56 bd ab 7b 4b bd db 29 86 bc 93 51 8c bc
       -0.05246838 -0.049678486 -0.01637738 -0.017128741
000060 cd 04 98 bc a6 46 22 bd 6c b5 96 3d 16 d7 a9 3c
       -0.018556977 -0.039618157 0.07358822 0.020732444
000070 e0 74 0e 3c cd 28 3f bc b8 5f ba bc 9f 71 65 3c
       0.008694857 -0.0116674425 -0.02275072 0.01400414
000080 c1 ed 96 bd f8 92 a8 3d 77 be af bd 4f 38 9b 3d
       -0.07369567 0.08231157 -0.0858125 0.075790994
000090 9f b5 82 3d ec 8a 3b bd 7b 89 34 3d d9 d6 9c bd
       0.06382298 -0.045786783 0.044076424 -0.076581664
0000a0 e6 68 38 3d 22 e9 46 3d e7 ee 32 3d 78 9b b0 bc
       0.045021914 0.048562177 0.043684866 -0.021558508
0000b0 a4 50 7c bd 5e b1 ae 3d c9 6b eb bc 34 31 00 bc
       -0.061600342 0.08529924 -0.02873792 -0.007824231
0000c0 eb 48 15 3a 53 4d 86 3d 02 d8 4e 3d 4c cf cf bc
       0.00056947645 0.06557717 0.05049897 -0.025367402
0000d0 cb 9b a3 bd 66 ee 49 bd 05 08 34 3d cf cd 94 bd
       -0.079886995 -0.04929962 0.04395296 -0.072658174
0000e0 c4 79 a0 3d 34 1e 9b 3c 1b 9f 96 3d c1 ce 6e 3d
       0.07835725 0.0189353 0.07354566 0.058302645
0000f0 a5 ab 2b bd b4 07 ac 3d 05 49 b4 3d 18 02 01 3d
       -0.04191174 0.08399907 0.0880299 0.031496137
000100 8d 10 71 bd 66 e8 5c bd 10 79 14 3d f2 48 36 bd
       -0.058853675 -0.05393257 0.036248267 -0.04450316
000110 4b e5 5d 3b 4a 44 44 bd 6f c1 7e 3a 16 80 0f 3d
       0.0033858593 -0.047916688 0.0009718155 0.03503426
000120 3b 80 a9 3c 03 5b 30 3c 24 6a 54 3d 8a bb ae 3d
       0.020691028 0.010763886 0.051859036 0.08531864
000130 9a 5d e8 3c 9e 75 8d 3b 2b 5c 73 3d 83 c0 de 3c
       0.028364945 0.0043169996 0.05941407 0.027191406
000140 35 25 b5 3d 4b 65 95 bd c3 cb 16 bd 1c f8 85 bc
       0.08844987 -0.07294711 -0.036815416 -0.01635366
000150 3e e7 76 3d a6 73 96 bd 68 13 dc 3c 82 e4 f0 bc
       0.060279123 -0.07346277 0.026864722 -0.029405836
000160 a1 ef a2 3d c4 f3 ed bc 4f 68 25 3b ea 5f 30 bc
       0.07955862 -0.0290469 0.0025239175 -0.010765055
000170 61 64 5f bc f5 8f 5b bd 73 49 42 3b c7 01 89 bd
       -0.013634772 -0.053604085 0.002964583 -0.06689792
000180 ab fa 69 3c 28 35 a4 bd 33 7b e5 3c d0 ea 82 bd
       0.014280955 -0.08017951 0.028012848 -0.06392443
000190 27 80 7a 3d cd 23 a4 bd 3d c6 a7 3c d0 72 dd bc
       0.06115737 -0.08014641 0.02048027 -0.027032286
0001a0 9b 29 33 3d 8f c7 3d 3d e2 95 21 bd 81 ee 85 bd
       0.04374085 0.046332892 -0.03944958 -0.06539632
0001b0 1b 1e a7 3d a8 a6 83 bd 20 09 3a 3d 34 cb d6 3c
       0.08160039 -0.064282715 0.04541886 0.026219942
0001c0 56 47 84 3d ab 34 96 bd 20 d7 80 bd c4 0c b6 3d
       0.06458919 -0.07334264 -0.06291032 0.088891536
0001d0 b6 c7 37 bb d5 b1 cb 3c a8 75 85 bc 55 18 b3 bd
       -0.002804262 0.02486507 -0.016291454 -0.08744875
0001e0 48 c6 4a bd 2f 55 cd 3a f7 cc cb bc 1f 29 44 3d
       -0.049505502 0.0015665645 -0.024878008 0.04789078
0001f0 f6 ae 13 bc a7 88 09 bd 55 96 36 bd c4 03 4c 3c
       -0.009013882 -0.033577587 -0.04457696 0.01245207
000200 f4 e1 5a bd 61 f8 f8 bc 78 d5 4c bd db 1a 84 bd
       -0.053438142 -0.030391874 -0.050008267 -0.06450435
000210 6e a6 65 3d 00 b3 2a bd 01 2a d9 bc f3 56 eb bc
       0.056066923 -0.041674614 -0.026509287 -0.028727984
000220 ec 14 5d 3c 8c 49 8d 3c 01 6e 68 3d 1a 0c 9f bd
       0.013493758 0.017246984 0.056745533 -0.0776598
000230 c5 e4 1c bd 5e 39 9a 3d 43 4b 8d bd b8 78 97 bc
       -0.03830411 0.07530473 -0.06899121 -0.01849018
000240 41 57 5d bb e9 f6 2e 3d b2 a5 78 3d 1b 5e 97 3d
       -0.0033773931 0.04271594 0.060704894 0.07390996
000250 f5 97 58 bd 5e f9 82 3d 81 1c 39 3d ee a8 5f bc
       -0.052879293 0.06395219 0.0451932 -0.013651116
000260 f3 c0 17 bd 85 05 9a bd d4 1d 83 bc 8a 10 8f 3c
       -0.037049245 -0.07520584 -0.016005434 0.017463941
000270 fe 64 87 bd d1 bb 4e 3c f2 d7 30 3d c0 27 86 bd
       -0.066110596 0.012618021 0.04317469 -0.065505505
000280 ae 06 a8 bc a5 59 7f bd 26 dd 29 3d 48 2f 92 bd
       -0.020510998 -0.06234135 0.04147067 -0.071379244
000290 07 b4 f3 bc 91 73 bb 3b f9 b1 92 bd 72 d4 90 3d
       -0.02974893 0.0057205637 -0.07162852 0.07071771
0002a0 14 44 36 bd b4 df ad 3d 6c 73 6d 3d 6c ae 2d 3d
       -0.044498518 0.084899336 0.057971403 0.04240267
0002b0 af 30 a2 3d e5 7c 0d bd 7e 23 c4 3c 8a 44 e5 3c
       0.07919442 -0.034542937 0.023942705 0.027986784
0002c0 ca f2 b5 3d 24 ac 9c bd d0 dd a6 bd 3f d5 08 3c
       0.08884199 -0.07650021 -0.08147776 0.008351623
0002d0 95 aa 9a bd 87 74 80 bd c2 dc 7c 3c 0e 42 a6 bd
       -0.07552067 -0.06272226 0.015433492 -0.08118068
0002e0 ab 2e c2 3c c6 08 a4 3d 0c e7 a4 3d 8d c2 b7 3c
       0.023703894 0.08009486 0.08051881 0.022431636
0002f0 ad 64 a6 bc a3 9f 0e bd 6e 5e 30 3d 6a 33 81 bd
       -0.020311678 -0.03482021 0.043058805 -0.063086346
000300 d3 9f 9f bd 43 48 34 bd 13 d2 48 3d 9b b8 4a 3d
       -0.07794156 -0.044014227 0.049028467 0.04949246
000310 1a c6 31 bc a8 e6 84 3c ef 7d 68 bd 34 43 9e bc
       -0.010850454 0.016223267 -0.056760725 -0.019319154
000320 48 34 a3 3d 7c aa 38 bc 05 d1 54 bd 5b 91 94 3c
       0.07968956 -0.011271115 -0.05195715 0.018135717
000330 77 0a 57 3c 26 e7 95 3c 12 4b 90 3d 0e 50 80 3d
       0.013125054 0.018298697 0.070455685 0.06265269
000340 d3 70 86 3d 30 3b 16 bb cb 06 43 bc 20 4d 3d 3c
       0.06564488 -0.0022923462 -0.011903475 0.011554033
000350 0d e2 b3 3d 1b b0 be 3d f0 5e 2e 3c 18 aa e6 3c
       0.0878335 0.09310933 0.010642752 0.028157279
000360 ef 1f 85 bd af 88 64 3d bd 61 66 bd 10 7f 84 bd
       -0.065002315 0.055794414 -0.056245554 -0.06469548
000370 d0 dd 5b 3c ca 3d 3a bd f1 0d 8b bc 29 82 ea bc
       0.013419583 -0.045469083 -0.016974421 -0.028626518
000380 4b 6d c3 3b 6f 8f 9b bd d7 c5 94 3d 84 13 0d bd
       0.0059639565 -0.07595717 0.072642975 -0.03444244
000390 cf c0 ad 3d 95 fb a8 bc 3e f4 9f 3d 03 7b 86 bd
       0.08484041 -0.020627776 0.078102574 -0.065664314
0003a0 2d 19 f6 ba 02 e6 4e bd e0 e3 6f 3c 30 4c 8b bd
       -0.0018775814 -0.05051232 0.014641732 -0.06801641
0003b0 1a a9 ac 3d 40 ee 4c bc 2a dd 31 3c 72 c1 b2 3d
       0.08430691 -0.012507975 0.010855952 0.08728303
0003c0 e9 48 2a bd ee 6e 98 3c 25 0b a7 3c e6 d3 5c 3d
       -0.04157344 0.018607583 0.020391056 0.05391302
0003d0 2e 9b 3e bd 97 bf 32 3d 84 68 31 ba 42 98 7e bd
       -0.04653471 0.043639746 -0.0006767588 -0.062156923
0003e0 7c 5c da 3b 4f 2e 1f 3b 67 07 b0 3d d2 87 96 3d
       0.006663857 0.0024289077 0.08595162 0.073501244
0003f0 ae 0b 71 bd b0 09 16 3d 5a 56 34 3d 68 83 68 3d
       -0.05884903 0.036630332 0.044027664 0.056765944

fc2.bias f4 [64]
000000 e3 6f 58 3d ce a1 93 bc 17 80 1e 3d 58 42 84 bd
       0.05284108 -0.01802149 0.038696375 -0.064579666
000010 86 c9 2c bd 01 69 82 bc cc b7 42 3c 3f 51 dc 3c
       -0.042184375 -0.01591921 0.011884641 0.02689421
000020 53 40 71 bd 1f 28 02 bd 4b e4 a6 bd 60 15 4b 3d
       -0.058899235 -0.031776544 -0.08149012 0.04958093
000030 25 cc 4f 3b 78 3e 9e 3d 4f 81 d5 bc 86 96 88 3d
       0.0031707373 0.07726759 -0.026062636 0.06669335
000040 42 b8 b2 bc c2 a2 9d 3d 25 95 83 3d c9 6b 69 3d
       -0.021816377 0.07697059 0.064249314 0.056987558
000050 56 0c 9b bc 44 6c 98 bc d0 d3 4b 3d 54 cc b4 3c
       -0.01892678 -0.018606313 0.049762547 0.022070087
000060 63 2d 22 bd 02 3e f3 3c 4b 97 9e 3d 02 6d 23 3d
       -0.039594065 0.029692654 0.077437006 0.03989888
000070 fb 52 83 bd ea 1b cf bc 4a 98 8a bd bc 47 14 3d
       -0.06412312 -0.025281865 -0.06767328 0.036201224
000080 e5 25 1c bc 3f 74 9c bd 36 4b 26 bd 2d 4a 87 3d
       -0.009530519 -0.0763936 -0.04059907 0.06605945
000090 34 03 6c bd 41 b7 37 3c 4c 45 aa 3d 80 21 a8 3d
       -0.057620242 0.011213125 0.083139986 0.082095146
0000a0 98 4b b7 bc 6a fe 4a bd a1 da bb bb b8 68 89 3d
       -0.022374913 -0.049559034 -0.0057328497 0.06709427
0000b0 e9 64 0f bc f5 b9 9b 3d a8 73 35 3c 08 84 b6 3d
       -0.008752086 0.07603828 0.011074938 0.08911902
0000c0 db eb 81 3d 30 c4 31 bd 8a 4d 89 3d f6 9b 83 3c
       0.06343814 -0.04339999 0.067042425 0.016065579
0000d0 fc 90 a4 bd 20 3e 60 bd 67 0c 36 bc e2 cb 88 3d
       -0.08035466 -0.054746747 -0.011111355 0.066795126
0000e0 82 7b 92 bd 11 ef 83 bc 10 64 39 bd b9 40 51 3d
       -0.071524635 -0.016105207 -0.045261443 0.051087115
0000f0 b1 a1 9d bd 9f 93 7c 3d 53 2a 47 bd fb 8f 2b bd
       -0.07696856 0.06166422 -0.048624348 -0.041885357

fc3.weight f4 [2, 64]
000000 cd ea 23 bd 99 d0 87 ba 97 0e 0a bd 5e af b8 bd
       -0.040018845 -0.001036185 -0.03370532 -0.09017824
000010 fc 12 fa bc e5 62 91 bd 55 e6 a8 bd 06 2f 4c bc
       -0.03052663 -0.07098941 -0.08247057 -0.012462383
000020 78 a3 1d 3d 87 60 81 3d 09 79 a3 bd c6 cd e2 bb
       0.038485974 0.06317239 -0.0798207 -0.0069215028
000030 28 34 8b bb e7 d8 f8 3a 0e 03 ea 3d 1b 3b cf 3d
       -0.004248161 0.001898554 0.11426364 0.10118695
000040 ca 3f f2 3d 12 c9 ce 3d 2c 9a aa bd f0 01 f3 3d
       0.11828573 0.10096945 -0.08330187 0.11865604
000050 b0 70 f2 3d 1c 8a 77 3d 8d fc 50 bc 5a c7 c9 3d
       0.118379 0.060434446 -0.012755525 0.098524764
000060 a0 c3 ae bc 21 17 fe 3d 18 67 dc 3b dc a5 8a 3b
       -0.021333516 0.12406755 0.006726157 0.0042311978
000070 dd 3d 02 bc 35 fc 41 3c 67 5e d3 3d 8b 25 eb 3d
       -0.00794932 0.011839916 0.1032074 0.1148177
000080 07 df 17 3c 4e 93 91 3d cc 74 d0 3d 0a a9 63 3d
       0.009269482 0.07108174 0.10178527 0.05558113
000090 6d 96 d0 bc 12 52 e2 3c c4 4e ed bd 13 cf 6a 3d
       -0.025462354 0.027627025 -0.11587289 0.057326388
0000a0 c2 61 75 3d be d2 fd bd 29 96 f2 3d d7 3b e9 3c
       0.059907682 -0.123937115 0.11845047 0.028470917
0000b0 5c 9e 0f 3d 0e d8 02 3d 64 64 de bd ca 35 fe bd
       0.035063133 0.031944327 -0.10858992 -0.12412603
0000c0 3a 58 48 3d 4c a2 e3 bc 6d f0 b8 bc 28 04 fd bc
       0.048912264 -0.02778735 -0.022575581 -0.03088577
0000d0 58 d9 ac bd d1 f3 cc bd 40 6b 11 bd ca ed c4 bd
       -0.084398925 -0.10007442 -0.035502672 -0.09615667
0000e0 74 2d ce bc 1a df d8 3d e8 2a 88 3d e6 39 f0 3a
       -0.025168158 0.10589428 0.06648809 0.0018327802
0000f0 6a b3 37 bd 8c 63 10 3d cf 3b 67 3d 6e b6 9b 3d
       -0.044848837 0.035251185 0.056453522 0.07603155
000100 af b0 98 3d bf b0 2b 3d 71 9b 87 bc 55 89 30 bc
       0.07455575 0.041916605 -0.016553612 -0.01077493
000110 08 79 85 3c c1 38 cc bd 7f fb f7 bd 19 2f 9d bd
       0.016293064 -0.099717624 -0.12108516 -0.07674999
000120 01 d6 8d bb bc fb af bc d5 7c 2f bd 60 eb 36 3d
       -0.00432849 -0.021482341 -0.04284366 0.044658065
000130 3e 33 ce bd 7a 88 99 3c 02 7d e1 bd 3b fe ed bd
       -0.100683674 0.018741835 -0.110101715 -0.11620756
000140 ee 7a 11 bd 56 13 00 3d d6 77 80 3d 82 47 38 bd
       -0.035517626 0.03126844 0.06272857 -0.04499007
000150 62 32 ae 3d cc 5a 04 3d 1e fa 1d 3c 3f e9 91 3d
       0.085057035 0.032313153 0.009642152 0.07124566
000160 de 6c d4 3d 95 21 bf 3d 05 02 ae 3d 32 64 e0 3d
       0.10372327 0.09332577 0.08496479 0.10956611
000170 08 38 14 3d 5d d0 43 bd 73 76 2f 3c 63 43 be bc
       0.036186248 -0.047806133 0.010709393 -0.023225492
000180 e0 58 d1 bd 22 2e f8 3d 30 8a e4 bc fe ab 1c bd
       -0.1022203 0.12118174 -0.027897924 -0.038249962
000190 d4 57 b4 bd 96 de 09 3e d6 f7 a6 3d 9c 24 ef 3d
       -0.088058144 0.13463816 0.0815274 0.116769046
0001a0 6c 1f ff bd 32 a9 f8 ba 49 ba e4 3d ae 0d 18 3d
       -0.12457165 -0.0018971323 0.111683436 0.03712242
0001b0 34 9f 64 bd b0 8f dc 3d 8c 45 66 bd 28 58 eb bc
       -0.05581589 0.10769594 -0.05621867 -0.02872856
0001c0 21 64 7d bc 09 d9 7e 3d a7 89 84 3d 44 18 48 3d
       -0.015465767 0.0622187 0.064715676 0.048851267
0001d0 60 4f 8e 3c f7 9e 32 3d 12 d4 03 3d f4 de 62 3d
       0.017371833 0.043608632 0.032184668 0.055388406
0001e0 8b 04 86 b9 58 36 bb 3d 6e 41 53 bd d2 76 91 bd
       -0.00025561856 0.091412246 -0.05157607 -0.07102741
0001f0 26 a7 ba bb a1 2f c2 3c d7 56 5b bd 4e 57 c0 bd
       -0.005696195 0.023704352 -0.053549614 -0.09391652

fc3.bias f4 [2]
000000 6b 59 fd 3d e7 78 d6 bd
       0.12370571 -0.10472279
