model_to_load/mod64_save9.pt (torch_old, 172265 bytes, 12 tensors)

conv1.weight f4 [18, 64]
-0.017542683 -0.13452418 0.20510213 0.18938184 0.04107017 0.07733258 0.13680881 0.14548072
-0.050264947 0.1345241 0.22591275 -0.087569684 -0.17767179 0.07564712 -0.16532563 0.09468196
0.14614993 -0.108728506 0.16929449 -0.18697864 0.09203855 -0.013483454 -0.17808634 -0.024026906
0.2422619 -0.2256209 0.27054137 -0.077845365 -0.27016538 0.26481995 -0.14745273 0.019462725
-0.23328258 0.08693075 -0.13849923 -0.24003522 0.23500009 -0.2544024 -0.23544781 0.23050037
-0.120453924 -0.05418385 0.1843414 -0.17831355 -0.1686575 0.21196263 0.120996505 -0.23761292
-0.12108659 -0.040529076 -0.24509509 -0.26199105 -0.23931788 -0.09466704 0.24143814 -0.04456965
-0.25916627 0.0055941646 -0.16603918 -0.1736062 0.22814542 0.2592902 0.19441524 0.009696483
0.019236762 -0.23347707 0.02414346 -0.16115695 0.042623706 -0.17154773 -0.111828975 -0.2144922
-0.08131654 0.23702045 0.23302668 -0.018341862 -0.17315574 0.026651744 0.09256736 -0.041426115
-0.03661343 0.1269096 -0.20244275 0.08236167 0.19772303 0.0034749575 -0.20188591 0.107722014
0.21813521 -0.17200579 0.06682533 -0.033890776 0.029524127 -0.13730015 0.00024057594 0.09122274
0.25184137 -0.16764453 0.0070213364 0.15309174 -0.25433847 0.19159359 -0.051515322 -0.20317098
0.10136592 0.014207229 0.0047145826 -0.1671214 -0.16149932 0.009589738 0.23994459 0.08861456
0.18479311 -0.1896763 -0.18477406 -0.17956114 0.2202669 0.21509276 0.16576122 -0.07825319
0.0405279 0.11435569 -0.2578218 -0.18766229 -0.17973989 0.24730067 -0.2011854 -0.16211459
0.15343027 -0.18328819 0.1677212 -0.1311956 -0.179097 0.0028450629 -0.17760041 0.037980195
-0.092490435 0.049644824 -0.27133355 -0.1365353 0.0513502 -0.1356924 -0.24287659 0.010210774
0.13098986 0.19420221 0.1633677 0.13317868 -0.017771015 -0.25169033 -0.16961229 -0.055441722
-0.123112306 -0.14745888 0.013425251 -0.16592072 0.04092554 0.14990595 -0.25566 0.02661605
-0.020501614 -0.1972091 -0.20107141 0.12649727 -0.11106565 0.24441138 0.13825677 0.18997216
0.114651285 0.059095107 0.13559553 0.13736767 -0.20370933 0.012298738 0.06540743 0.0013994054
0.16831736 -0.016718537 -0.14328933 -0.1597147 0.07159911 0.18197371 0.011858201 -0.109084055
0.24692197 -0.020347646 0.015677683 0.1464812 -0.057641532 -0.080961846 -0.031287957 -0.09396775
0.005327393 0.115808636 -0.15243888 -0.18128306 -0.2084107 -0.15263046 -0.23217885 0.14315465
-0.18622504 -0.024892027 0.05015893 -0.190195 -0.09780909 -0.1969357 -0.0009949018 -0.20744698
0.25911674 -0.051167402 -0.103290774 0.15431133 0.12944971 -0.039820604 0.25130793 0.13271375
-0.1101675 -0.15040739 -0.021757327 0.22308761 0.007119952 0.22182801 0.18946262 -0.1745618
0.19836259 -0.24541453 -0.20381741 -0.032294486 0.03619934 0.010854718 0.12538423 -0.17782359
0.21305497 -0.23179246 0.13020946 0.19472955 -0.04931679 0.013167929 -0.069324754 0.11200651
-0.18928836 -0.1483486 -0.17697424 0.11140122 0.1498266 0.20865424 0.113739245 -0.011478449
-0.007442671 -0.21068643 0.16987501 0.0987341 0.051943358 -0.24181168 -0.03559544 0.22307043
00000000: acb5 8fbc b5c0 09be 4b06 523e 50ed 413e
00000010: 3239 283d 8b60 9e3d 9c17 0c3e e6f8 143e
00000020: 9ee2 4dbd b0c0 093e ac55 673e bc57 b3bd
00000030: 98ef 35be e1ec 9a3d 1f4b 29be 9ee8 c13d
00000040: 54a8 153e 0dad debd 895b 2d3e 5477 3fbe
00000050: b57e bc3d b4e9 5cbc 445c 36be 13d4 c4bc
00000060: 8113 783e 2a09 67be 6684 8a3e 646d 9fbd
00000070: 1e53 8abe 7b96 873e d9fd 16be 4b70 9f3c
00000080: a1e1 6ebe c008 b23d bed2 0dbe cbcb 75be
00000090: dda3 703e 0841 82be 3b19 71be 4a08 6c3e
000000a0: 8cb0 f6bd e2ef 5dbd fec3 3c3e d497 36be
000000b0: 8db4 2cbe bb0c 593e 04cd f73d cd50 73be
000000c0: 3ffc f7bd d101 26bd 35fa 7abe b123 86be
000000d0: bf0f 75be cbe0 c1bd 8f3b 773e aa8e 36bd
000000e0: 71b1 84be 414f b73b 2d06 2abe d3c5 31be
000000f0: f49e 693e afc1 843e ca14 473e ffdd 1e3c
00000100: 6a96 9d3c 9d14 6fbe 81c8 c53c 5406 25be
00000110: 3296 2e3d 35aa 2fbe 9706 e5bd d8a3 5bbe
00000120: 4989 a6bd 7db5 723e 8c9e 6e3e ac41 96bc
00000130: bd4f 31be c254 da3c f593 bd3d 6eae 29bd
00000140: f7f7 15bd 97f4 013e 274d 4fbe 3cad a83d
00000150: e877 4a3e 1dbc 633b 2ebb 4ebe 5c9d dc3d
00000160: d65e 5f3e 4922 30be b8db 883d 0ed1 0abd
00000170: 95dc f13c 6998 0cbe 1d43 7c39 fdd2 ba3d
00000180: 5af1 803e 02ab 2bbe 3d13 e63b 15c4 1c3e
00000190: a738 82be 1c31 443e bb01 53bd 0e0c 50be
000001a0: ef98 cf3d 70c5 683c c97c 9a3b df21 2bbe
000001b0: 1460 25be 471e 1d3c 09b4 753e 8d7b b53d
000001c0: 683a 3d3e 813a 42be 6935 3dbe e0de 37be
000001d0: a58d 613e 4741 5c3e 4fbd 293e 3543 a0bd
000001e0: 9500 263d 5133 ea3d 3801 84be 8b2a 40be
000001f0: bc0d 38be 633c 7d3e 8c03 4ebe 5e01 26be
00000200: d31c 1d3e e6af 3bbe 1bbf 2b3e 2458 06be
00000210: 3465 37be 3c74 3a3b e2dc 35be 1f91 1b3d
00000220: a06b bdbd 5f58 4b3d 3bec 8abe e9cf 0bbe
00000230: 9654 523d f3f2 0abe a4b4 78be 174b 273c
00000240: 3522 063e f2dc 463e dd49 273e fe5f 083e
00000250: 8594 91bc 8edd 80be d8ae 2dbe dc16 63bd
00000260: 4e22 fcbd 76ff 16be 95f5 5b3c 1fe7 29be
00000270: 8aa1 273d f280 193e dee5 82be e709 da3c
00000280: 00f3 a7bc 2ff1 49be aae5 4dbe 8088 013e
00000290: 6376 e3bd fa46 7a3e 2f93 0d3e 1088 423e
000002a0: 4bce ea3d b60d 723d 8ed9 0a3e 1caa 0c3e
000002b0: 2e99 50be a580 493c 55f4 853d 416c b73a
000002c0: 635b 2c3e 50f5 88bc 70ba 12be 408c 23be
000002d0: 8ea2 923d 5157 3a3e e648 423c 7667 dfbd
000002e0: 1dd9 7c3e 1bb0 a6bc 7c6e 803c 2bff 153e
000002f0: 8719 6cbd 53cf a5bd cd27 00bd 2a72 c0bd
00000300: 6991 ae3b 142d ed3d f018 1cbe 44a2 39be
00000310: 9d69 55be 294b 1cbe 4bc0 6dbe 2297 123e
00000320: c7b1 3ebe 5dea cbbc 7373 4d3d 7ac2 42be
00000330: 2250 c8bd 83a9 49be 5d67 82ba fb6c 54be
00000340: f3aa 843e e994 51bd 1d8a d3bd ca03 1e3e
00000350: 778e 043e ee1a 23bd 6fab 803e 1de6 073e
00000360: 809f e1bd 6504 1abe 6c3c b2bc 1471 643e
00000370: 7c4e e93b e226 633e 7d02 423e 54c0 32be
00000380: 901f 4b3e f24d 7bbe 83b5 50be 3947 04bd
00000390: c245 143d fdd7 313c b964 003e 6317 36be
000003a0: 152b 5a3e 015b 6dbe a155 053e 2f67 473e
000003b0: 6700 4abd 4cbe 573c 23fa 8dbd ab63 e53d
000003c0: cfd4 41be b2e8 17be bc38 35be 5326 e43d
000003d0: 256c 193e 75a9 553e 1ff0 e83d 1b10 3cbc
000003e0: a6e1 f3bb 2fbe 57be b7f3 2d3e 1b35 ca3d
000003f0: 8fc2 543d 7b9d 77be 86cc 11bd 936c 643e

conv1.bias f4 [64]
0.000565402 0.0017985012 0.0010968221 0.008046306 -0.0042275256 -4.9943374e-05 0.0036097656 0.00033002518
-0.00020970465 0.0027730684 -0.00020686876 0.00067737163 -0.00015673561 5.6272114e-05 -0.0008406946 0.0015267188
0.00045268473 0.0049469867 0.002978693 -0.0018250225 -0.0019190906 0.0037468479 0.005998328 -0.004027856
-0.0018196104 0.0046231705 -0.0006232775 -0.0018048492 3.688347e-05 0.0022569404 0.0006326989 -0.0020936052
0.0042473064 -0.0021244523 -0.0020249605 0.00074350456 0.0034339894 0.0015109258 -0.0013436557 0.0028269843
-0.0007579516 -0.0025353204 -0.0039616125 0.0015630279 -0.0017654661 0.0015069991 -0.0013975133 0.011802844
-0.0013540867 0.0036559838 9.0343994e-05 -8.787179e-05 -0.0017115696 -0.0020968444 -0.005556639 -0.0022858414
0.0004530489 -0.0005602044 0.0004910473 0.0021807838 -0.00034733117 0.00044476896 -0.0015867202 0.0025650586
00000000: 7c37 143a b0bb eb3a 3ec3 8f3a a7d4 033c
00000010: 0e87 8abb 4a7a 51b8 d191 6c3b 3b07 ad39
00000020: 2ae4 5bb9 5ebc 353b e9ea 58b9 a491 313a
00000030: 6559 24b9 b905 6c38 0f62 5cba 2f1c c83a
00000040: 5156 ed39 551a a23b 2d36 433b 9835 efba
00000050: ff89 fbba ad8d 753b 9f8d c43b 1bfc 83bb
00000060: fe7f eeba f77d 973b 7263 23ba b190 ecba
00000070: 53b3 1a38 2de9 133b b4db 253a de34 09bb
00000080: fd2c 8b3b 653a 0bbb 33b5 04bb bfe7 423a
00000090: c80c 613b 420a c63a 9b1d b0ba ed44 393b
000000a0: 45b1 46ba 9e27 26bb 6ad0 81bb 83de cc3a
000000b0: 3667 e7ba 8086 c53a c42c b7ba b760 413c
000000c0: 9c7b b1ba 3b99 6f3b 1077 bd38 cf47 b8b8
000000d0: bf56 e0ba 366b 09bb 7714 b6bb 0ece 15bb
000000e0: 3287 ed39 aeda 12ba a0b9 003a 7beb 0e3b
000000f0: 001a b6b9 e12f e939 7ff9 cfba 8b1a 283b

conv2.weight f4 [64, 64]
-0.06298509 0.1998743 -0.1504791 -0.023272363 -0.16690795 0.041249733 0.17748271 0.0019243746
0.107254036 0.156823 0.032909486 -0.10151635 -0.04033314 0.21177176 0.06215141 0.020235121
0.08251659 0.04983645 -0.10250031 -0.20963484 0.16101967 0.208694 -0.07176619 -0.20081455
0.19594193 0.15422833 0.10214903 -0.19680662 -0.106788024 -0.10946293 -0.20833085 -0.15695333
-0.20953909 -0.07998728 0.033955634 0.19552028 -0.14566635 -0.04713716 -0.001564125 -0.076276384
0.16413553 -0.21096629 0.09702994 0.21348678 0.2041092 -0.132738 0.13842735 -0.18498123
-0.12608229 0.14948294 -0.19126585 -0.13135661 -0.1511886 0.08984816 -0.12963979 -0.12604786
0.13613808 0.035535153 -0.17684221 0.16813083 -0.045897216 0.20002186 0.19963603 -0.004773093
0.0013492615 0.1536588 0.01103015 0.16281828 -0.106374875 0.18499073 -0.20510945 -0.046268128
0.14548542 -0.06312163 0.07067975 -0.085393816 -0.0037313355 -0.15367445 0.18608612 0.13579655
0.110376306 0.06138893 -0.07316731 0.057743955 0.062107354 0.12612414 -0.13079478 0.029160768
-0.010021062 0.0016889587 -0.19565992 0.03118374 -0.060984485 -0.124284975 -0.1368133 0.078328356
0.10244936 0.0019815625 -0.13911518 -0.1646195 0.12603362 -0.081670694 0.14303654 0.07189852
0.17348471 -0.08962796 -0.14548281 -0.077368975 0.059319206 0.09651098 0.19641842 0.13379683
-0.1189892 -0.10842044 0.09722534 -0.0068736454 0.119925894 -0.025394253 0.05945834 0.06571984
-0.055738673 0.16449639 0.17490126 0.14326327 -0.12244957 0.1432664 0.021554051 -0.049119975
0.031603217 -0.14973943 -0.10063736 -0.13286546 -0.037996817 0.14308469 -0.09696864 -0.121880606
0.08561386 0.027555972 -0.059704434 0.038047347 -0.11196861 -0.1609113 -0.019610068 0.20806578
-0.16126451 -0.16203567 0.060669772 -0.18001436 0.19745515 -0.09877629 -0.14216365 -0.1726032
0.21089344 0.19216157 -0.13718104 0.09021076 0.21548578 -0.05539092 -0.15718096 -0.10031519
0.14059858 -0.17186828 -0.04176282 -0.058730904 0.035255957 -0.2109801 0.09725802 0.069775976
-0.08913816 -0.12904522 -0.20588164 -0.029927952 -0.16107029 0.091582246 -0.11667407 0.10424676
-0.15288989 0.15437557 -0.11014422 0.1965034 0.18542926 -0.050699394 -0.120692976 -0.027708843
-0.0076557817 -0.13194144 -0.17490816 -0.08943788 0.0604688 -0.117880665 0.0047727567 0.08249024
0.014362095 -0.19918956 -0.0103434725 -0.19323562 -0.03660803 0.17415197 0.032223362 0.1476346
-0.18310969 -0.20463452 -0.19142434 0.09600933 0.025409114 -0.005075994 -0.1690825 -0.115849055
-0.03817163 -0.1626207 -0.15189083 -0.16011369 -0.043293223 0.05712947 0.018947126 0.04350277
0.16714472 0.20217386 -0.064448215 0.098431155 -0.0053389417 -0.08224151 -0.12357534 0.013540505
-0.06463915 -0.02969871 -0.18372685 0.19607791 -0.07259638 0.08485047 0.025199123 0.15134926
-0.20419219 0.015017823 -0.116697244 0.10661653 -0.035562396 -0.037760552 0.15801197 -0.17633983
-0.12953532 0.023907129 -0.053066272 -0.089654796 -0.17432317 -0.19753066 -0.1647547 -0.1669252
0.19605409 0.12618913 0.21619204 0.078735575 0.14502276 0.14011486 0.123709224 0.19558068
00000000: 54fe 80bd d9ab 4c3e 3117 1abe afa5 bebc
00000010: ebe9 2abe 7bf5 283d 07be 353e 4c3b fc3a
00000020: 01a8 db3d 3596 203e 19cc 063d cee7 cfbd
00000030: 5d34 25bd b2da 583e 7a92 7e3d 20c4 a53c
00000040: 75fe a83d 4e21 4c3d afeb d1bd 84aa 56be
00000050: 57e2 243e e1b3 553e 27fa 92bd 54a2 4dbe
00000060: 00a5 483e 08ee 1d3e 8333 d13d ad87 49be
00000070: aeb3 dabd 1a2e e0bd af54 55be 60b8 20be
00000080: 6a91 56be 5fd0 a3bd 1015 0b3d 7836 483e
00000090: 8f29 15be e512 41bd 5303 cdba cb36 9cbd
000000a0: 2513 283e 8c07 58be a2b7 c63d 479c 5a3e
000000b0: 0102 513e 78ec 07be e6bf 0d3e b86b 3dbe
000000c0: b71b 01be 0e12 193e 32db 43be 5982 06be
000000d0: 2fd1 1abe 5002 b83d 4bc0 04be b112 01be
000000e0: c867 0b3e 4f8d 113d 2016 35be 7d2a 2c3e
000000f0: b8fe 3bbd 88d2 4c3e 636d 4c3e 9b67 9cbb
00000100: b4d9 b03a bc58 1d3e cdb7 343c d6b9 263e
00000110: 12db d9bd 366e 3d3e 3608 52be a683 3dbd
00000120: 21fa 143e ea45 81bd 8bc0 903d f4e2 aebd
00000130: 6c89 74bb d65c 1dbe 5c8d 3e3e 400e 0b3e
00000140: f90c e23d f572 7b3d bed8 95bd ed84 6c3d
00000150: 4864 7e3d b026 013e 11ef 05be 90e2 ee3c
00000160: 612f 24bc 0d60 dd3a 135b 48be 0b75 ff3c
00000170: deca 79bd 1f89 febd c918 0cbe 9e6a a03d
00000180: f8d0 d13d 1add 013b 3674 0ebe 0492 28be
00000190: f50e 013e f742 a7bd 2c78 123e 883f 933d
000001a0: faa5 313e dd8e b7bd 72f9 14be a073 9ebd
000001b0: b2f8 723d 8ca7 c53d e921 493e 0902 093e
000001c0: 9cb0 f3bd 890b debd 141e c73d 513c e1bb
000001d0: b59b f53d 9c07 d0bc 978a 733d 2098 863d
000001e0: 3c4e 64bd be71 283e 5119 333e 9bb3 123e
000001f0: d7c6 fabd 6db4 123e 1f92 b03c 0732 49bd
00000200: 6072 013d 4b55 19be f61a cebd e20d 08be
00000210: 8da2 1bbd cb84 123e 7f97 c6bd 8a9c f9bd
00000220: 5256 af3d 10bd e13c a38c 74bd 89d7 1b3d
00000230: cc4f e5bd efc5 24be 4ba5 a0bc 320f 553e
00000240: 8622 25be aeec 25be de80 783d af55 38be
00000250: af31 4a3e 394b cabd 5993 11be e5be 30be
00000260: 73f4 573e 01c6 443e 3079 0cbe 6bc0 b83d
00000270: 4ea8 5c3e 97e1 62bd 0cf4 20be 0d72 cdbd
00000280: 13f9 0f3e 3dfe 2fbe 7e0f 2bbd d18f 70bd
00000290: 8d68 103d 2b0b 58be 362f c73d b5e6 8e3d
000002a0: 118e b6bd 6e24 04be a3d2 52be 772b f5bc
000002b0: 9cef 24be 798f bb3d d1f2 eebd 537f d53d
000002c0: 2b8f 1cbe a114 1e3e 4b93 e1bd 3038 493e
000002d0: 2be1 3d3e 2baa 4fbd e12d f7bd a8fd e2bc
000002e0: 5add fabb a81b 07be 201b 33be 352b b7bd
000002f0: 22ae 773d 6b6b f1bd c964 9c3b a5f0 a83d
00000300: fe4e 6b3c 59f8 4bbe ab77 29bc 8fdf 45be
00000310: 4df2 15bd e554 323e a5fc 033d 862d 173e
00000320: 1b81 3bbe b68b 51be be04 44be 8aa0 c43d
00000330: c626 d03c 8654 a6bb f623 2dbe 4542 edbd
00000340: db59 1cbd 0a86 26be 4589 1bbe d8f4 23be
00000350: 3c54 31bd 9700 6a3d 0137 9b3c f62f 323d
00000360: fc27 2b3e aa06 4f3e 6dfd 83bd 4696 c93d
00000370: 4af2 aebb 3d6e a8bd 1115 fdbd ffd8 5d3c
00000380: 8861 84bd b64a f3bc e422 3cbe a6c8 483e
00000390: 69ad 94bd 15c6 ad3d 646e ce3c 4dfb 1a3e
000003a0: c217 51be 510d 763c f7fe eebd c459 da3d
000003b0: e0a9 11bd cfaa 1abd e4cd 213e 6e92 34be
000003c0: e8a4 04be e2d8 c33c 055c 59bd ef9c b7bd
000003d0: c681 32be 7a45 4abe 75b5 28be 71ee 2abe
000003e0: 67c2 483e b937 013e 7261 5d3e 1e40 a13d
000003f0: d980 143e 457a 0f3e 435b fd3d 4d46 483e

conv2.bias f4 [64]
0.0021084747 -0.003097729 0.0006273364 0.0008549504 -0.0016737775 -0.004490448 1.6618977e-05 -0.0041244226
0.0014474939 -0.00028556937 0.0038631011 0.0010997116 0.005565332 0.0008559831 -5.9283113e-05 -0.0012745138
0.0015948291 -6.611447e-05 0.0028090042 0.0007161687 0.0021999404 0.00011856798 -0.00346584 -0.0026843906
-0.00018490506 0.007088709 0.0072629573 -0.00012087722 0.0033694624 0.00710736 -0.001476072 0.00090966286
0.0005324687 -0.0021702822 0.0001664064 0.0029161219 9.5663934e-05 0.0005068308 0.0008741378 -0.0007824636
-0.002818017 -0.0039660796 0.0049496214 -0.0013295864 -0.0010414999 0.0018176072 0.0016232611 -0.000594587
0.0042498694 0.0008234728 0.00060341833 0.0013611632 0.0008082057 0.001241379 0.00033432295 0.00023501826
-0.0013573769 0.00245828 0.0009949546 0.0013476161 0.0003800718 -0.00030400834 -0.0027126742 0.0013019735
00000000: 562e 0a3b 4503 4bbb d573 243a c01e 603a
00000010: a762 dbba 9c24 93bb fb68 8b37 2a26 87bb
00000020: d6b9 bd3a 79b8 95b9 152c 7d3b 3324 903a
00000030: 635d b63b 0e64 603a c2a6 78b8 960d a7ba
00000040: 9609 d13a f0a6 8ab8 4517 383b 45bd 3b3a
00000050: e02c 103b b3a7 f838 2523 63bb 9aec 2fbb
00000060: 13e3 41b9 6748 e83b 1afe ed3b 777f fdb8
00000070: 33d2 5c3b dbe4 e83b c278 c1ba 7176 6e3a
00000080: 5f95 0b3a 4b3b 0ebb 617d 2e39 681c 3f3b
00000090: 2f9f c838 d7dc 043a 6526 653a 3e1e 4dba
000000a0: 7bae 38bb e3f5 81bb 6f30 a23b 8445 aeba
000000b0: f082 88ba c73c ee3a 9bc3 d43a 0fde 1bba
000000c0: 7d42 8b3b 53de 573a b82e 1e3a 0f69 b23a
000000d0: c4dd 533a c4b5 a23a 1148 af39 3c6f 7639
000000e0: 03ea b1ba 181b 213b 2369 823a 7ea2 b03a
000000f0: 6044 c739 4f63 9fb9 1fc7 31bb fba6 aa3a

conv3.weight f4 [64, 64]
-0.15374799 -0.005720679 0.20211565 -0.17885605 0.19836716 0.14331585 -0.076317444 -0.06462758
-0.05651031 0.0693522 0.14987108 -0.18327662 -0.0066375644 -0.08358079 0.13502876 0.11056758
0.10062615 -0.11628748 -0.101992875 0.11843349 0.16931927 0.15902478 -0.14280029 0.10814832
0.13415614 0.048264958 -0.20652114 -0.18237819 0.13286963 -0.16513097 -0.0155089265 0.036465473
-0.21128893 0.12642148 -0.030082215 0.029856741 -0.078763396 0.1535536 0.14417385 0.1708315
0.03336996 0.053989712 0.033081837 -0.18490452 -0.0036745714 -0.011555163 0.11978405 0.15282512
-0.19409397 -0.044200156 -0.08506684 -0.16129091 0.11793081 0.14036973 -0.064184785 -0.1237547
-0.10283001 -0.13847512 0.18332848 -0.034478094 0.2115392 -0.097289674 -0.09582834 0.20969541
0.14073598 -0.17571077 -0.052272305 0.046915233 0.13564457 -0.08028008 -0.17490245 -0.0062375288
0.12608138 -0.095780715 0.006489027 0.18092552 0.06450679 -0.13317232 -0.19115485 0.11963927
-0.20374109 -0.018134993 -0.008961964 0.015840417 -0.016593454 -0.030477133 0.008255266 0.091749586
0.1782977 -0.11136355 -0.082358055 0.19634506 0.16536188 0.026396643 -0.14063834 0.02108594
0.028448924 -0.10974548 -0.16603492 0.03411821 -0.18410954 -0.08359445 -0.09207101 -0.019047597
-0.20058556 0.17066503 0.0017222334 -0.14072165 -0.0150764985 0.14336058 -0.069268726 -0.08156305
0.03736067 0.09662083 0.17162594 0.08883258 -0.08821971 0.14568068 -0.023148503 0.1494128
-0.111818336 0.13133234 0.117443636 0.015334383 -0.1625797 0.0053727203 0.21468113 0.07303453
0.11309062 -0.08174382 -0.053201932 -0.00582258 -0.19866195 0.07472957 0.03278609 -0.006686428
-0.047939356 -0.057625312 0.071357585 0.074210614 0.1880045 0.13720311 0.17296992 0.14663981
-0.08950444 0.20573662 -0.18425892 0.099044666 0.044091824 -0.1750139 0.1259769 -0.07675609
-0.10437497 -0.036848918 -0.10211591 0.048594374 -0.0148064485 -0.074497774 0.18213281 -0.16083246
-0.14081016 -0.19486827 -0.05394884 0.2050925 -0.052743535 -0.046597004 0.011020235 0.055344447
0.013974991 -0.11639815 -0.14136927 0.15670949 0.060574982 -0.03985514 0.09143985 -0.020645045
0.077149145 0.15043677 0.006648076 -0.17291425 0.18926531 -0.02822674 0.06342385 0.117647976
0.04561173 -0.13871334 0.14750388 0.0034308473 0.1625204 -0.019575201 0.09302711 0.088991925
-0.106686726 -0.18187565 -0.0418285 -0.020426614 0.06135628 0.066451564 0.19815232 -0.06538522
-0.20624183 0.039893474 -0.044596404 -0.10444863 -0.08706629 0.047677927 0.17639749 0.11150642
0.12907304 -0.079699725 -0.08433144 0.108876534 -0.030384561 0.024664326 0.08130178 -0.08897659
0.0053760274 -0.183739 0.053171962 0.14446166 -0.07915795 0.05665153 0.15859187 0.15811616
0.15910526 0.06113172 -0.1682343 0.049204096 -0.05572529 -0.20760682 0.1484673 -0.095851615
-0.13242857 -0.06838683 -0.19316866 -0.08993988 0.19394365 -0.187655 -0.09957441 0.19942166
0.06038041 0.116159774 0.17803375 -0.07522835 0.005854811 0.09546271 -0.20766625 0.12439592
-0.017355038 0.06307947 0.17860337 0.049489073 0.09802327 -0.03515089 0.17342366 0.08356504
00000000: 1d70 1dbe 8974 bbbb 68f7 4e3e 0a26 37be
00000010: c320 4b3e 64c1 123e 524c 9cbd 775b 84bd
00000020: 5b77 67bd 8708 8e3d ce77 193e deac 3bbe
00000030: ed7f d9bb 682c abbd fb44 0a3e 4171 e23d
00000040: 1515 ce3d 2128 eebd a4e1 d0bd 428d f23d
00000050: 0862 2d3e 64d7 223e 3d3a 12be de7c dd3d
00000060: 3a60 093e 7ab1 453d 477a 53be 59c1 3abe
00000070: fa0e 083e 1818 29be 2719 7ebc d25c 153d
00000080: 205c 58be a274 013e fa6e f6bc 2096 f43c
00000090: b44e a1bd 283d 1d3e 4fa2 133e 74ee 2e3e
000000a0: f0ae 083d 5124 5d3d d280 073d 9c57 3dbe
000000b0: 14d1 70bb de51 3dbc 5751 f53d 307e 1c3e
000000c0: 92c0 46be 390b 35bd 8637 aebd 7229 25be
000000d0: b585 f13d 15bd 0f3e 5073 83bd 1b73 fdbd
000000e0: 8a98 d2bd 6ccc 0dbe 76ba 3b3e e738 0dbd
000000f0: bb9d 583e cf3f c7bd a641 c4bd 65ba 563e
00000100: 181d 103e 86ed 33be 7c1b 56bd 302a 403d
00000110: 69e6 0a3e e269 a4bd a119 33be 2f64 ccbb
00000120: 7a1b 013e ae28 c4bd e7a1 d43b 8a44 393e
00000130: 231c 843d 535e 08be 19be 43be 6f05 f53d
00000140: 81a1 50be d68f 94bc 34d5 12bc c3c3 813c
00000150: ffee 87bc 2eab f9bc 1841 073c 35e7 bb3d
00000160: ac93 363e 9312 e4bd 57ab a8bd ae0e 493e
00000170: a054 293e c63d d83c 7f03 10be 6cbc ac3c
00000180: b80d e93c 3dc2 e0bd 0f05 2abe 89bf 0b3d
00000190: 3687 3cbe 9133 abbd ba8f bcbd b509 9cbc
000001a0: 4d66 4dbe d0c2 2e3e 90bc e13a 5619 10be
000001b0: 6b03 77bc 1ecd 123e c3dc 8dbd 870a a7bd
000001c0: 8007 193d 24e1 c53d b6be 2f3e dbed b53d
000001d0: 89ac b4bd 512d 153e eea1 bdbc abff 183e
000001e0: 0301 e5bd fc7b 063e 4a86 f03d 103d 7b3c
000001f0: 4b7b 26be a50d b03b 5fd5 5b3e 2193 953d
00000200: 0e9c e73d 4e69 a7bd 45ea 59bd 57cb bebb
00000210: 0a6e 4bbe d10b 993d b54a 063d d319 dbbb
00000220: 0f5c 44bd 8508 6cbd ed23 923d bcfb 973d
00000230: 4084 403e f97e 0c3e 071f 313e bf28 163e
00000240: 1b4e b7bd 9fac 523e 5fae 3cbe eed7 ca3d
00000250: a199 343d d836 33be 1700 013e 4c32 9dbd
00000260: 8bc2 d5bd e4ee 16bd 2522 d1bd e50a 473d
00000270: bf96 72bc 4a92 98bd 0681 3a3e 44b1 24be
00000280: 8a30 10be 8c8b 47be 75f9 5cbd c503 523e
00000290: 9b09 58bd 80dc 3ebd 378e 343c dcb0 623d
000002a0: 5cf7 643c 2762 eebd 1bc3 10be 7478 203e
000002b0: 791d 783d 253f 23bd d144 bb3d cc1f a9bc
000002c0: 5f00 9e3d 190c 1a3e 1bd8 d93b 6f10 31be
000002d0: c4ce 413e c43b e7bc 5de4 813d 6cf1 f03d
000002e0: 5ed3 3a3d df0a 0ebe 420b 173e 11d8 603b
000002f0: bf6b 263e 2c5c a0bc ff84 be3d 6641 b63d
00000300: 927e dabd 9c3d 3abe 5c54 2bbd b755 a7bc
00000310: b950 7b3d c217 883d 71e8 4a3e b0e8 85bd
00000320: 0f31 53be 5767 233d b8aa 36bd 2ae9 d5bd
00000330: d04f b2bd ee49 433d 8ba1 343e 7a5d e43d
00000340: b92b 043e 9c39 a3bd f6b5 acbd a9fa de3d
00000350: 0be9 f8bc d70c ca3c 8c81 a63d 5c39 b6bd
00000360: 6329 b03b 1426 3cbe d8ca 593d c2ed 133e
00000370: 901d a2bd 6f0b 683d e865 223e 34e9 213e
00000380: 7dec 223e 4165 7a3d 9d45 2cbe 3c8a 493d
00000390: 3440 64bd e296 54be d007 183e da4d c4bd
000003a0: 5b9b 07be 650e 8cbd 01ce 45be 6632 b8bd
000003b0: 2a99 463e a228 40be abed cbbd 3135 4c3e
000003c0: 7351 773d 2de5 ed3d 7b4e 363e 5211 9abd
000003d0: b7d9 bf3b f481 c33d 76a6 54be 4ac3 fe3d
000003e0: 272c 8ebc cf2f 813d cde3 363e 0eb5 4a3d
000003f0: 6dc0 c83d 61fa 0fbd f995 313e 2624 ab3d

conv3.bias f4 [64]
1.723088e-05 -0.00083349406 0.0020777541 0.0020521185 0.0011165017 0.0021608295 -0.00076513056 0.0008907044
0.0008448775 -0.00020604096 0.00090032176 5.978012e-05 0.0007669895 -0.00021516561 -0.0017324801 0.00032795282
0.0030675207 0.0016642589 0.0006738819 0.001490589 0.00019836437 -0.0016004596 0.0023741017 0.0037334545
-0.005128059 0.0027613577 0.0035824357 0.00030666235 -0.0003830395 0.001801878 -0.0012565884 -0.000114523005
0.0019891022 0.0010551702 0.0030023109 -0.0003043028 1.4816633e-05 0.002522253 7.437249e-05 0.0010686734
0.0008863319 0.0034076443 0.0006865177 -0.0027316606 0.00083006255 -0.00081901724 -0.0033273073 0.0010338362
-0.002047341 0.0003559118 -0.0010533992 -0.0017526891 0.0014687796 0.007623514 0.0029213133 0.0034477646
0.00070503214 0.00017990185 0.0007880983 -0.0002394973 0.000444829 0.00078643573 0.0023829597 0.0020279582
00000000: 088b 9037 d77e 5aba ee2a 083b d67c 063b
00000010: 9557 923a b49c 0d3b 0b93 48ba 297e 693a
00000020: c57a 5d3a b30c 58b9 9203 6c3a 6abc 7a38
00000030: cb0f 493a 149e 61b9 6314 e3ba 15f1 ab39
00000040: 7508 493b 4323 da3a 73a7 303a de5f c33a
00000050: 0800 5039 83c6 d1ba d196 1b3b f9ac 743b
00000060: 4709 a8bb e5f7 343b 4cc7 6a3b 86c7 a039
00000070: b1d2 c8b9 fe2c ec3a 1cb4 a4ba 122c f0b8
00000080: 995b 023b a34d 8a3a 6bc2 443b d58a 9fb9
00000090: f494 7837 624c 253b 6df8 9b38 bb12 8c3a
000000a0: ba58 683a c952 5f3b 6cf7 333a a905 33bb
000000b0: 8e98 593a 51b3 56ba f40e 5abb c981 873a
000000c0: af2c 06bb ac99 ba39 3612 8aba 7dba e5ba
000000d0: 1184 c03a acce f93b 8173 3f3b e4f3 613b
000000e0: e8d1 383a 09a4 3c39 6298 4e3a 9121 7bb9
000000f0: f037 e939 cf28 4e3a 6e2b 1c3b 7ee7 043b

fc1.weight f4 [128, 192]
0.054071967 -0.033799715 0.01997793 -0.030751584 -0.057303302 -0.07330662 0.0047800806 0.04079394
-0.064039096 0.038285334 0.040173057 0.07094011 0.030803751 -0.0067633707 -0.06132943 0.02696092
-0.06465579 -0.06907423 0.008450788 -0.036367837 0.0334774 0.035517596 0.026637584 -0.03348731
-0.027349487 0.059269648 -0.061934244 -0.05353561 -0.02028103 -0.011465178 0.051973924 -0.04051159
0.038371403 0.057473913 0.05694892 -0.041866925 0.013795378 0.06956768 -0.008635988 0.0056970334
0.036739852 0.0070383023 0.0382355 0.05083041 0.03038366 -0.021018181 0.056878094 -0.0045605004
-0.0044325683 -0.033767994 -0.0660201 -0.004593347 0.029307015 0.0048966394 -0.008984686 0.017038567
0.057420764 -0.0032000416 -0.043553412 0.021714164 -0.025576804 -0.06090613 0.019375999 -0.063581966
0.06288506 -0.0039799293 0.013544167 -0.01806195 0.033859514 0.022403486 -0.058769654 0.024896415
-0.056435507 0.06939993 0.031870514 0.02988694 -0.061609093 -0.036816716 -0.040078 -0.06685396
-0.05406689 -0.023147216 0.049518116 -0.062332645 0.0689583 -0.021982899 0.05354626 0.0059174728
0.048684757 0.07525804 -0.055759568 -0.057506967 0.0696843 -0.049676202 0.06012786 0.033270445
0.06405697 0.042076148 0.027123788 -0.015221677 0.036928598 0.072624974 -0.019727731 -0.034054395
0.041412197 -0.062900536 -0.03496298 -0.0413253 0.011413679 0.011627534 -0.027343087 0.05465485
-0.06901277 0.017051684 -0.00037249507 -0.06394287 -0.05991595 0.036069505 0.010367426 0.05877616
0.056553114 -0.011541442 0.06922743 0.018937299 0.07160313 0.036337864 -0.027174924 -0.053731684
-0.025506698 -0.013036084 -0.0068163346 -0.065659665 -0.0111597 0.047498763 -0.066373296 0.05859614
-0.023269905 -0.015496352 0.006082446 0.013401763 0.056108914 -0.0697936 -0.02093622 -0.038224287
0.028092412 0.0423785 0.06512724 -0.0574383 0.029666731 -0.061384305 0.065588534 -0.0451407
-0.03330414 -0.027730774 -0.05638066 0.07162257 -0.07319677 0.05421334 -0.013716906 0.020674415
0.019486492 0.016694084 -0.035806045 -0.049871325 0.06026081 0.072996 0.032613747 0.010050019
0.064066686 0.030038131 0.020585557 -0.014772267 0.05660981 0.023677794 -0.00522039 0.040652223
0.07273912 0.075382814 -0.039793268 -0.037607145 0.0051508574 -0.012488593 -0.026174938 0.01212485
0.0657734 -0.055941544 -0.001414716 0.03171246 -0.00796384 0.02771217 -0.0053623025 0.019426525
0.061287787 -0.050978914 0.00938266 -0.04969546 -0.018572465 0.01242854 0.00087434583 0.01618781
0.0007700248 0.0581567 0.037244037 0.06765326 -0.00668282 -0.009381957 0.016387902 -0.05523636
0.03715627 -0.0115276035 -0.045562312 -0.044305075 -0.017860388 -0.00319052 0.052858945 -0.027905058
-0.022808686 -0.0142240375 0.019085215 0.02905543 -0.05581558 -0.021697255 -0.016373161 0.017973863
0.014911878 -0.022616984 0.01590766 -0.033091813 -0.014300173 -0.041628975 0.06237639 0.006181547
-0.0080232695 0.02321705 -0.021183936 0.025360338 0.039269045 -0.023521572 -0.068928644 -0.05902494
-0.055011354 -0.0007473587 -0.027592946 0.026111586 -0.04206277 -0.014280105 0.07351281 -0.056668736
-0.06649757 0.0637062 0.041824132 0.048416246 0.028033894 0.031170608 -0.015581988 0.048599504
00000000: 917a 5d3d 9271 0abd c1a8 a33c bfea fbbc
00000010: deb6 6abd c821 96bd 39a2 9c3b 8c17 273d
00000020: ee26 83bd 15d1 1c3d 818c 243d 0c49 913d
00000030: 2658 fc3c 449f ddbb 9234 7bbd 26dd dc3c
00000040: 416a 84bd ca76 8dbd 2d75 0a3c 71f6 14bd
00000050: 991f 093d e67a 113d 1037 da3c fd29 09bd
00000060: 080c e0bc bbc4 723d c3ae 7dbd 2848 5bbd
00000070: 6724 a6bc 71d8 3bbc 9ce2 543d 7bef 25bd
00000080: 552b 1d3d c469 6b3d 4543 693d a77c 2bbd
00000090: 0206 623c 8079 8e3d f67d 0dbc 2eae ba3b
000000a0: 877c 163d 8fa1 e63b d49c 1c3d 8c33 503d
000000b0: 27e7 f83c 522e acbc 01f9 683d 4070 95bb
000000c0: 143f 91bb 4f50 0abd 8c35 87bd ca83 96bb
000000d0: 4415 f03c fd73 a03b 8134 13bc 7794 8b3c
000000e0: 0932 6b3d cab7 51bb 1065 32bd e7e1 b13c
000000f0: 7286 d1bc b578 79bd 6aba 9e3c 4337 82bd
00000100: e2c9 803d 116a 82bb 5be8 5d3c a8f6 93bc
00000110: 46b0 0a3d 8487 b73c 73b8 70bd 91f3 cb3c
00000120: eb28 67bd 8d21 8e3d a88a 023d 75d5 f43c
00000130: d159 7cbd 20cd 16bd d428 24bd bbea 88bd
00000140: 3e75 5dbd 3b9f bdbc 82d3 4a3d 8450 7fbd
00000150: 023a 8d3d 7b15 b4bc 5353 5b3d 5ce7 c13b
00000160: ab69 473d e320 9a3d 2564 64bd 6d8c 6bbd
00000170: a4b6 8e3d 4679 4bbd a248 763d 9746 083d
00000180: 4d30 833d 0a58 2c3d b532 de3c 5764 79bc
00000190: 7142 173d 67bc 943d 0d9c a1bc 9f7c 0bbd
000001a0: d69f 293d ffd1 80bd 5735 0fbd b844 29bd
000001b0: 7100 3b3c 6a81 3e3c 9cfe dfbc c4dd 5f3d
000001c0: 9156 8dbd f9af 8b3c 714b c3b9 7bf4 82bd
000001d0: 6d6a 75bd 9ebd 133d 23dc 293c 45bf 703d
000001e0: 3da4 673d 5118 3dbc 1cc7 8d3d 6522 9b3c
000001f0: a9a4 923d 03d7 143d f29d debc c115 5cbd
00000200: 6cf3 d0bc 4d95 55bc 8f5b dfbb 9378 86bd
00000210: 2dd7 36bc 108e 423d b9ee 87bd 8202 703d
00000220: 87a0 bebc 69e4 7dbc 414f c73b 1193 5b3c
00000230: 76d2 653d f2ef 8ebd 7082 abbc 1291 1cbd
00000240: 0f22 e63c 1495 2d3d 6e61 853d 6c44 6bbd
00000250: a507 f33c 1c6e 7bbd 4853 863d 74e5 38bd
00000260: ec69 08bd a62b e3bc 68ef 66bd dbae 923d
00000270: 30e8 95bd cf0e 5e3d e0bc 60bc 645d a93c
00000280: 23a2 9f3c 08c2 883c 5ca9 12bd e045 4cbd
00000290: 0ad4 763d ed7e 953d fe95 053d d6a8 243c
000002a0: 6535 833d 8712 f63c 0ba3 a83c 6107 72bc
000002b0: b0df 673d eff7 c13c ce0f abbb f282 263d
000002c0: 3ff8 943d 4e62 9a3d 44fe 22bd f309 1abd
000002d0: 86c8 a83b f59c 4cbc d36c d6bc 4fa7 463c
000002e0: 34b4 863d f622 65bd fe6d b9ba ede4 013d
000002f0: c47a 02bc a204 e33c 41b6 afbb 6024 9f3c
00000300: e708 7b3d 44cf 50bd bab9 193c 778d 4bbd
00000310: 4825 98bc 13a1 4b3c 5b34 653a 4c9c 843c
00000320: 7ddb 493a b835 6e3d 348d 183d cb8d 8a3d
00000330: 8ffb dabb c8b6 19bc ec3f 863c 853f 62bd
00000340: 2c31 183d 46de 3cbc 8c9f 3abd 3d79 35bd
00000350: f34f 92bc 0b18 51bb 9f82 583d 2699 e4bc
00000360: 48d9 babc f00b 69bc 9958 9c3c a705 ee3c
00000370: e19e 64bd 71be b1bc 0221 86bc ec3d 933c
00000380: f350 743c 4147 b9bc c850 823c 488b 07bd
00000390: 464b 6abc 2583 2abd 637e 7f3d 938e ca3b
000003a0: 0874 03bc af31 be3c ef89 adbc 7cc0 cf3c
000003b0: 94d8 203d 50b0 c0bc 762a 8dbd 23c4 71bd
000003c0: 9653 61bd 65ea 43ba 9a0a e2bc f7e7 d53c
000003d0: 034a 2cbd 1af7 69bc e28d 963d 7a1d 68bd
000003e0: e12f 88bd 6578 823d c84f 2b3d 1d50 463d
000003f0: 56a7 e53c 8159 ff3c 984b 7fbc 4610 473d

fc1.bias f4 [128]
0.052392643 -0.041340947 0.042385988 -0.04688832 -0.029332457 -0.061097678 -0.024273781 -0.055779044
0.06132023 -0.06683082 -0.0494954 -0.021214176 -0.04062919 -0.031051174 0.05545471 0.016164605
-0.060721103 0.06739179 -0.021617228 -0.06483543 -0.053642664 0.025310988 -0.059045568 -0.035539594
-0.03283549 -0.004446963 -0.019892426 -0.06897238 0.054452986 -0.06687417 -0.023784593 0.0637679
-0.05825215 0.0111050885 0.04779797 -0.03211153 -0.032546073 0.05993661 -0.069810994 0.009528024
0.018390566 0.06685858 0.0074022273 -0.033397052 0.06051015 0.06877746 0.03202113 0.066974856
0.03312856 0.023287049 -0.05103717 0.029760161 0.05854434 -0.03724251 0.069953404 -0.030636087
-0.05397573 0.0014857344 0.0023409536 0.022468287 0.058295246 -0.04307178 0.07035874 0.01850921
-0.060928997 0.03660697 0.06884353 0.029300943 -0.062027354 0.04638733 -0.060060076 0.04370832
-0.017262915 -0.038059715 0.006167239 0.044979338 0.044343706 0.020002812 -0.041060135 -0.040066145
-0.036581345 0.038566787 -0.038026758 0.009028199 -0.050717745 0.031170165 -0.031213261 0.05752752
-0.050932463 -0.052271172 0.057032783 -0.045819227 -0.003972805 -0.06650734 0.02357384 0.061125565
0.010818247 -0.029864583 -0.07037038 -0.04522184 0.072466485 -0.026421297 -0.04973122 0.06482237
-0.06532525 -0.053690404 -0.033558395 -0.003390999 0.049913183 0.0021120831 0.016389335 -0.06239229
0.06581403 -0.057534374 0.035824366 0.027659815 -0.027301641 -0.061990354 0.05353355 0.01633994
0.04369168 -0.061535392 -0.056681182 -0.036421902 0.026825985 -0.051768217 -0.06531404 0.0063040406
00000000: ab99 563d 2055 29bd ee9c 2d3d f80d 40bd
00000010: 9f4a f0bc 8f41 7abd cfd9 c6bc 9178 64bd
00000020: ec2a 7b3d 99de 88bd b0bb 4abd 5ac9 adbc
00000030: cb6a 26bd 085f febc 7a24 633d a26b 843c
00000040: b1b6 78bd b504 8a3d 9d16 b1bc 70c8 84bd
00000050: 69b8 5bbd fd58 cf3c c4d9 71bd f791 11bd
00000060: 827e 06bd d4b7 91bb 71f5 a2bc 6441 8dbd
00000070: 180a 5f3d 53f5 88bd e8d7 c2bc bf98 823d
00000080: ce99 6ebd 1ef2 353c cec7 433d 6187 03bd
00000090: 084f 05bd 1780 753d 11f9 8ebd 6e1b 1c3c
000000a0: d0a7 963c 27ed 883d 628e f23b 59cb 08bd
000000b0: 7ed9 773d 32db 8c3d 9728 033d 1d2a 893d
000000c0: d0b1 073d 7bc4 be3c 5a0c 51bd 95cb f33c
000000d0: 31cc 6f3d 9a8b 18bd bb43 8f3d 88f8 fabc
000000e0: a815 5dbd f9bc c23a af6a 193b 6a0f b83c
000000f0: ffc6 6e3d 096c 30bd 3e18 903d a0a0 973c
00000100: af90 79bd 31f1 153d d6fd 8c3d 8808 f03c
00000110: 6510 7ebd a400 3e3d 8e01 76bd 7f07 333d
00000120: f56a 8dbc 81e4 1bbd 8d16 ca3b 413c 383d
00000130: bfa1 353d f0dc a33c ac2e 28bd 661c 24bd
00000140: 52d6 15bd 35f8 1d3d f2c1 1bbd 03eb 133c
00000150: 69bd 4fbd 9358 ff3c f4b2 ffbc faa1 6b3d
00000160: 8f9e 50bd 4c1a 56bd 359b 693d f1ac 3bbd
00000170: 4e2e 82bb 0035 88bd ed1d c13c cd5e 7a3d
00000180: 043f 313c 92a6 f4bc 591e 90bd 893a 39bd
00000190: 4f69 943d 7a71 d8bc f7b2 4bbd 97c1 843d
000001a0: 3fc9 85bd 78ea 5bbd 8774 09bd 863b 5ebb
000001b0: c471 4c3d e06a 0a3b ed42 863c 0f8f 7fbd
000001c0: 82c9 863d 2aa9 6bbd 92bc 123d d696 e23c
000001d0: b1a7 dfbc 99e9 7dbd ff45 5b3d 56db 853c
000001e0: 0cf6 323d 890c 7cbd 872a 68bd 222f 15bd
000001f0: 2bc2 db3c e90a 54bd 5ec3 85bd 2092 ce3b

fc2.weight f4 [64, 128]
0.08196827 -0.06727888 0.055975165 -0.07428892 -0.018574396 0.021926962 0.03690645 -0.046261307
0.0074555054 -0.08068487 0.0120173395 0.08294264 0.040884178 0.04973375 -0.009728879 -0.018899433
-0.05922928 0.07269501 0.052257735 -0.08208885 0.029722886 0.062449154 0.07448566 -0.015141033
0.028832762 0.058785122 0.061118558 -0.012456857 -0.06039705 0.011430999 -0.05978109 0.08683114
0.052516595 0.017843066 -0.026418203 0.040165372 -0.0789116 -0.0072157453 -0.043644782 -0.08644681
0.077338465 -0.012014785 -0.06044217 -0.06300429 -0.04989852 -0.026497519 -0.03441187 -0.059482496
0.04755217 0.019206727 0.014251821 0.048150375 -0.06516598 -0.0031763562 0.0136066 -0.059219226
-0.011497156 -0.00393783 -0.01883021 -0.07810594 -0.08111012 0.0030346364 0.08753615 0.029993536
0.014907762 0.042904127 -0.0142900115 -0.058874477 0.07211277 -0.022209622 -0.08025931 0.04921872
-0.07628962 0.024811484 0.042700175 -0.014921203 0.05188041 0.03277918 -0.013859668 0.06321993
-0.022165807 -0.021718152 -0.029438145 0.07441468 0.086402126 -0.077928595 0.0565473 -0.01182887
0.043658573 -0.012684315 -0.05308251 -0.054618206 -0.079581454 0.016391318 0.029172793 -0.018402126
-0.05138736 0.08484972 -0.06437803 -0.04654678 0.026300307 -0.03560258 -0.0071711615 -0.022635706
-0.03519386 -0.020691676 -0.059938297 0.011344775 0.020674562 -0.0009945631 -0.0046141827 0.012035831
0.06755286 0.05239873 0.05230553 -0.026006237 0.048439123 0.07846029 0.028080726 -0.015588142
0.0702294 0.028166793 0.046017 -0.060024053 0.0723908 -0.013631236 -0.026601102 0.05340851
-0.021515956 0.06216006 -0.015428441 -0.0059050024 -0.030799374 -0.05069396 0.08653408 0.085039146
-0.029277163 -0.04080741 -0.08516807 -0.014273323 0.05158722 -0.05726629 0.016222943 0.07661421
-0.07007625 0.016984886 0.03448572 -0.029185196 -0.02961888 0.06749903 0.03111682 0.014943078
0.07978437 -0.038875952 -0.011382647 0.036617115 -0.07720912 0.07272754 0.05439102 -0.056278575
-0.03949107 0.022392288 -0.08765747 -0.02149516 0.034025945 0.00841321 -0.017375147 0.007411308
-0.0033585408 0.057978805 0.0035903833 0.08478683 0.081973694 -0.036030523 0.040852226 -0.031896252
-0.04645129 -0.022368427 -0.081917144 0.07871139 0.051149767 0.03641051 -0.073286176 -0.08042277
0.036043577 0.009809487 0.026222985 0.0399558 0.0049093505 -0.035313696 -0.023145333 0.080934286
0.011080606 0.065215625 -0.04464167 0.012637665 0.08005131 0.010162794 0.046975426 0.073952675
0.006450208 0.037556246 0.03211828 -0.014349807 -0.085554674 0.0677789 0.019005518 -0.03221406
-0.024277078 0.0026937344 -0.03296679 -0.015191117 0.079135574 -0.041066647 0.048527233 0.00674959
-0.039147057 0.0010911205 -0.056340236 0.002955705 0.03209239 -0.012891859 -0.0028745383 0.07496652
0.049377058 0.055061035 0.068592876 -0.06417901 -0.075122185 0.056661036 -0.05078279 -0.006412808
-0.051699936 0.07210545 -0.059983566 0.030348994 -0.08341251 0.08684615 0.052240238 0.023928775
-0.062250566 0.0029985984 0.06558375 -0.035597455 -0.061008185 -0.07498338 0.066852845 -0.0070174993
0.03851476 0.079006426 0.023050256 0.035062045 -0.044587996 -0.019841824 -0.02506451 0.04566235
00000000: fbde a73d 82c9 89bd 3746 653d ca24 98bd
00000010: 5529 98bc 2ca0 b33c 382b 173d 7f7c 3dbd
00000020: 504d f43b 1c3e a5bd 60e4 443c d5dd a93d
00000030: 2b76 273d 9eb5 4b3d e065 1fbc fcd2 9abc
00000040: 679a 72bd 1fe1 943d 350c 563d 331e a8bd
00000050: 697d f33c afca 7f3d f08b 983d 1812 78bc
00000060: af32 ec3c abc8 703d 7457 7a3d d817 4cbc
00000070: e662 77bd 1649 3b3c 04dd 74bd 86d4 b13d
00000080: a41b 573d 9f2b 923c fd6a d8bc 7284 243d
00000090: 689c a1bd 0f72 ecbb dfc4 32bd 060b b1bd
000000a0: a163 9e3d a9d9 44bc 3592 77bd 6508 81bd
000000b0: 6462 4cbd 5311 d9bc 76f3 0cbd eba3 73bd
000000c0: 10c6 423d 6d57 9d3c 7880 693c 5439 453d
000000d0: be75 85bd 6a2a 50bb 38ee 5e3c dc8f 72bd
000000e0: 915e 3cbc ea08 81bb d041 9abc 02f6 9fbd
000000f0: 101d a6bd c0e0 463b 2746 b33d 01b5 f53c
00000100: b03f 743c 3dbc 2f3d a720 6abc 5d26 71bd
00000110: dcaf 933d f4f0 b5bc fe5e a4bd 9299 493d
00000120: bb3d 9cbd 7441 cb3c 61e6 2e3d 1078 74bc
00000130: 8e80 543d 7643 063d a913 63bc 7379 813d
00000140: 1195 b5bc 44ea b1bc 4428 f1bc b966 983d
00000150: 99f3 b03d 0799 9fbd 249e 673d e0cd 41bc
00000160: 55d3 323d e0d1 4fbc 0c6d 59bd 57b7 5fbd
00000170: 9afb a2bd 1647 863c c8fb ee3c 0ec0 96bc
00000180: 8d7b 52bd b1c5 ad3d a1d8 83bd d6a7 3ebd
00000190: be73 d73c 03d4 11bd 10fc eabb 846e b9bc
000001a0: 7027 10bd 9781 a9bc dc81 75bd 6fdf 393c
000001b0: b35d a93c 005c 82ba 9232 97bb ef31 453c
000001c0: 2759 8a3d 0da0 563d 533e 563d 080b d5bc
000001d0: 1a68 463d caaf a03d 8d09 e63c 6865 7fbc
000001e0: 6fd4 8f3d 0cbe e63c 527c 3c3d c8db 75bd
000001f0: a141 943d 8c55 5fbc 8eea d9bc e2c2 5a3d
00000200: 3b42 b0bc 8c9b 7e3d 92c7 7cbc c07e c1bb
00000210: f84e fcbc 78a4 4fbd c838 b13d 0129 ae3d
00000220: a9d6 efbc ac25 27bd 996c aebd a8da 69bc
00000230: 1f4d 533d 0f90 6abd fae5 843c e9e7 9c3d
00000240: 2384 8fbd e323 8b3c e640 0d3d cb15 efbc
00000250: 4ba3 f2bc ee3c 8a3d b4e8 fe3c d0d3 743c
00000260: fd65 a33d 643c 1fbd 487e 3abc d4fb 153d
00000270: d11f 9ebd 2df2 943d 1ec9 5e3d 5d84 66bd
00000280: 63c1 21bd 0870 b73c c285 b3bd 9e16 b0bc
00000290: ca5e 0b3d 8fd7 093c 5356 8ebc 8fda f23b
000002a0: f71a 5cbb 2f7b 6d3d a34c 6b3b b8a4 ad3d
000002b0: d3e1 a73d be94 13bd aa54 273d a5a5 02bd
000002c0: b543 3ebd fe3d b7bc 2dc4 a7bd 7033 a13d
000002d0: 6b82 513d 3023 153d 1017 96bd b1b4 a4bd
000002e0: 6ea2 133d f8b7 203c 96d1 d63c b1a8 233d
000002f0: 9ede a03b 18a5 10bd 489b bdbc e0c0 a53d
00000300: 6e8b 353c c58f 853d 2fda 36bd 350e 4f3c
00000310: f1f1 a33d d981 263c 4e69 403d 8074 973d
00000320: 445c d33b 94d4 193d 758e 033d 741b 6bbc
00000330: 4a37 afbd aacf 8a3d 76b1 9b3c e4f2 03bd
00000340: b9e0 c6bc 5d89 303b 2f08 07bd 2ae4 78bc
00000350: d511 a23d 8035 28bd 7ec4 463d aa2b dd3b
00000360: aa58 20bd ee03 8f3a 05c5 66bd 80b4 413b
00000370: 4f73 033d 6038 53bc c062 3cbb 0c88 993d
00000380: 993f 4a3d ae87 613d 6c7a 8c3d 4970 83bd
00000390: a9d9 99bd 6715 683d 9d01 50bd 8822 d2bb
000003a0: 50c3 53bd 06ac 933d 54b1 75bd 749e f83c
000003b0: 2ed4 aabd 65dc b13d dcf9 553d 4706 c43c
000003c0: 73fa 7ebd 2284 443b c650 863d a3ce 11bd
000003d0: b8e3 79bd e390 99bd 25ea 883d 0df3 e5bb
000003e0: a7c1 1d3d 1fce a13d e4d3 bc3c 389d 0f3d
000003f0: e7a1 36bd 528b a2bc 1654 cdbc 7208 3b3d

fc2.bias f4 [64]
-0.08711763 -0.00981267 0.08873079 -0.072180785 0.08472547 0.0049476754 -0.064818956 0.06629159
-0.07623011 -0.03871387 -0.074229084 0.077424645 0.07858425 -0.08571646 -0.05290577 0.0012006751
-0.023305358 0.08685783 -0.0019603707 -0.008195281 -0.07287098 -0.0630127 -0.07458927 0.017789047
-0.046653707 -0.031202635 -0.08403984 -0.091894224 0.046324935 0.011672807 0.044053618 -0.05569824
0.038793802 0.0821514 -0.014028924 -0.004968506 0.06456504 -0.0023726672 0.00765061 0.073674865
-0.06937603 0.06879448 -0.04205013 0.05453902 0.07294794 -0.07593546 -0.03288624 -0.007244057
-0.07249014 -0.08486076 0.01866036 0.061160482 -0.0008536645 -0.07498948 0.004331784 0.044187967
-0.04530884 -0.07778212 0.066190526 0.049704805 0.012685301 0.057829726 -0.030444264 0.06649845
00000000: ba6a b2bd 52c5 20bc 7db8 b53d 85d3 93bd
00000010: 8c84 ad3d 1c20 a23b cdbf 84bd e3c3 873d
00000020: 881e 9cbd 6f92 1ebd 6b05 98bd d090 9e3d
00000030: c7f0 a03d 1d8c afbd b8b3 58bd f95f 9d3a
00000040: e1ea bebc 85e2 b13d 9079 00bb 8045 06bc
00000050: 613d 95bd cd0c 81bd 42c2 98bd 56ba 913c
00000060: f517 3fbd ab9c ffbc 141d acbd 0a33 bcbd
00000070: 37bf 3d3d 4d3f 3f3c 9171 343d d623 64bd
00000080: 40e6 1e3d fe3e a83d 92d9 65bc d9ce a2bb
00000090: ad3a 843d c07e 1bbb f8b1 fa3b d9e2 963d
000000a0: 0515 8ebd 1fe4 8c3d c23c 2cbd 4f64 5f3d
000000b0: bb65 953d 0d84 9bbd b9b3 06bd 8e5f edbb
000000c0: b675 94bd 7acb adbd 9cdd 983c 6a83 7a3d
000000d0: 74c8 5fba 1694 99bd a3f1 8d3b 71fe 343d
000000e0: c395 39bd 3b4c 9fbd e68e 873d 4497 4b3d
000000f0: 02d6 4f3c ddde 6c3d 4066 f9bc 5730 883d

fc3.weight f4 [2, 64]
0.062030032 -0.005782121 -0.046411924 -0.04210633 0.10465061 0.086298786 0.09317186 0.10632215
-0.004161462 -0.098817006 -0.054509208 -0.08489526 0.11902138 0.001897126 -0.0007007569 -0.090025224
0.11724054 -0.1014402 -0.013594888 -0.024701303 0.07200698 -0.091707915 -0.014938682 0.117448404
0.106099084 0.04440377 0.12579486 0.021074226 0.113530025 -0.030861435 -0.058877513 0.009297514
0.041379098 -0.10415072 0.092185736 0.10860394 -0.08741821 0.0008163899 -0.11529984 -0.0393275
0.05042483 -0.100846626 0.02998207 0.016894253 -0.05947802 0.0392646 0.0932455 -0.10475201
0.030648964 -0.00022265315 -0.09211714 0.06369081 -0.109857805 0.12032664 -0.014763462 0.121568196
-0.029789656 -0.041507043 0.07075303 0.06630075 -0.04272135 -0.029733947 -0.054340567 0.10365118
-0.11801739 0.009789195 -0.09716264 -0.03723052 0.04360295 0.018058697 -0.03121816 0.07395928
0.008942738 0.017967097 0.028639277 0.0527689 0.026812932 0.08981456 0.0093984455 0.12816294
-0.055863462 0.09734578 0.06252115 -0.046378534 0.0053732134 0.030377882 -0.0155508965 -0.012294503
0.06923057 0.098281965 0.04914779 0.10778661 -0.1270911 -0.1215341 0.06702833 0.0930061
0.0025634035 0.035601985 0.026209231 -0.07888907 0.018011384 -0.030067176 -0.08997189 0.030134887
-0.061068386 0.086430095 -0.09904812 -0.11182566 0.08425296 0.0768659 0.028318753 -0.06085975
0.04726268 0.012807608 -0.122627474 -0.09161109 -0.06953434 -0.09563497 -0.07467874 0.005213479
-0.08999117 0.06605042 0.09296203 -0.07226996 -0.05697034 -0.09502616 0.023503648 0.014861196
00000000: 3413 7e3d f277 bdbb 6e1a 3ebd b077 2cbd
00000010: 0f53 d63d 6bbd b03d e3d0 be3d 6dbf d93d
00000020: e05c 88bb 9260 cabd 0c45 5fbd 91dd adbd
00000030: 7bc1 f33d fca8 f83a 00b3 37ba 255f b8bd
00000040: cf1b f03d e1bf cfbd 18bd 5ebc 635a cabc
00000050: 6578 933d 5cd1 bbbd 60c1 74bc ca88 f03d
00000060: 7a4a d93d bae0 353d 5ed0 003e dba3 ac3c
00000070: 6e82 e83d 1fd1 fcbc 8c29 71bd 9a54 183c
00000080: 217d 293d f94c d5bd e0cb bc3d be6b de3d
00000090: 5208 b3bd 0003 563a 5322 ecbd df15 21bd
000000a0: 448a 4e3d ad88 cebd f59c f53c d165 8a3c
000000b0: 399f 73bd ebd3 203d 7ff7 be3d 3988 d6bd
000000c0: 8913 fb3c 0078 69b9 e9a7 bcbd 5470 823d
000000d0: 21fd e0bd d06d f63d 73e2 71bc bff8 f83d
000000e0: 7009 f4bc 4a03 2abd f7e6 903d b0c8 873d
000000f0: 95fc 2ebd 9b94 f3bc 3794 5ebd 1247 d43d
00000100: 1ab3 f1bd dc62 203c 35fd c6bd 087f 18bd
00000110: 0299 323d d5ef 933c 3abd ffbc f777 973d
00000120: 9084 123c bc2f 933c eb9c ea3c 3424 583d
00000130: cba6 db3c b2f0 b73d f0fb 193c 253d 033e
00000140: 16d1 64bd 395d c73d 170b 803d 6bf7 3dbd
00000150: c811 b03b 09db f83c 30c9 7ebc e26e 49bc
00000160: c2c8 8d3d 0e48 c93d 314f 493d 3abf dc3d
00000170: 2b24 02be dfe6 f8bd 2646 893d fb79 be3d
00000180: c6fe 273b 63d3 113d beb4 d63c 9890 a1bd
00000190: 9c8c 933c 704f f6bc 2f43 b8bd 70dd f63c
000001a0: d822 7abd 4302 b13d bed9 cabd da04 e5bd
000001b0: d18c ac3d de6b 9d3d bbfc e73c 1348 79bd
000001c0: 8396 413d 00d7 513c 1d24 fbbd 989e bbbd
000001d0: 0568 8ebd 44dc c3bd 2bf1 98bd d5d5 aa3b
000001e0: 4a4d b8bd 7145 873d e062 be3d 4602 94bd
000001f0: bb59 69bd 139d c2bd b98a c03c 607c 733c

fc3.bias f4 [2]
0.0524877 0.011648727
00000000: 58fd 563d 4dda 3e3c
