model_to_load/mod64_save0.pt (torch_old, 172265 bytes, 12 tensors)

conv1.weight f4 [18, 64]
0.24742028 -0.16993712 -0.2110278 -0.26417008 0.1601467 0.06746893 0.1185269 -0.18329191
0.22862118 -0.084082335 0.0027365084 -0.056414336 0.15635462 -0.17497751 -0.0930239 -0.08651475
-0.0827295 0.054798592 -0.100616395 0.20104231 0.25563285 0.17191972 0.020369213 0.036491487
0.18087168 -0.117291965 -0.1376667 -0.005198895 -0.10325687 0.1576343 -0.26077956 -0.07892281
-0.051343266 0.111196995 -0.17594011 0.13943662 -0.25684473 -0.09038092 -0.2053092 0.085042365
0.18399285 -0.19177137 0.1875757 0.11606214 0.02592877 -0.1855008 -0.17698936 -0.014624008
0.013052704 0.25413704 0.21029729 0.099488355 -0.1902765 -0.1167472 0.12964542 0.09162483
0.10495875 -0.18899237 0.1758125 -0.17933165 -0.09027851 -0.1720147 -0.023525512 0.047180012
0.00493991 -0.19255775 -0.04504676 -0.06743186 0.19959635 -0.25875664 0.08213301 -0.13662457
-0.08976021 -0.02629135 -0.07290084 0.07189397 0.16866365 0.26644003 -0.19549976 -0.04059045
-0.031241149 0.16079296 -0.21270761 -0.24642041 -0.0006413449 0.23479386 -0.01995336 0.0589111
0.051731337 -0.15232208 0.26270264 -0.12877004 -0.23901537 -0.19347474 0.23582165 -0.12992893
-0.25545397 0.23590471 -0.21229514 0.15524293 -0.039667167 0.16292132 -0.11459737 0.009146856
-0.13139588 -0.05016909 -0.11494205 0.24705309 0.003013934 0.19430342 0.2261199 0.2515381
0.2706087 -0.020119743 0.054664467 0.18523665 0.032769505 -0.033265058 0.25761357 -0.23037942
0.038449094 0.0021087863 0.22417858 -0.2737359 0.10946002 0.021309659 -0.14205211 0.19365981
-0.1319681 0.07828876 -0.081909984 -0.20426737 -0.23268066 -0.15736635 0.096136965 0.015528005
0.1735241 -0.004246729 0.13580658 0.12235769 -0.102683164 0.034564625 0.18004297 -0.16386178
-0.10534806 0.2441598 0.10706849 0.0768117 -0.18867894 -0.1300965 0.22236742 -0.18315385
0.16477074 0.11721507 -0.14202757 -0.112597756 -0.0329345 0.268663 0.21124467 0.0748254
0.2105007 -0.18930486 0.23964448 0.2420845 0.10624435 -0.18195942 0.010254629 -0.04633369
0.17375466 -0.23786086 0.15162748 -0.034941636 -0.087380596 0.13911827 -0.031349786 -0.20438391
-0.17300192 -0.11154018 0.1052129 0.017872408 -0.0021696216 -0.21550046 0.26889193 -0.06899812
0.25484467 -0.013244882 -0.08211381 0.2637474 -0.019038927 -0.24910599 0.11446236 0.22334105
0.19213296 -0.22497208 0.25041655 -0.03041762 0.064348064 0.053418417 -0.20846732 -0.17947878
0.08102207 0.11547671 -0.12500267 0.056733895 -0.15900286 -0.11377779 0.06659286 -0.22542036
-0.14135985 -0.21674396 0.12763032 0.1387342 -0.1379046 -0.22885074 0.17273764 -0.050450277
-0.08200662 0.23891245 -0.080407806 -0.14379235 -0.13633215 0.044886485 -0.2214342 -0.19547036
-0.036984812 0.13891678 -0.045597244 0.15931249 0.24083613 -0.20187369 0.044448256 0.07000117
0.14306162 -0.043648448 0.22281381 -0.25359473 0.21302366 0.04228982 0.09883755 -0.12903365
-0.117555015 -0.22923262 -0.04201069 -0.18296078 -0.22082832 -0.20979676 -0.12573057 0.22767802
-0.07890139 -0.11029246 0.047762387 -0.20833188 0.22267339 0.23655845 0.24148056 -0.13899669
00000000: be5b 7d3e ff03 2ebe ac17 58be 4d41 87be
00000010: 7ffd 233e 262d 8a3d 3bbe f23d e0b0 3bbe
00000020: ac1b 6a3e 5c33 acbd fe56 333b b812 67bd
00000030: 6d1b 203e 4e2d 33be 5183 bebd a52e b1bd
00000040: 166e a9bd 7d74 603d f80f cebd 09de 4d3e
00000050: 4fe2 823e b90b 303e 56dd a63c 1978 153d
00000060: 6d36 393e c536 f0bd 80f8 0cbe 7e5b aabb
00000070: 5678 d3bd e36a 213e e684 85be 48a2 a1bd
00000080: 514d 52bd 40bb e33d a529 34be 79c8 0e3e
00000090: 2781 83be a219 b9bd 933c 52be b12a ae3d
000000a0: 9f68 3c3e b75f 44be d813 403e fdb1 ed3d
000000b0: 9268 d43c ecf3 3dbe b33c 35be 8999 6fbc
000000c0: 02db 553c 401e 823e 2c58 573e 8dc0 cb3d
000000d0: d8d7 42be 2819 efbd c5c1 043e cda5 bb3d
000000e0: 9df4 d63d 3787 41be 3108 343e b7a2 37be
000000f0: f0e3 b8bd 9f24 30be 93b8 c0bc d43f 413d
00000100: f8de a13b dc2d 45be f482 38bd b719 8abd
00000110: fc62 4c3e c07b 84be 5a35 a83d 50e7 0bbe
00000120: 33d4 b7bd f560 d7bc 094d 95bd 253d 933d
00000130: 2ab6 2c3e d46a 883e 1731 48be 2c42 26bd
00000140: 70ed ffbc e9a6 243e 06d0 59be a255 7cbe
00000150: ed1f 28ba cd6d 703e 3b75 a3bc c44c 713d
00000160: 3de4 533d 52fa 1bbe f680 863e 4bdc 03be
00000170: 72c0 74be 3e1e 46be 3b7b 713e 170c 05be
00000180: ddca 82be 0191 713e e663 59be 01f8 1e3e
00000190: 0a7a 22bd d9d4 263e 07b2 eabd b2dc 153c
000001a0: a48c 06be 1b7e 4dbd bd66 ebbd 7cfb 7c3e
000001b0: 6c85 453b 7af7 463e fa8b 673e 9ac9 803e
000001c0: 398d 8a3e 29d2 a4bc d9e7 5f3d adae 3d3e
000001d0: 5139 063d f140 08bd ede5 833e 95e8 6bbe
000001e0: cc7c 1d3d 9033 0a3b 128f 653e 1d27 8cbe
000001f0: 932c e03d 9891 ae3c 1c76 11be c24e 463e
00000200: a522 07be db55 a03d 6cc0 a7bd 772b 51be
00000210: d743 6ebe a524 21be 75e3 c43d 2c69 7e3c
00000220: 4db0 313e 2528 8bbb e110 0b3e ab96 fa3d
00000230: 8d4b d2bd a393 0d3d 2f5d 383e 62cb 27be
00000240: b9c0 d7bd 0705 7a3e b946 db3d 744f 9d3d
00000250: 0d35 41be 0438 05be 49b4 633e af8c 3bbe
00000260: a9b9 283e 740e f03d ad6f 11be a799 e6bd
00000270: 54e6 06bd 328e 893e 8650 583e 0f3e 993d
00000280: 7f8d 573e 22d9 41be 5d65 753e 00e5 773e
00000290: a396 d93d 9253 3abe 0803 283c 65c8 3dbd
000002a0: beec 313e cc91 73be 3c44 1b3e f61e 0fbd
000002b0: 99f4 b2bd 0575 0e3e a268 00bd 044a 51be
000002c0: 6a27 31be 2e6f e4bd dc79 d73d 2869 923c
000002d0: 3630 0ebb 27ac 5cbe 34ac 893e e34e 8dbd
000002e0: 007b 823e 1001 59bc 492b a8bd e609 873e
000002f0: 86f7 9bbc a415 7fbe 3e6b ea3d 84b3 643e
00000300: 81be 443e 155f 66be 9936 803e 5f2e f9bc
00000310: ebc8 833d 45cd 5a3d 7578 55be 49c9 37be
00000320: e6ee a53d 0e7f ec3d b300 00be cd61 683d
00000330: a5d1 22be 5404 e9bd d661 883d 98d4 66be
00000340: a3c0 10be 21f2 5dbe 86b1 023e 5710 0e3e
00000350: dd36 0dbe d957 6abe 23e2 303e f3a4 4ebd
00000360: 16f3 a7bd 77a5 743e d9ac a4bd 4d3e 13be
00000370: a89a 0bbe e4da 373d a6bf 62be 6229 48be
00000380: 637d 17bd 3340 0e3e 2dc4 3abd d022 233e
00000390: bf9d 763e fab7 4ebe 600f 363d c65c 8f3d
000003a0: bf7e 123e b7c8 32bd 4e29 643e 2bd7 81be
000003b0: e022 5a3e 1738 2d3d 576b ca3d 6621 04be
000003c0: afc0 f0bd f5bb 6abe 6713 2cbd 125a 3bbe
000003d0: d220 62be f6d4 56be 84bf 00be 6d24 693e
000003e0: 0d97 a1bd 03e1 e1bd 7ea2 433d f454 55be
000003f0: 7e04 643e 613c 723e ae46 773e 2655 0ebe

conv1.bias f4 [64]
0.005316459 -0.0024647613 0.0036766597 0.0020038097 -0.0029392173 0.0023044914 0.0029312705 0.004893199
0.0017140417 0.003288511 -0.0007488409 0.0038075137 -0.007070302 -0.00019472843 0.0025912877 0.0029343707
0.0005061887 -0.00021498172 -0.0024943245 -0.0031141452 0.002182854 0.0022344787 0.002662744 0.0029897077
0.0019803632 -0.0009078073 -8.677616e-05 0.003040343 0.00053418597 -0.0015171455 0.002843744 0.0022978226
0.001459083 -0.00026941855 -0.00071417424 0.00020965801 0.0037367796 -0.00063668174 -0.00011464767 -0.0028933513
-0.0011147439 0.003640594 0.0001304046 0.011560335 0.005135166 0.005444247 0.0010455538 -0.0029062913
0.006148742 -0.0007930487 0.00024647292 0.0016683632 0.0023844182 0.00084935885 0.0006011294 0.0034961484
-0.0013908772 0.0014420783 0.005880859 -0.00063870347 -0.0017257525 0.0018336509 -0.003188665 0.0019983354
00000000: b135 ae3b d587 21bb 1df4 703b 5952 033b
00000010: e29f 40bb f306 173b 8f1a 403b 2157 a03b
00000020: b2a9 e03a 0f84 573b dd4d 44ba 7b87 793b
00000030: fead e7bb 0430 4cb9 98d2 293b 924e 403b
00000040: c0b1 043a b76c 61b9 d277 23bb b016 4cbb
00000050: 370e 0f3b 5570 123b 6e81 2e3b f9ee 433b
00000060: fbc8 013b ebf9 6dba 99fb b5b8 7e40 473b
00000070: 9d08 0c3a f5da c6ba 1b5e 3a3b 1197 163b
00000080: b43e bf3a bf40 8db9 6c37 3bba a5d7 5b39
00000090: c2e4 743b fde6 26ba 006f f0b8 619e 3dbb
000000a0: 991c 92ba 0897 6e3b 38bd 0839 8f67 3d3c
000000b0: e544 a83b a765 b23b f70a 893a 7a77 3ebb
000000c0: 637b c93b 99e4 4fba 0939 8139 fbac da3a
000000d0: e643 1c3b 82a7 5e3a 1c95 1d3a a31f 653b
000000e0: 184e b6ba 1e04 bd3a 39b4 c03b aa6e 27ba
000000f0: a532 e2ba 1d57 f03a ecf8 50bb 81f6 023b

conv2.weight f4 [64, 64]
0.17619382 -0.14909302 -0.01433945 -0.19403933 0.20378622 0.045468707 0.06302267 0.028706314
0.088725045 -0.14152902 -0.08475271 0.05657349 0.20649561 -0.18315648 0.06485347 -0.18533799
0.0128947375 -0.06667285 -0.08968964 0.10359672 -0.09916969 0.101596974 0.04156688 0.03211582
-0.04615847 -0.06457909 0.037573386 0.02974165 -0.08681086 0.17225839 0.09701882 0.20791276
-0.16124491 -0.138637 -0.11885793 -0.036157034 0.09808377 -0.1919403 0.1669025 -0.083743766
0.21791525 -0.13940841 -0.16689444 0.013682545 -0.12271127 -0.043154303 -0.19265835 0.1587769
0.026141185 -0.02826873 -0.1946341 0.1717099 0.1379108 0.08503355 -0.009984401 0.06323217
0.19886304 0.033941112 0.12627997 -0.047192104 0.061481643 -0.15933552 0.05909295 0.025258927
-0.06084576 -0.17381968 -0.08229113 0.025310196 -0.037816077 -0.20283982 -0.04377558 0.19561073
0.11090026 0.10692114 -0.21044835 0.09239677 0.21095304 0.023870485 -0.08647848 0.18984172
-0.10484333 0.021274706 -0.086001076 0.106419004 -0.09121509 -0.09997312 -0.14365932 0.15863566
-0.07902131 -0.038596686 0.049905945 -0.09124737 0.06252573 0.15061556 0.14242713 0.01919931
0.21231773 0.10486258 0.1720266 0.04682006 0.19589387 -0.078528434 -0.078341864 0.18836838
0.12264048 0.21619993 0.04503192 -0.00981615 0.07556741 0.12460112 0.2122451 -0.1838771
-0.0218322 -0.05495891 0.093703374 0.19125856 0.12237147 0.06867663 -0.09314447 -0.192701
0.11481279 -0.0020120405 0.002704555 -0.1281252 -0.12163094 0.19140466 -0.11343401 -0.100952566
0.12411195 0.08387929 -0.09796214 -0.066553324 0.17130798 0.10326124 0.05034451 0.19548824
0.15620409 0.07598128 -0.14671463 0.15866686 -0.006751876 -0.051178396 -0.06026517 0.07371782
0.00047119302 -0.17175433 0.17422403 0.12593392 0.14263761 -0.16557841 -0.21751273 -0.20649798
0.11345777 0.18436104 0.06096044 -0.19705237 0.052395854 0.023385454 -0.19912902 0.19967902
-0.17047313 0.016080152 -0.10649712 -0.04849207 0.019731358 -0.18479273 0.029110998 0.1372228
-0.21112175 -0.15009269 0.12952656 0.08659296 -0.15985754 -0.02934164 -0.15493913 -0.10974598
-0.12735331 0.20328796 -0.030254975 0.11321565 0.128861 0.21265027 -0.07282109 -0.04963936
0.1643571 0.0548271 0.042821094 0.0708857 0.1953443 -0.060572255 0.15336415 -0.1616942
0.10756322 0.025284398 0.12378014 0.2008301 -0.13730016 0.13060433 0.1367663 -0.15802024
0.1723604 -0.2081767 0.19928664 -0.044432644 0.117273025 -0.1273877 -0.20985205 0.03825645
0.029590376 -0.16262364 0.029682802 -0.07234037 0.108978376 -0.19866185 -0.036744673 0.1634704
0.115453176 0.11375359 -0.04968152 -0.009134928 -0.03572669 0.123347834 0.10140732 0.16360258
-0.1293908 0.17610498 0.124600396 -0.06234184 -0.14231098 -0.14668709 0.13344386 -0.052208807
0.053348295 -0.1379059 0.085080415 -0.19069329 -0.052159127 -0.035964396 -0.03525804 0.08048402
-0.0907632 0.060935177 -0.14874241 0.0770526 0.01006766 -0.12085493 0.21197076 0.06660278
0.038623042 0.09282112 0.15459584 0.061301745 0.18156534 -0.12798348 0.07534077 -0.20569961
00000000: 276c 343e d7ab 18be 03f0 6abc 3fb2 46be
00000010: 56ad 503e 653d 3a3d 0812 813d 8129 eb3c
00000020: 7ab5 b53d fcec 10be d492 adbd 9bb9 673d
00000030: 9673 533e 5f8d 3bbe e5d1 843d 3ec9 3dbe
00000040: 7344 533c c68b 88bd 34af b7bd 842a d43d
00000050: 7a19 cbbd 1312 d03d 0842 2a3d e18b 033d
00000060: aa10 3dbd 0b42 84bd 8de6 193d c3a4 f33c
00000070: e4c9 b1bd 8164 303e ceb1 c63d 15e7 543e
00000080: 631d 25be dcf6 0dbe c96b f3bd 6619 14bd
00000090: 25e0 c83d ff8b 44be 7de8 2a3e da81 abbd
000000a0: 2d25 5f3e 14c1 0ebe 60e6 2abe c12c 603c
000000b0: 0c50 fbbd 91c2 30bd 3b48 45be 6996 223e
000000c0: 0a26 d63c d393 e7bc 294e 47be b8d4 2f3e
000000d0: 7d38 0d3e 1226 ae3d 9d95 23bc de7f 813d
000000e0: c1a2 4b3e d605 0b3d 894f 013e 824c 41bd
000000f0: 2dd4 7b3d da28 23be 730b 723d cfeb ce3c
00000100: 6739 79bd c9fd 31be 4188 a8bd 5457 cf3c
00000110: 08e5 1abd 3eb5 4fbe 064e 33bd 2e4e 483e
00000120: ad1f e33d 78f9 da3d c67f 57be 853a bd3d
00000130: 1304 583e 098c c33c a11b b1bd de65 423e
00000140: 1ab8 d6bd 4b48 ae3c 5521 b0bd 35f2 d93d
00000150: face babd b5be ccbd 6e1b 13be 6371 223e
00000160: edd5 a1bd 8f17 1ebd 2d6a 4c3d e7df babd
00000170: 7d0d 803d f73a 1a3e 6bd8 113e df47 9d3c
00000180: d269 593e 31c2 d63d be27 303e 64c6 3f3d
00000190: 6798 483e 84d3 a0bd b371 a0bd a4e3 403e
000001a0: ef2a fb3d 8463 5d3e 6473 383d ebd3 20bc
000001b0: 16c3 9a3d df2e ff3d c856 593e 474a 3cbe
000001c0: 71d9 b2bc 981c 61bd 8ee7 bf3d 49d9 433e
000001d0: e59d fa3d 55a6 8c3d 87c2 bebd 6953 45be
000001e0: f822 eb3d 70dc 03bb e73e 313b 4133 03be
000001f0: a419 f9bd 95ff 433e 1750 e8bd 38c0 cebd
00000200: 682e fe3d e8c8 ab3d 60a0 c8bd 1c4d 88bd
00000210: 5c6b 2f3e a17a d33d 0b36 4e3d 122e 483e
00000220: f7f3 1f3e 139c 9b3d 5c3c 16be 9179 223e
00000230: d73e ddbb 70a0 51bd 9cd8 76bd 5ef9 963d
00000240: 750a f739 5ee0 2fbe c967 323e d2f4 003e
00000250: 980f 123e 638d 29be a8bb 5ebe 3574 53be
00000260: 8c5c e83d 24c9 3c3e a8b1 793d 19c8 49be
00000270: 099d 563d da92 bf3c 7ae8 4bbe a878 4c3e
00000280: 8290 2ebe 86ba 833c 291b dabd 9f9f 46bd
00000290: a8a3 a13c 4e3a 3dbe 307a ee3c 2284 0c3e
000002a0: 4d30 58be e6b1 19be 9ca2 043e a657 b13d
000002b0: b2b1 23be e15d f0bc 5da8 1ebe 80c2 e0bd
000002c0: e868 02be b82a 503e 48d9 f7bc 9bdd e73d
000002d0: 23f4 033e fec0 593e 3923 95bd a452 4bbd
000002e0: 3a4d 283e 6292 603d 2c65 2f3d 862c 913d
000002f0: 5608 483e 9d1a 78bd 7e0b 1d3e 2a93 25be
00000300: 1b4a dc3d 3a21 cf3c 7180 fd3d 68a6 4d3e
00000310: 6a98 0cbe 24bd 053e 770c 0c3e 0fd0 21be
00000320: 3f7f 303e 462c 55be cc11 4c3e 01ff 35bd
00000330: d72c f03d ec71 02be 75e3 56be ccb2 1c3d
00000340: 8467 f23c d086 26be 5929 f33c 3027 94bd
00000350: 0e30 df3d 036e 4bbe 9581 16bd c964 273e
00000360: b772 ec3d a4f7 e83d d97e 4bbd aaaa 15bc
00000370: 2656 12bd ca9d fc3d a4ae cf3d 6f87 273e
00000380: 067f 04be dd54 343e 7e2e ff3d 285a 7fbd
00000390: f8b9 11be 2435 16be 82a5 083e e7d8 55bd
000003a0: be83 5a3d 3437 0dbe a43e ae3d 1a45 43be
000003b0: cfa4 55bd 674f 13bd bc6a 10bd ced4 a43d
000003c0: 0ee2 b9bd 2a97 793d ee4f 18be c1cd 9d3d
000003d0: d4f2 243c ca82 f7bd dd0e 593e 0a67 883d
000003e0: 3233 1e3d 0019 be3d 5f4e 1e3e 8a17 7b3d
000003f0: 44ec 393e 1a0e 03be 434c 9a3d eba2 52be

conv2.bias f4 [64]
-0.0006145288 -0.0018292717 -0.0013923605 0.0025939846 -0.002191498 0.0021632712 -0.00047199219 0.003971907
0.0008556331 0.0030476465 -0.0052328412 -0.0007578453 -0.0017626202 0.0034158153 0.0040008854 0.0010761452
-0.0014931614 0.004164278 0.0029618049 0.0054811686 0.0016683339 -0.0014245656 -0.0017118902 0.0027181031
0.0011357263 0.0007468646 0.0028110966 0.0057394756 -0.000981878 -0.0043381443 0.0015392152 0.0005643596
-0.0034748118 0.002000778 -0.00054834154 -0.00047573834 0.00010758727 0.0003603932 0.00075972197 -0.001564528
0.005564248 0.0016110006 0.0019004964 -0.0018604588 0.0011807483 0.0015876023 8.2864426e-05 0.006777884
0.00016523154 0.003984213 0.0011268605 -0.001645789 0.0020833178 -0.00062074943 0.002916245 0.0013336284
0.01060392 0.0017899784 0.0018816435 -0.0015526642 0.0012403604 -0.0004956377 0.0038448565 0.0025174501
00000000: 5418 21ba 2cc4 efba de7f b6ba d7ff 293b
00000010: 3c9f 0fbb abc5 0d3b b875 f7b9 c526 823b
00000020: 914c 603a 06bb 473b 4178 abbb 23aa 46ba
00000030: b807 e7ba dfdb 5f3b dc19 833b 710d 8d3a
00000040: 2fb6 c3ba 7f74 883b d71a 423b 609b b33b
00000050: ffab da3a 7db8 baba 8161 e0ba 3422 323b
00000060: a7dc 943a 3cc9 433a 603a 383b 3612 bc3b
00000070: 5cb2 80ba fe26 8ebb 7ebf c93a 88f1 133a
00000080: abb9 63bb 7c1f 033b 94be 0fba 856c f9b9
00000090: 7aa0 e138 28f3 bc39 1428 473a d910 cdba
000000a0: 4c54 b63b 3628 d33a 141a f93a a3da f3ba
000000b0: 57c3 9a3a 1817 d03a 80c7 ad38 0319 de3b
000000c0: 0142 2d39 008e 823b 2ab3 933a 84b7 d7ba
000000d0: 4688 083b cab9 22ba 791e 3f3b 25cd ae3a
000000e0: 10bc 2d3c b59d ea3a 7ba1 f63a c482 cbba
000000f0: 9793 a23a afed 01ba fdf9 7b3b cefb 243b

conv3.weight f4 [64, 64]
-0.17773795 -0.17640515 0.029306574 -0.21600038 -0.21081673 -0.10465709 0.14964275 -0.17302941
0.027359502 0.032106526 0.019916672 0.11551702 -0.14222164 -0.03003016 0.14321175 -0.13842544
-0.09135202 -0.19151609 0.15102015 -0.080475196 0.036766246 0.11721761 -0.14773771 0.21028614
-0.06395679 -0.10205125 0.0426546 -0.15647312 -0.066525646 0.16537488 -0.06907166 -0.0972482
-0.088472225 0.005572063 0.11966132 -0.08172924 -0.08914573 0.023255507 -0.11088807 0.0982922
0.16775462 -0.1508389 -0.1532713 0.053670123 -0.12001521 -0.091868356 -0.12077094 -0.109010644
-0.16400075 0.19856672 -0.029613303 0.0073979464 -0.006355187 0.16701478 0.11575502 -0.20462182
-0.114006646 -0.16567132 -0.12750843 0.17652087 -0.03341509 -0.14203072 -0.049486313 -0.0313429
0.111876145 0.11599706 -0.014743415 0.017214794 0.024324412 0.18708193 -0.091739856 0.09333605
0.17962089 0.21135585 0.13818489 -0.10975713 0.17845769 -0.13099103 0.17624101 0.20591198
-0.16723393 -0.19585775 -0.016240349 0.099746875 -0.04374252 0.20499292 0.16583437 -0.06946004
0.12924744 -0.0023294725 -0.13891728 -0.019153785 -0.1802392 0.21633959 0.09599908 -0.096128196
0.06077886 -0.09575131 0.08803617 0.009200676 0.19837265 0.035045303 0.07006523 0.12282008
-0.12755007 0.13136226 0.20631206 0.09731005 -0.10530584 0.068100385 0.087448396 -0.16421787
-0.18110175 0.007392293 -0.14106978 0.13973182 0.042485952 0.13915077 0.15708323 -0.06570555
-0.17128423 -0.046746556 0.013845666 0.039722644 0.19453609 -0.07403547 -0.04347022 -0.14107567
0.19442801 -0.1946415 0.027897162 -0.12073841 -0.013051402 -0.08573046 -0.18435065 -0.20488894
-0.20497495 0.20507053 0.115608476 -0.047337953 0.077008516 0.087895855 0.18898338 -0.20308256
0.0035392847 0.058349565 -0.19891909 -0.12256222 -0.10163596 0.02591801 0.029681027 0.21232522
-0.08191976 0.045673482 -0.030256579 0.03148452 -0.0284314 -0.21143126 0.009575392 -0.09114962
-0.20121545 -0.13851862 -0.14918548 -0.053852014 -0.028095737 0.08606576 -0.17320901 0.036970466
-0.062472835 -0.19509128 -0.07083508 -0.2109138 -0.15786849 -0.07932792 0.00954174 -0.061811138
0.017362464 -0.027267298 -0.07287181 -0.1845845 -0.15863909 -0.11018057 -0.009620856 0.16095628
0.06408719 -0.10432966 0.16469349 0.10254272 -0.0835248 0.14170727 -0.045142 -0.08215273
-0.038030766 0.19480805 0.14136605 -0.15600173 -0.13554987 0.19259235 0.12682107 0.1292085
0.000284392 0.105981514 0.0011942963 0.016065706 -0.08877422 0.14966895 -0.13079426 0.039155915
-0.16497117 0.16702163 0.14947931 0.05464899 -0.02373927 0.03822449 0.006014589 -0.11114505
0.03225066 0.21442154 0.055234782 0.16245306 0.13005905 0.00957813 -0.14484109 -0.10468533
-0.15313861 0.1730793 0.07399605 -0.002413648 0.0066224025 -0.21670292 0.21521251 0.17600326
-0.01635764 -0.03018964 0.18143618 -0.021720199 -0.08196186 -0.08063729 -0.12604646 0.19955316
0.03706961 -0.06991148 0.044768635 -0.08474873 -0.13047731 -0.12649304 -0.21706627 0.18991299
-0.14305991 -0.19456844 0.20849973 0.17967744 -0.16236414 -0.14016013 0.13871124 0.023682768
00000000: f000 36be 8da3 34be 5714 f03c 342f 5dbe
00000010: 57e0 57be 7556 d6bd f33b 193e 9f2e 31be
00000020: 0921 e03c 2282 033d 4a28 a33c 3094 ec3d
00000030: 8da2 11be cf01 f6bc 1aa6 123e 66bf 0dbe
00000040: c516 bbbd cb1c 44be 07a5 1a3e 2ed0 a4bd
00000050: 3498 163d c90f f03d 8e48 17be 4055 573e
00000060: c7fb 82bd 3f00 d1bd 97b6 2e3d 7d3a 20be
00000070: 993e 88bd 0858 293e 7175 8dbd 102a c7bd
00000080: ed30 b5bd da95 b63b fe10 f53d a961 a7bd
00000090: 0992 b6bd 5582 be3c 4919 e3bd 6c4d c93d
000000a0: dec7 2b3e 8375 1abe 27f3 1cbe 34d5 5b3d
000000b0: 89ca f5bd 7a25 bcbd c156 f7bd f940 dfbd
000000c0: d0ef 27be 1355 4b3e 9997 f2bc 796a f23b
000000d0: 2c3f d0bb ec05 2b3e f810 ed3d 6288 51be
000000e0: 517c e9bd bea5 29be 9291 02be e3c1 343e
000000f0: 43de 08bd 8070 11be 29b2 4abd 6a61 00bd
00000100: 521f e53d de8f ed3d 5d8e 71bc 0a06 8d3c
00000110: fd43 c73c 6892 3f3e 1be2 bbbd f926 bf3d
00000120: 8aee 373e ab6d 583e 5780 0d3e 59c8 e0bd
00000130: 9dbd 363e 8322 06be 8678 343e 97da 523e
00000140: 5f3f 2bbe ef8e 48be 7b0a 85bc 1748 cc3d
00000150: 5b2b 33bd aae9 513e 7cd0 293e 1141 8ebd
00000160: 7159 043e 10aa 18bb 5540 0ebe 66e8 9cbc
00000170: a090 38be 2088 5d3e 2a9b c43d dcde c4bd
00000180: 41f3 783d 4319 c4bd 4f4c b43d 6fbe 163c
00000190: 3322 4b3e aa8b 0f3d 5c7e 8f3d 1889 fb3d
000001a0: 7c9c 02be d483 063e 7843 533e 7e4a c73d
000001b0: 97aa d7bd 3778 8b3d 2518 b33d bb28 28be
000001c0: bd72 39be 0c3b f23b 9974 10be dc15 0f3e
000001d0: c005 2e3d 8a7d 0e3e 6dda 203e a290 86bd
000001e0: 2265 2fbe 5179 3fbd efd8 623c 36b4 223d
000001f0: 7834 473e e99f 97bd d40d 32bd 2476 10be
00000200: 2318 473e 1a50 47be 9788 e43c b345 f7bd
00000210: 8cd5 55bc 7493 afbd 6bc6 3cbe 68ce 51be
00000220: f4e4 51be 02fe 513e 23c4 ec3d 71e5 41bd
00000230: a4b6 9d3d be02 b43d dc84 413e e0f4 4fbe
00000240: 58f3 673b f4ff 6e3d 72b1 4bbe e701 fbbd
00000250: 8426 d0bd 0252 d43c a025 f33c c86b 593e
00000260: 8cc5 a7bd 1e14 3b3d a5dc f7bc e9f5 003d
00000270: f8e8 e8bc 7081 58be 1be2 1c3c a7ac babd
00000280: 6c0b 4ebe d3d7 0dbe 14c4 18be ee93 5cbd
00000290: 0829 e6bc 3f43 b03d b45d 31be 586e 173d
000002a0: 84e3 7fbd 02c6 47be fc11 91bd caf9 57be
000002b0: 47a8 21be ad76 a2bd f554 1c3c ad2d 7dbd
000002c0: ba3b 8e3c ab5f dfbc d13d 95bd b803 3dbe
000002d0: 4972 22be 5aa6 e1bd cba0 1dbc b9d1 243e
000002e0: 2540 833d caaa d5bd 69a5 283e eb01 d23d
000002f0: 0d0f abbd b61b 113e d1e6 38bd b13f a8bd
00000300: 26c6 1bbd c37b 473e 43c2 103e ebbe 1fbe
00000310: 96cd 0abe ee36 453e 62dd 013e 3c4f 043e
00000320: 731a 9539 d60c d93d ef89 9c3a 3a9c 833c
00000330: 42cf b5bd d142 193e eeee 05be f461 203d
00000340: 34ee 28be b807 2b3e 1b11 193e 9fd7 5f3d
00000350: dc78 c2bc 4891 1c3d 0816 c53b 04a0 e3bd
00000360: 4519 043d 5291 5b3e de3d 623d 185a 263e
00000370: 332e 053e 97ed 1c3c 3951 14be 4365 d6bd
00000380: 5ed0 1cbe b33b 313e 3e8b 973d 4b2e 1ebb
00000390: bd00 d93b 5fe7 5dbe ab60 5c3e 333a 343e
000003a0: 7500 86bc 4450 f7bc 68ca 393e 8fee b1bc
000003b0: 9fdb a7bd 2a25 a5bd 5312 01be aa57 4c3e
000003c0: 4ed6 173d c02d 8fbd 515f 373d be90 adbd
000003d0: d89b 05be 6487 01be 9f46 5ebe 8d78 423e
000003e0: 4c7e 12be f33c 47be f480 553e 5dfd 373e
000003f0: c942 26be 2386 0fbe 520a 0e3e 5d02 c23c

conv3.bias f4 [64]
-0.0017400299 0.001346224 -0.0004102593 0.0009345488 -0.0022029257 -0.002651821 0.0052057346 0.00019069365
-0.0013065051 -0.0019658743 -0.0015935046 -0.0022291127 0.0006601086 0.0028671846 -0.0007513991 0.00034577792
0.0063749384 0.001568577 0.0027701585 -0.0003632285 0.001509807 -0.00059360784 -0.0010545099 0.0011319811
0.0045389263 -0.00071749015 0.0018521567 0.0019565353 -0.00047750847 -0.0003440857 0.004397691 0.0024229102
-0.0021141546 0.0048491163 -0.0031726467 -0.0015788355 0.00052088755 -0.0015419035 0.00068093 0.0011827551
0.0019435696 -0.001578576 -0.00030257084 0.0014786228 0.0020704453 0.00624973 0.0027032762 0.0015414718
0.0012396792 0.00025471224 0.0019144124 0.0014553561 0.0040882514 0.000117182455 -0.0024260178 -0.0009992324
0.00017698946 0.0014218068 0.00070633803 -0.0018866477 -0.0019263749 -0.0029806423 0.0018699453 -0.0011944206
00000000: b711 e4ba c873 b03a 1218 d7b9 82fc 743a
00000010: f65e 10bb 2cca 2dbb de94 aa3b f0f4 4739
00000020: 093f abba e6d5 00bb 24dd d0ba 4e16 12bb
00000030: 230b 2d3a 60e7 3b3b 8af9 44ba 8749 b539
00000040: dce4 d03b b698 cd3a 8c8b 353b b46f beb9
00000050: b7e4 c53a 599c 1bba 7b37 8aba fc5e 943a
00000060: 46bb 943b f315 3cba 11c4 f23a 3739 003b
00000070: 1a5a fab9 6766 b4b9 821a 903b b0c9 1e3b
00000080: a18d 0abb 56e5 9e3b 2eec 4fbb eef0 ceba
00000090: 2c8c 083a b219 caba 7080 323a ad06 9b3a
000000a0: 60bf fe3a 39e8 ceba 5fa2 9eb9 59ce c13a
000000b0: 4fb0 073b 89ca cc3b 7329 313b 360b ca3a
000000c0: bb7c a23a e68a 8539 05ed fa3a a6c1 be3a
000000d0: bdf6 853b dabf f538 d3fd 1ebb adf8 82ba
000000e0: 3f96 3939 eb5b ba3a 8b29 393a 6449 f7ba
000000f0: 6a7e fcba e156 43bb f418 f53a 1b8e 9cba

fc1.weight f4 [128, 192]
0.012774944 0.031978957 -0.038577966 -0.027660491 0.00877992 0.023603786 0.03368795 -0.055693462
-0.037697367 0.042648636 0.06735504 0.04131057 -0.018766185 -0.018900111 -0.06651681 -0.03678565
0.03569811 0.023236902 -0.007744776 -0.015960762 -0.028901005 0.040595263 0.0113062095 -0.022479193
0.060879856 -0.0067639593 -0.014192003 -0.06291206 -0.06708975 -0.060269885 -0.013577367 -0.030001223
0.05285838 0.027577514 0.02232939 -0.009407217 0.0094811665 -0.06303295 -0.009243191 -0.0213888
-0.03633962 -0.064446785 0.00580315 -0.053213205 -0.037163302 -0.0036538185 0.059607755 -0.03721904
0.07611254 0.03543971 -0.018046431 -0.009014525 -0.0273848 -0.068971634 0.019180354 0.04985927
-0.024637103 0.0022369206 -0.0096281525 -0.06379911 0.014462758 -0.05156191 -0.012105157 -0.025832089
0.042049825 -0.008043676 0.020710003 0.04339678 0.041436963 -0.054077573 -0.027292436 -0.041548956
0.032572974 0.03792679 -0.05690227 0.029966267 -0.0111935 0.05584027 0.024502749 -0.010950836
-0.041157648 0.02401147 -0.055703413 0.0060877083 0.020113243 -0.060846124 -0.023638649 0.0594292
-0.01609483 -0.025026923 0.021563085 -0.009150879 0.06292049 0.013484702 -0.04933908 0.0073779705
0.002766357 0.032086138 0.042878058 0.0076583414 0.07117774 0.0307365 0.019529896 -0.016837416
-0.045328245 0.05925998 0.006209651 0.0077438266 0.030805659 -0.044970352 0.047244385 -0.003693302
-0.0076373233 -0.05667271 0.059998643 0.05562253 0.0649456 0.038639277 0.07045446 -0.04194134
-0.030861463 0.056580953 -0.063538924 -0.04340509 -0.04602536 0.02222585 -0.038406618 -0.051326253
0.066108 0.06555001 -0.05517293 0.051144697 -0.019934068 -0.06960964 -0.054934442 0.06408648
0.042851795 -0.070933126 -0.024566077 0.063404575 -0.074269004 -0.058727197 0.0679228 -0.026968708
0.008459028 0.05001594 -0.07103833 -0.06610737 0.042983577 -0.013072673 0.05595774 -0.049990177
0.052079853 -0.060125865 -0.045772787 -0.0015324376 0.065088056 -0.060628228 0.0049212975 -0.02936571
-0.016421353 0.068646625 -0.045921803 0.05774521 0.059171997 0.0449344 -0.067969576 0.0067819203
-0.020155853 0.009691616 -0.0060924254 0.025944822 -0.0683408 0.07081465 0.010725296 0.037461903
0.034661505 0.026122203 0.07038522 -0.011679247 0.022903733 0.0318652 -0.04930309 0.03278603
0.015554344 -0.014627813 0.01537644 0.0073256516 -0.016254926 0.03654914 -0.05363251 0.030664258
0.03524134 -0.060266394 -0.016890775 -0.0029072266 0.054474726 -0.04173769 -0.023312602 0.037798464
0.045186166 0.07091739 -0.021789318 0.013344526 0.0655594 -0.0031562655 0.03334708 0.026380992
-0.037799258 0.008561646 -0.068254285 0.061157387 0.02723663 0.049507245 0.003528502 -0.046624664
-0.025495537 -0.024840066 0.004439064 -0.010572878 0.05962633 -0.06521844 -0.03266487 -0.0293116
-0.025879798 0.011258855 -0.026790652 -0.03151565 -0.055055678 -0.05660769 -0.061278313 0.050634973
-0.04439406 -0.045675453 0.020249868 -0.044197373 0.027300442 0.0127856415 -0.04923161 0.055059444
-0.050298363 0.031917434 -0.008529478 0.03150613 0.070016064 -0.032931518 -0.060942996 0.06101941
0.061615925 -0.03218686 0.041036256 -0.03939528 0.0012020753 -0.051011 -0.048761737 0.028033884
00000000: 004e 513c 5efc 023d ee03 1ebd 4198 e2bc
00000010: a7d9 0f3c ba5c c13c 60fc 093d d41e 64bd
00000020: 8e68 1abd 56b0 2e3d 70f1 893d 4635 293d
00000030: 8bbb 99bc 68d4 9abc f739 88bd 8dac 16bd
00000040: 2e38 123d 515b be3c e4c7 fdbb 25c0 82bc
00000050: cdc1 ecbc 3847 263d ae3d 393c 4926 b8bc
00000060: 285d 793d 34a4 ddbb 9385 68bc 0ad8 80bd
00000070: 5a66 89bd 8edd 76bd 9b73 5ebc 20c5 f5bc
00000080: 0782 583d 3dea e13c 20ec b63c ba20 1abc
00000090: e556 1b3c 6b17 81bd c170 17bc 9137 afbc
000000a0: dad8 14bd adfc 83bd 5a28 be3b 17f6 59bd
000000b0: 8c38 18bd e774 6fbb 4327 743d fe72 18bd
000000c0: e4e0 9b3d 3b29 113d 1cd6 93bc a9b1 13bc
000000d0: 1756 e0bc 0041 8dbd 1e20 9d3c 3c39 4c3d
000000e0: c0d3 c9bc 4d99 123b 66bf 1dbc 1ca9 82bd
000000f0: 34f5 6c3c 9532 53bd b554 46bc d19d d3bc
00000100: 703c 2c3d 9fc9 03bc 06a8 a93c d2c0 313d
00000110: ceb9 293d 7280 5dbd 6394 dfbc 3d2f 2abd
00000120: 3d6b 053d 1f59 1b3d 5b12 69bd d17b f53c
00000130: f164 37bc c4b8 643d fdb9 c83c 236b 33bc
00000140: ec94 28bd b4b3 c43c 4329 64bd 667b c73b
00000150: 87c4 a43c c939 79bd d7a5 c1bc 086c 733d
00000160: 4ed9 83bc 4305 cdbc 11a5 b03c 92ed 15bc
00000170: 75dc 803d f1ee 5c3c c617 4abd e7c2 f13b
00000180: c54b 353b c16c 033d e7a0 2f3d d3f2 fa3b
00000190: a3c5 913d 1dcb fb3c 29fd 9f3c 9fee 89bc
000001a0: 1caa 39bd 98ba 723d 547a cb3b edbf fd3b
000001b0: 265c fc3c d532 38bd 5483 413d 530b 72bb
000001c0: 8342 fabb a521 68bd 23c1 753d 73d4 633d
000001d0: 3302 853d 3844 1e3d 6e4a 903d afca 2bbd
000001e0: 2ed1 fcbc 6ec1 673d b220 82bd 89c9 31bd
000001f0: 1685 3cbd fc12 b63c 4250 1dbd 7a3b 52bd
00000200: a263 873d 153f 863d 03fd 61bd 1a7d 513d
00000210: c54c a3bc 808f 8ebd f002 61bd c63f 833d
00000220: 5d85 2f3d 6345 91bd cc3e c9bc 42da 813d
00000230: 591a 98bd ee8b 70bd 1c1b 8b3d 7bed dcbc
00000240: bc97 0a3c 84dd 4c3d 8b7c 91bd 4d63 87bd
00000250: 8c0f 303d c42e 56bc f133 653d 80c2 4cbd
00000260: af51 553d 8a46 76bd 3f7c 3bbd 13dc c8ba
00000270: e34c 853d 4e55 78bd d642 a13b 5c90 f0bc
00000280: 1386 86bc 9a96 8c3d 8018 3cbd 3e86 6c3d
00000290: 565e 723d 220d 383d a233 8bbd df3a de3b
000002a0: e31d a5bc 95c9 1e3c f8a2 c7bb 3c8a d43c
000002b0: 43f6 8bbd 4507 913d 27b9 2f3c a771 193d
000002c0: 39f9 0d3d 3bfe d53c 2026 903d 505a 3fbc
000002d0: 9ca0 bb3c 1585 023d 09f2 49bd a54a 063d
000002e0: a6d7 7e3c 7fa9 6fbc 77ed 7b3c 050c f03b
000002f0: 0d29 85bc 8db4 153d c3ad 5bbd 9c33 fb3c
00000300: 3959 103d e5d9 76bd 865e 8abc 2b87 3ebb
00000310: e420 5f3d 24f5 2abd 12fa bebc 90d2 1a3d
00000320: 2115 393d 233d 913d 837f b2bc 00a3 5a3c
00000330: 0244 863d 59d9 4ebb f396 083d f31c d83c
00000340: 65d3 1abd 2546 0c3c e7c8 8bbd 2b80 7a3d
00000350: 5a1f df3c 1cc8 4a3d 713e 673b 81f9 3ebd
00000360: 04dc d0bc 657d cbbc 9175 913b dd39 2dbc
00000370: bd3a 743d 3f91 85bd 99cb 05bd e11e f0bc
00000380: df01 d4bc 1077 383c 1278 dbbc 8e16 01bd
00000390: 1082 61bd 77dd 67bd f8fe 7abd 9e66 4f3d
000003a0: 8cd6 35bd 2f16 3bbd 0de3 a53c 4e08 35bd
000003b0: 2da5 df3c de7a 513c 16a7 49bd 0386 613d
000003c0: a805 4ebd dbbb 023d 39bf 0bbc 920c 013d
000003d0: 9564 8f3d 33e3 06bd 5d9f 79bd 7def 793d
000003e0: fb60 7c3d 5ed6 03bd a215 283d f25c 21bd
000003f0: f48e 9d3a e9f0 50bd 63ba 47bd 51a7 e53c

fc1.bias f4 [128]
-0.05960089 0.024412885 -0.008585248 0.045725416 0.0017525756 -0.007391562 -0.033280104 -0.04225763
0.055104762 -0.06892891 0.007198125 0.02804587 -0.0471346 0.063993365 0.010776185 -0.009891019
0.006429953 -0.05217938 -0.014140954 0.008748241 0.0068684057 0.003072946 0.051574245 0.02267014
-0.049584515 -0.06730683 0.033585217 0.040400058 0.07355085 0.053806163 -0.04995631 -0.02837366
0.027736362 0.054562155 0.03801202 0.050870404 -0.021190092 0.05720948 -0.0530064 0.0012953427
0.07093935 0.050705176 0.010763652 -0.04071915 0.061472375 -0.014031958 -0.06495016 -0.058539234
-0.06340131 -0.002874252 0.025720578 -0.04875016 0.06374231 -0.04259307 0.036201656 0.052000824
0.018956475 0.039887894 0.045508392 -0.043752823 0.022273043 0.022071404 -0.036857408 0.0063325
-0.0062895087 -0.040039822 0.056835778 0.022409245 0.05679475 0.021070473 -0.07439731 -0.054528877
0.044660497 -0.06784882 -0.0062045134 0.035481628 -0.068123266 0.05374529 0.045363385 0.038759917
0.0683266 -0.031180989 -0.050353125 0.060693942 0.024347372 -0.06003756 0.014126166 -0.010090311
-0.018528732 0.06493076 -0.012842262 0.04473875 -0.015701028 -0.020487295 0.029590202 -0.03862988
-0.07173163 -0.009444584 -0.0659302 -0.04984054 0.050082654 -0.0061984668 -0.022661738 0.002076477
-0.02360447 -0.018527044 -0.04726806 0.037925486 -0.04978464 -0.063386366 0.05429746 0.046630487
0.07322561 0.04838111 -0.029673878 -0.004773431 -0.005723283 0.025795769 0.037378978 0.0029936542
0.011373904 0.034448154 -0.03732306 -0.049500283 -0.016473155 -0.030472301 -0.007736982 0.008625063
00000000: 1020 74bd 88fd c73c 24a9 0cbc 934a 3b3d
00000010: aeb6 e53a eb34 f2bb b850 08bd 5616 2dbd
00000020: 88b5 613d 9a2a 8dbd 40de eb3b 74c0 e53c
00000030: 3610 41bd f40e 833d 998e 303c f10d 22bc
00000040: 5bb2 d23b 0cba 55bd 76af 67bc c854 0f3c
00000050: 5d10 e13b 7b63 493b 843f 533d bbb6 b93c
00000060: 2219 4bbd 2ad8 89bd a790 093d 887a 253d
00000070: d4a1 963d da63 5c3d fd9e 4cbd e16f e8bc
00000080: 5e37 e33c 917c 5f3d 7eb2 1b3d 7c5d 503d
00000090: d896 adbc 7d54 6a3d 3d1d 59bd 7dc8 a93a
000000a0: a648 913d 3bb0 4f3d 075a 303c 20c9 26bd
000000b0: 75ca 7b3d 4ce6 65bc 9704 85bd d6c6 6fbd
000000c0: 8cd8 81bd f25d 3cbb f6b3 d23c 3fae 47bd
000000d0: 548b 823d 1276 2ebd 3048 143d d1fe 543d
000000e0: 9c4a 9b3c 7d61 233d 0267 3a3d 2936 33bd
000000f0: f575 b63c 17cf b43c cbf7 16bd dc80 cf3b
00000100: 3918 cebb cc00 24bd a2cc 683d 9893 b73c
00000110: 9da1 683d fc9b ac3c 9e5d 98bd ac59 5fbd
00000120: eded 363d 52f4 8abd 3b4f cbbb 2f55 113d
00000130: 3684 8bbd 0524 5c3d f5ce 393d b8c2 1e3d
00000140: d1ee 8b3d 466f ffbc 143f 4ebd 369a 783d
00000150: 2474 c73c f2e9 75bd 6f71 673c d551 25bc
00000160: 91c9 97bc 6bfa 843d 5a68 52bc fb3f 373d
00000170: 719f 80bc f9d4 a7bc 2767 f23c 5d3a 1ebd
00000180: 08e8 92bd 75bd 1abc 6a06 87bd 9825 4cbd
00000190: 7823 4d3d 821c cbbb 1ca5 b9bc 8115 083b
000001a0: 295e c1bc 07c6 97bc 279c 41bd c157 1b3d
000001b0: fbea 4bbd b6d0 81bd 0367 5e3d 9cff 3e3d
000001c0: 4ff7 953d 452b 463d a216 f3bc 716a 9cbb
000001d0: 618a bbbb a651 d33c b31a 193d 2f31 443b
000001e0: 9c59 3a3c 8219 0d3d 11e0 18bd cfc0 4abd
000001f0: b6f2 86bc 0ca1 f9bc 8286 fdbb 2350 0d3c

fc2.weight f4 [64, 128]
0.020308057 -0.068814516 0.008679688 0.056619518 -0.0021737418 -0.03208958 0.036508188 0.090936534
-0.07702761 0.07576358 0.04856103 -0.051088184 -0.07600711 0.015406673 -0.06685113 -0.08606735
-0.024829194 -0.025393886 0.019957818 0.042975295 0.022585273 0.0750906 0.08571901 0.03333521
-0.038166404 -0.06193152 -0.07945207 -0.075000614 -0.028515544 -0.042155065 0.02805098 0.07980149
0.08389896 -0.07319459 -0.07026313 -0.038250882 -0.0350863 0.030445255 0.009475487 0.03992696
-0.05101252 0.077552505 -0.06358811 -0.00315117 -0.076302975 0.025051072 0.039858915 -0.053539507
-0.06814897 -0.023869097 0.037834164 -0.01010739 -0.038626276 0.04546233 0.07309009 -0.0010358535
0.032737687 -0.07138325 0.034893174 0.029724753 0.041239165 0.0005328545 0.003855258 0.05201158
-0.06642878 0.087125346 -0.013747812 -0.08019294 0.06187112 -0.0863215 0.019702937 0.08402044
0.08203726 0.010348454 -0.031475503 -0.025282849 0.07957027 -0.0060450127 0.06422347 0.08456286
0.04636063 0.037210274 -0.010958998 0.07693066 -0.0003495758 -0.06749854 0.08340248 0.002067633
-0.0087468885 0.0051681106 -0.06571801 -0.07316619 -0.0022999924 -0.053585436 0.07269169 0.049552206
0.0899939 0.01823677 -0.061340183 0.010779667 -0.076598585 -0.044660363 -0.091992654 -0.018818025
0.0074617174 -0.03920911 0.017069262 0.06418248 0.059527446 0.08701855 0.06265336 -0.010221056
-0.04987219 -0.07258502 0.08820859 -0.061657365 -0.017093424 -0.00020454824 -0.032082636 0.05149885
-0.05691787 -0.036138047 0.051554345 -0.009730391 -0.016900508 -0.044311844 0.05413389 0.024141353
0.008329865 0.013569639 0.049854312 -0.0035201735 -0.058538087 -0.050455727 0.002286072 -0.082055844
-0.032548875 -0.03484695 9.575486e-05 -0.012942739 -0.00274817 0.055875935 0.060230397 0.051989984
-0.04478136 -0.021349818 -0.06679891 -0.06544108 -0.09189665 0.013384883 0.042622942 -0.004045158
-0.020818068 0.06316277 0.015861604 0.07661687 0.014986038 -0.03706091 -0.00840412 0.0496947
-0.0014857774 0.07440118 0.034722563 -0.07813311 -0.010144409 0.06572081 0.05799373 0.0616133
-0.049548067 0.015194755 0.0028793714 0.019980224 -0.04195859 0.042884044 -0.08116863 -0.055205744
0.07110998 -0.0026917649 -0.021440888 -0.02667554 0.026269555 0.051694874 -0.05467755 -0.00041263454
-0.01986757 0.078924865 -0.08186842 0.04282907 -0.028320028 0.026298132 0.061932635 -0.048977245
-0.034013987 -0.07692756 0.08394724 0.03460457 -0.027126629 0.021348886 0.08006773 -0.02970726
-0.009600687 0.03434718 -0.0413134 -0.0043829503 -0.04571434 0.092584394 0.03882863 -0.013068408
0.019599453 0.039329387 -0.06540921 0.08808598 0.041624516 -0.0690767 -0.073405586 0.01878918
-0.042790957 0.010878125 -0.02502332 -0.06715396 0.069480844 -0.08044935 -0.018327206 -0.032153666
-0.03411909 0.037692644 0.07435686 0.02256468 0.049829848 0.09235005 0.05956131 0.057070218
0.08451175 0.0441881 0.018999672 -0.063026465 -0.06275049 0.037770405 0.05059665 -0.05775255
-0.038581688 -0.081129044 -0.06872158 -0.017771132 -0.05425635 0.054440163 0.0279026 0.017519174
-0.050657287 0.08117793 0.015806403 -0.06407416 -0.03931162 -0.061868645 0.08124977 0.05333306
00000000: 155d a63c a0ee 8cbd 4035 0e3c dee9 673d
00000010: 5675 0ebb 5d70 03bd 9c89 153d ef3c ba3d
00000020: a7c0 9dbd f029 9b3d eee7 463d d841 51bd
00000030: 9ea9 9bbd 456c 7c3c 3fe9 88bd 1444 b0bd
00000040: 9866 cbbc d706 d0bc 947e a33c dd06 303d
00000050: c004 b93c 1ac9 993d 738d af3d 808a 083d
00000060: 6054 1cbd e8ab 7dbd c4b7 a2bd ec99 99bd
00000070: 6e99 e9bc caaa 2cbd 2bcb e53c f76e a33d
00000080: 38d3 ab3d 0ce7 95bd 1ee6 8fbd f5ac 1cbd
00000090: a7b6 0fbd 5468 f93c 133f 1b3c 748a 233d
000000a0: 81f2 50bd d9d3 9e3d 7c3a 82bd dc83 4ebb
000000b0: bc44 9cbd e837 cd3c 1a43 233d 3e4c 5bbd
000000c0: b091 8bbd 2089 c3bc fff7 1a3d 7799 25bc
000000d0: 9636 1ebd b536 3a3d 42b0 953d 7ac5 87ba
000000e0: f417 063d 6231 92bd 25ec 0e3d 5381 f33c
000000f0: 66ea 283d 43af 0b3a 7fa8 7c3b 180a 553d
00000100: d00b 88bd c66e b23d 813e 61bc 323c a4bd
00000110: 926c 7d3d 54c9 b0bd 0e68 a13c e912 ac3d
00000120: 2703 a83d 908c 293c 75ec 00bd fa1d cfbc
00000130: bdf5 a23d 3e15 c6bb 9887 833d 4b2f ad3d
00000140: a5e4 3d3d cd69 183d 5f8d 33bc d28d 9d3d
00000150: 4547 b7b9 ad3c 8abd ebce aa3d 2081 073b
00000160: 1c4f 0fbc 4159 a93b 2a97 86bd 28d8 95bd
00000170: 78bb 16bb 677c 5bbd 61df 943d 41f7 4a3d
00000180: b94e b83d 4765 953c d83f 7bbd 339d 303c
00000190: b8df 9cbd c9ed 36bd a566 bcbd 4228 9abc
000001a0: 6c81 f43b bb99 20bd d6d4 8b3c 1b72 833d
000001b0: 0dd3 733d c836 b23d 6850 803d 3776 27bc
000001c0: c846 4cbd 74a7 94bd b5a6 b43d 6f8c 7cbd
000001d0: 8207 8cbc 007c 56b9 1569 03bd 75f0 523d
000001e0: b622 69bd 7d05 14bd a62a 533d 386c 1fbc
000001f0: ef72 8abc 5680 35bd 7fbb 5d3d 16c4 c53c
00000200: fc79 083c 3153 5e3c 0934 4c3d b6b2 66bb
00000210: a2c5 6fbd aaaa 4ebd ecd1 153b e50c a8bd
00000220: f851 05bd adbb 0ebd 00d0 c838 c80d 54bc
00000230: a41a 34bb 2ade 643d 26b4 763d 73f3 543d
00000240: a96c 37bd d0e5 aebc decd 88bd f905 86bd
00000250: 5034 bcbd 454c 5b3c 6595 2e3d 3f8d 84bb
00000260: a78a aabc 7b5b 813d 32f0 813c 4ee9 9c3d
00000270: 0088 753c 2ecd 17bd 6fb1 09bc ab8c 4b3d
00000280: 6bbe c2ba a55f 983d 3f39 0e3d 4104 a0bd
00000290: bc34 26bc a298 863d d58a 6d3d 3a5e 7c3d
000002a0: eaf2 4abd 6cf3 783c d6b3 3c3b 91ad a33c
000002b0: c5dc 2bbd 2ea7 2f3d bd3b a6bd 6b1f 62bd
000002c0: 1ca2 913d 5268 30bb cda4 afbc a986 dabc
000002d0: 4033 d73c 01be 533d 91f5 5fbd df56 d8b9
000002e0: 50c1 a2bc 5ca3 a13d a1aa a7bd 896d 2f3d
000002f0: 67ff e7bc 2e6f d73c 13ad 7d3d 5d9c 48bd
00000300: 4052 0bbd 328c 9dbd 88ec ab3d 86bd 0d3d
00000310: aa38 debc dce3 ae3c 8dfa a33d a45c f3bc
00000320: 334c 1dbc a1af 0c3d 3d38 29bd da9e 8fbb
00000330: f63e 3bbd e39c bd3d c50a 1f3d e01c 56bc
00000340: 088f a03c da17 213d 44f5 85bd 6c66 b43d
00000350: 787e 2a3d 1678 8dbd ab55 96bd c4eb 993c
00000360: 9245 2fbd 2a3a 323c b5fd ccbc 0488 89bd
00000370: f94b 8e3d a1c2 a4bd f022 96bc 90b3 03bd
00000380: 75c0 0bbd 9a63 1a3d 6948 983d 90d9 b83c
00000390: 621a 4c3d 0622 bd3d 8ff6 733d 76c2 693d
000003a0: 7f14 ad3d 95fe 343d 33a5 9b3c 0514 81bd
000003b0: 5483 80bd 24b5 1a3d 6f3e 4f3d f08d 6cbd
000003c0: d507 1ebd fc26 a6bd e6bd 8cbd c494 91bc
000003d0: e83b 5ebd a6fc 5e3d fe93 e43c 5f84 8f3c
000003e0: 047e 4fbd 9d40 a63d 6e7c 813c 5039 83bd
000003f0: 3905 21bd fa69 7dbd 4866 a63d c473 5a3d

fc2.bias f4 [64]
-0.032556675 0.07852303 0.071290866 0.072627984 -0.024776237 0.02613485 0.01520637 0.085473605
-0.07295195 0.076259725 -0.08310171 -0.037451014 -0.060603455 0.07172993 0.041169524 -0.028798528
-0.07644228 -0.03875422 -0.036494363 -0.034051135 -0.07386477 0.032807436 -0.06239786 0.032104887
-0.031008743 0.062094923 -0.07418444 0.044678446 -0.060166772 0.05485506 -0.03827838 0.01962069
0.03016042 0.04041284 0.09016723 0.0696698 -0.005581916 -0.08042093 -0.007892502 0.056204554
0.07488463 0.019010417 -0.06658024 0.017163273 0.0755307 0.067057215 -0.0135649 0.07119403
-0.07741771 0.05829474 0.0007532786 -0.029021727 -0.046639647 -0.05789686 0.058417063 0.06229077
-0.019806722 -0.06541921 -0.081075534 -0.04863621 -0.008336586 -0.017131051 0.074526854 0.07523422
00000000: 265a 05bd afd0 a03d f200 923d fbbd 943d
00000010: 89f7 cabc c118 d63c 2324 793c c90c af3d
00000020: d567 95bd 0f2e 9c3d 3b31 aabd 3c66 19bd
00000030: 543b 78bd 24e7 923d 60a1 283d e4ea ebbc
00000040: c58d 9cbd bfbc 1ebd 1d7b 15bd 3479 0bbd
00000050: 6a46 97bd 1761 063d e694 7fbd 6a80 033d
00000060: 0c06 febc 3f57 7e3d 03ee 97bd bf00 373d
00000070: 6f71 76bd b3af 603d cac9 1cbd 92bb a03c
00000080: fc12 f73c ef87 253d 99a9 b83d 0aaf 8e3d
00000090: 81e8 b6bb bbb3 a4bd 8d4f 01bc bf36 663d
000000a0: 1d5d 993d bcbb 9b3c 395b 88bd fe99 8c3c
000000b0: d7af 9a3d 4b55 893d 503f 5ebc 2dce 913d
000000c0: 2d8d 9ebd 77c6 6e3d ac77 453a f9be edbc
000000d0: 3709 3fbd 4225 6dbd bb46 6f3d 9b24 7f3d
000000e0: b541 a2bc 82fa 85bd ee0a a6bd c336 47bd
000000f0: 2d96 08bc 6b56 8cbc 89a1 983d 6614 9a3d

fc3.weight f4 [2, 64]
-0.116995096 0.013902139 -0.07780769 -0.05646465 0.0056172507 -0.05229057 0.031890005 -0.004887499
-0.06038308 -0.043869484 0.12663755 0.021262035 -0.10275145 0.00899928 -0.02134535 -0.1192607
-0.043807916 -0.08127772 0.12509893 0.057727102 -0.04362493 -0.00437506 -0.097695366 -0.038720563
-0.0032779872 -0.12664528 0.0012293905 0.09248932 -0.040140387 0.12238636 0.002116442 0.11386301
0.011321216 -0.10236007 0.10654525 0.12468031 0.026542967 0.017016655 -0.11971091 0.013523702
0.03528827 -0.0060473667 0.038197625 -0.005628428 0.11287324 -0.06709307 0.001339063 0.11402017
-0.06917807 -0.054980915 0.12193288 -0.08952609 -0.049271762 0.08207844 0.03020574 0.01963345
-0.120404296 -0.03048788 -0.039180476 -0.09810649 -0.061956264 0.07460392 -0.047366746 0.01809183
0.081793845 0.035216644 7.790543e-05 -0.0038541227 0.117227755 -0.07055399 0.09262399 0.028791355
0.0828403 0.028405461 -0.051455878 0.0566016 -0.025733627 -0.033005454 -0.106454186 -0.05329226
0.008140106 -0.11199071 0.039782245 0.02740731 -0.009120413 -0.028007826 -0.074776396 -0.078575194
-0.103998125 -0.008069441 -0.008125231 0.014239513 0.079362154 -0.11423413 0.04267576 -0.04148058
-0.09167592 0.0025423735 0.051889546 -0.055720024 0.058533337 -0.045067605 -0.016382854 0.06571763
0.090387434 0.071278356 -0.08473705 0.093274444 0.09293395 -0.025719 -0.018579558 -0.105042994
-0.0313425 0.0875712 -0.021938153 0.025395796 -0.07548839 0.058063686 0.0048064184 -0.068700776
-0.016840125 -0.07690008 -0.068407305 -0.12251215 -0.02767497 0.014519397 -0.0029117954 0.10547047
00000000: 209b efbd ccc5 633c a359 9fbd 7a47 67bd
00000010: ea10 b83b a32e 56bd 189f 023d 5027 a0bb
00000020: 4054 77bd 7db0 33bd 46ad 013e b82d ae3c
00000030: 5a6f d2bd b771 133c 72dc aebc f43e f4bd
00000040: ee6f 33bd ef74 a6bd ef19 003e 4173 6c3d
00000050: 0eb0 32bd aa5c 8fbb 8214 c8bd 7499 1ebd
00000060: 80d3 56bb 4daf 01be 8023 a13a 0a6b bd3d
00000070: 3f6a 24bd b3a5 fa3d 01b4 0a3b 0331 e93d
00000080: 9f7c 393c 28a2 d1bd 6534 da3d 6458 ff3d
00000090: a370 d93c 8366 8b3c fe2a f5bd 8492 5d3c
000000a0: 6f8a 103d fd28 c6bb 1d75 1c3d ad6e b8bb
000000b0: 162a e73d 1768 89bd 8083 af3a 6883 e93d
000000c0: 3bad 8dbd ab33 61bd f2b7 f93d 7459 b7bd
000000d0: 30d1 49bd be18 a83d 0772 f73c 54d6 a03c
000000e0: 8796 f6bd b8c1 f9bc b57b 20bd 0eec c8bd
000000f0: dac5 7dbd f1c9 983d a203 42bd 5135 943c
00000100: 8883 a73d 543f 103d 2961 a338 7395 7cbb
00000110: 1b15 f03d 9c7e 90bd a5b1 bd3d d9db eb3c
00000120: 2da8 a93d 92b2 e83c 66c3 52bd 14d7 673d
00000130: 54cf d2bc ba30 07bd a704 dabd fc48 5abd
00000140: 145e 053c 635b e5bd b5f2 223d 4c85 e03c
00000150: c96d 15bc ab70 e5bc 5e24 99bd 08ec a0bd
00000160: f8fc d4bd b035 04bc b01f 05bc d94c 693c
00000170: a088 a23d 95f3 e9bd c7cc 2e3d 8ae7 29bd
00000180: 96c0 bbbd f39d 263b 228a 543d ae3a 64bd
00000190: a7c0 6f3d cf98 38bd 5635 86bc f796 863d
000001a0: 0c1d b93d 63fa 913d 9e8a adbd ac06 bf3d
000001b0: 2854 be3d a7b0 d2bc 2834 98bc c820 d7bd
000001c0: fe60 00bd 8858 b33d a4b7 b3bc d80a d03c
000001d0: a899 9abd 30d4 6d3d 297f 9d3b feb2 8cbd
000001e0: 4df4 89bc ca7d 9dbd 2119 8cbd a6e7 fabd
000001f0: 9eb6 e2bc c4e2 6d3c d2d3 3ebb e700 d83d

fc3.bias f4 [2]
-0.004040882 0.040665008
00000000: 6069 84bb 5a90 263d
