model_to_load/mod64_save6.pt (torch_old, 172265 bytes, 12 tensors)

conv1.weight f4 [18, 64]
0	0x39c001c5	0.00036622412
1	0x3de9815b	0.11401626
2	0xbe3a0c06	-0.18168649
3	0x3e8447f8	0.25836158
4	0xbde0673a	-0.10957189
5	0x3dbce2b1	0.092229255
6	0xbdde82f9	-0.10864825
7	0xbda87e8c	-0.08227262
8	0xbdcb8803	-0.099380516
9	0x3e51eeb7	0.20501219
10	0x3e837e84	0.2568246
11	0xbdfebe63	-0.12438657
12	0xbe66039e	-0.22462317
13	0xbe4d368a	-0.20040336
14	0xbe5c4d56	-0.21513876
15	0xbe854e78	-0.2603643
16	0xbe5200ea	-0.20508161
17	0x3d31f764	0.04344882
18	0x3e2589e8	0.16165888
19	0x3e519800	0.2046814
20	0x3e11f7d2	0.14254692
21	0x3e54b357	0.20771538
22	0xbe034374	-0.128187
23	0xbe83def0	-0.25756025
24	0xbe7785cb	-0.24172132
25	0x3e0ad6db	0.13558523
26	0x3d316a74	0.043314412
27	0x3df65f06	0.12029843
28	0x3e1ae54c	0.15126532
29	0xbe550725	-0.20803507
30	0xbe56ebdd	-0.20988412
31	0xbe16bb03	-0.14719777
32	0x3d38823e	0.045046084
33	0xbe7aaa75	-0.24479087
34	0xbe564709	-0.20925535
35	0x3d864636	0.065563604
36	0x3e89faad	0.26949063
37	0x3cac1947	0.021008147
38	0xbd75e9de	-0.060037486
39	0xbe2f4e65	-0.17119749
40	0x3e590a1e	0.21195266
41	0xbe218028	-0.15771544
42	0x3e0eec43	0.13957314
43	0x3e62e087	0.22155963
44	0x3e66b87b	0.22531311
45	0x3e80cf85	0.25158325
46	0x3e5a9a4b	0.2134792
47	0x3e701e54	0.2344907
48	0x3dfb1464	0.122597486
49	0xbded1be1	-0.11577583
50	0xbe7b476c	-0.24538964
51	0xbe2a5031	-0.16632153
52	0xbe0b7d47	-0.13622008
53	0xbd05bf2e	-0.032653026
54	0x3e031ea3	0.12804656
55	0x3e52309e	0.20526358
56	0x3e6094ce	0.21931764
57	0x3e76471b	0.24050562
58	0x3d6c50dc	0.0576943
59	0x3e6867bb	0.2269582
60	0xbe678dec	-0.22612733
61	0xbe5d21e3	-0.21594958
62	0xbe3a7b68	-0.18211138
63	0xbde03793	-0.109481
64	0x3dee0489	0.11621959
65	0x3e757b9d	0.23972936
66	0xbe4f25ec	-0.2022931
67	0xbadd5fc0	-0.0016889498
68	0xbd865922	-0.065599695
69	0x3e699bd0	0.22813344
70	0xbde259b1	-0.110522635
71	0x3c2ca5d4	0.010537583
72	0x3e8545ee	0.26029915
73	0x3e3fd9ce	0.1873543
74	0x3dd08d0b	0.10183152
75	0x3e1a6365	0.15076979
76	0xbd82c397	-0.06384962
77	0xbe55b54d	-0.20869942
78	0xbe89ccca	-0.26914054
79	0x3e7ae241	0.24500372
80	0x3e4d071e	0.20022246
81	0xbd11a5d7	-0.035558548
82	0x3e2e5643	0.17025094
83	0xbe0a0664	-0.13479
84	0x3cf50c80	0.029913187
85	0xbb9b0bbc	-0.0047316235
86	0x3deb4be5	0.11489085
87	0x3e205ebf	0.15661143
88	0xbdfa7cab	-0.1223081
89	0x3e31780e	0.17330953
90	0xbe87c8b9	-0.26520327
91	0x3e5816fc	0.21102518
92	0xbc2d0805	-0.010560994
93	0x3e2f8b68	0.17143023
94	0xbe856b62	-0.2605849
95	0xbe4eb902	-0.20187762
96	0xbdaaca2c	-0.083393425
97	0x3e66fb37	0.22556768
98	0xbca1a69f	-0.019732771
99	0x3decdef6	0.11565964
100	0xbd8760ec	-0.06610283
101	0xbdb2acf8	-0.087243974
102	0x3d96eac1	0.073689945
103	0xbe5280ce	-0.20556948
104	0x3dc69acf	0.09697496
105	0x3e5c9cb2	0.2154415
106	0x3d67252f	0.056431945
107	0xbe03db2b	-0.12876575
108	0xba6922bb	-0.000889342
109	0x3e31221c	0.17298168
110	0x3e1bdf28	0.15221846
111	0xbde3d0bf	-0.111237995
112	0x3e6f9ee5	0.23400457
113	0xbe356fdb	-0.1771845
114	0x3e6096b4	0.21932489
115	0xbd59ec1f	-0.0532037
116	0xbd861915	-0.06547753
117	0xbdc00a1d	-0.09376929
118	0xbe861e84	-0.26195157
119	0xbd1029df	-0.03519618
120	0xbd116ce2	-0.03550423
121	0xbca3ac49	-0.019979613
122	0x3e6c742c	0.23091191
123	0x3ddac494	0.106820256
124	0x3e2b1ebf	0.16710947
125	0x3e6349c7	0.22196113
126	0xbe072586	-0.13197908
127	0x3e7ed142	0.24884513
128	0x3daff45a	0.08591528
129	0xbe46a919	-0.19400443
130	0xbce9b39b	-0.028528025
131	0xbe351f62	-0.17687753
132	0x3e53436c	0.20631188
133	0x3dfde6c9	0.123975344
134	0xbd97c8f6	-0.07411377
135	0xbe4654ef	-0.19368337
136	0x3e0512b3	0.12995414
137	0x3e1b3810	0.15158105
138	0xbe54cfbc	-0.2078237
139	0x3debb76b	0.115095936
140	0x3e50df6b	0.20397727
141	0x3dedef96	0.11617963
142	0x3df85f0f	0.12127506
143	0x3c598f45	0.013278787
144	0x3e865284	0.2623483
145	0x3e87460c	0.2642063
146	0x3e65b305	0.22431572
147	0x3e823af9	0.25435618
148	0x3d7a47df	0.061103698
149	0x3d0aad7f	0.033856865
150	0x3e0e206e	0.13879558
151	0x3dd7ce78	0.10537428
152	0x3da079c3	0.07835724
153	0x3e4851c9	0.19562449
154	0xbe8b3f66	-0.27196807
155	0xbd917f4e	-0.071043596
156	0x3d27148e	0.040791087
157	0xbcb1038d	-0.021608138
158	0xbe05e9d4	-0.1307748
159	0x3e27d46a	0.16389623
160	0x3d3b3d9f	0.045713063
161	0x3db84570	0.08997619
162	0x3b26dad2	0.0025460017
163	0xbde85c3d	-0.11345718
164	0xbe012562	-0.12611917
165	0xbda0775e	-0.078352675
166	0x3e3cf4ae	0.18452713
167	0xbda62974	-0.08113375
168	0x3d804124	0.062624246
169	0x3e30410a	0.1721231
170	0xbc3458d7	-0.011007509
171	0x3e875e7e	0.2643928
172	0x3c28852f	0.01028566
173	0xbe645bbf	-0.22300623
174	0xbdee80fe	-0.11645697
175	0x3dfe4bf0	0.12416828
176	0xbe68fc8d	-0.2275259
177	0xbde0c7cf	-0.109756105
178	0xbce74031	-0.028228851
179	0xbe7b8e0f	-0.2456591
180	0xbe880e4f	-0.26573417
181	0x3e34867f	0.17629431
182	0x3dab1523	0.08353641
183	0x3e121f86	0.14269838
184	0xbd4e1103	-0.050309192
185	0xbe00f94b	-0.12595098
186	0x3e001e64	0.12511593
187	0x3e2edf2e	0.17077324
188	0x3e5143da	0.2043604
189	0xbe47877d	-0.19485278
190	0xbe8b0369	-0.2715104
191	0x3b660ea4	0.0035103941
192	0xbdb66fe5	-0.08908061
193	0x3e3fa821	0.1871648
194	0x3dee1729	0.11625511
195	0xbcc0995e	-0.023510631
196	0x3dea7a5e	0.11449121
197	0x3e244c19	0.16044654
198	0x3d6de8c9	0.05808333
199	0x3df5379d	0.11973498
200	0x3e50903c	0.20367521
201	0x3e6fdbfd	0.23423763
202	0xbda9b92b	-0.08287271
203	0xbe29f2de	-0.16596553
204	0x3e5c7a12	0.21530941
205	0x3e878e5d	0.26475802
206	0x3e38c6d4	0.18044597
207	0x3e493e55	0.19652684
208	0xbe163f62	-0.14672616
209	0xbe47c3fc	-0.19508356
210	0xbe126c02	-0.14299014
211	0x3e4c876d	0.19973536
212	0x3e1d603b	0.1536874
213	0xbe634197	-0.2219299
214	0xbe1f6ef1	-0.15569665
215	0xbe0d1099	-0.13775863
216	0x3e27da15	0.16391785
217	0x3e786817	0.24258457
218	0xbe63426b	-0.22193305
219	0x3cd93c5d	0.026518041
220	0xbe7cc00e	-0.24682638
221	0xbd126845	-0.03574397
222	0xbe2754f4	-0.16341001
223	0xbe13b9c9	-0.1442634
224	0xbd9a1abe	-0.07524632
225	0xbe8470c6	-0.2586729
226	0x3e211e4f	0.15734218
227	0xbe0a4d58	-0.13506067
228	0xbe8027f5	-0.25030485
229	0x3da20720	0.07911515
230	0x3d4c9868	0.049950033
231	0xbe849f0b	-0.2590259
232	0xbdaa1f3a	-0.08306737
233	0x3e56f0ac	0.20990247
234	0x3c68068b	0.014161716
235	0x3d84b1bb	0.06479212
236	0xbe236447	-0.15956222
237	0x3dfb5c75	0.12273494
238	0x3e3ad32f	0.18244623
239	0xbdd63441	-0.104591854
240	0xbe1a02f6	-0.15040192
241	0xbe3d1afd	-0.18467326
242	0xbe5010e7	-0.20318948
243	0xbe72a8ff	-0.2369728
244	0xbcc959b2	-0.024578903
245	0x3e81e869	0.25372627
246	0xbe6cd382	-0.23127559
247	0xbe69be6b	-0.22826545
248	0x3e47e167	0.19519578
249	0x3e2f333d	0.1710939
250	0xbe03ace5	-0.12858923
251	0x3e46aca5	0.19401796
252	0x3d41b45b	0.04729114
253	0x3e614ffb	0.22003166
254	0x3d9fb6e3	0.07798555
255	0xbdfda9d5	-0.123859085

conv1.bias f4 [64]
0	0xbaf735a4	-0.0018860591
1	0x3b87646c	0.0041318443
2	0xba671732	-0.0008815407
3	0xba54027a	-0.0008087527
4	0x3bdf4f92	0.0068149054
5	0x3adf0d9a	0.0017017603
6	0x3b3d2411	0.0028860609
7	0xba6a1804	-0.000892997
8	0xbac5f647	-0.0015103304
9	0xbb019883	-0.0019774742
10	0x3b9929bb	0.004674164
11	0xbaff7db2	-0.0019492416
12	0xb963318a	-0.00021666862
13	0xb9fe8a94	-0.00048549904
14	0xb9dd48d0	-0.00042206654
15	0x3ad314eb	0.0016104257
16	0xbadb1409	-0.0016714345
17	0xbb66b75e	-0.003520451
18	0xbaa7047a	-0.0012742423
19	0x3b8fd1b7	0.0043890136
20	0xb9a6b1ec	-0.0003179455
21	0xbaa45455	-0.001253734
22	0x39a4d30a	0.00031437754
23	0x3b5b9289	0.003350409
24	0x3ad1c1c8	0.0016003186
25	0x3b55faa1	0.0032650607
26	0x3ae9cd2a	0.0017837633
27	0xbc074332	-0.008255767
28	0xbaa88b64	-0.0012858924
29	0x3a81b9f1	0.0009897334
30	0x3b6a09e5	0.0035711464
31	0x3a5ff586	0.0008543361
32	0x3b528e81	0.0032128396
33	0xba9d9115	-0.0012021387
34	0xbaab06b4	-0.0013048262
35	0xbbbb21e1	-0.005710826
36	0x3befa144	0.0073129255
37	0xb9c71a2e	-0.00037975743
38	0xb740d327	-1.14932545e-05
39	0x3bd39bfc	0.006457804
40	0xbafb2542	-0.0019160884
41	0xbba98223	-0.005172984
42	0x3a24574a	0.00062691106
43	0x39767cd2	0.00023506887
44	0xbb0c86b7	-0.00214426
45	0x3c16053b	0.0091565205
46	0x39c21c9d	0.00037023882
47	0x39f53f29	0.000467771
48	0x3c29108c	0.0103188865
49	0x3b4cc952	0.0031247926
50	0x3b823b98	0.0039743893
51	0xbb88ba4e	-0.0041726
52	0x3aecb924	0.0018060547
53	0xbb5e6782	-0.0033936207
54	0xba676715	-0.0008827311
55	0xbaacbda0	-0.0013179071
56	0x3a7501ef	0.00093462964
57	0x3ba465af	0.0050170044
58	0xbad5629c	-0.0016279998
59	0x3a73aa70	0.00092951115
60	0x3a9d60af	0.0012006963
61	0x3b8c0008	0.0042724647
62	0x3c5306dd	0.012880054
63	0x399f61b4	0.00030399638

conv2.weight f4 [64, 64]
0	0xbd978108	-0.07397658
1	0xbe33dd3b	-0.17564861
2	0xbe3cdd29	-0.18443741
3	0x3e0fc986	0.14041719
4	0xbe4249b0	-0.18973422
5	0x3d8fce48	0.07021767
6	0xbe0e6ceb	-0.13908736
7	0xbd6cfdcf	-0.05785924
8	0xbd0fc063	-0.035095584
9	0x3e2898b9	0.16464509
10	0xbcc57147	-0.024101866
11	0xbda992ce	-0.08279954
12	0xbc24cdda	-0.010058844
13	0x3e123f2a	0.14281908
14	0x3e312114	0.17297775
15	0xbe11d0c4	-0.14239794
16	0xbde12a8f	-0.109944455
17	0xbe41330a	-0.18867126
18	0xbe009e1c	-0.12560314
19	0x3e324bc8	0.17411721
20	0x3e5f72fc	0.21821207
21	0x3c8a7054	0.016899265
22	0x3dc571b3	0.09640827
23	0xbe084a7b	-0.13309662
24	0x3d3f01e3	0.04663266
25	0xbe3626de	-0.17788264
26	0x3c37255a	0.011178339
27	0x3d584d1b	0.05280791
28	0xbc89e29d	-0.01683169
29	0x3ded0f75	0.11575214
30	0x3da327b1	0.07966555
31	0x3d3887cc	0.04505138
32	0x3e2dfa1d	0.16989942
33	0xbe60d957	-0.21957909
34	0x3e0222e2	0.12708619
35	0x3e3c41c6	0.18384466
36	0x3b5c226f	0.003358986
37	0xbe35985e	-0.17733905
38	0xbe14d884	-0.14535719
39	0x3e25b302	0.16181567
40	0x3e1285b0	0.1430881
41	0xbcb22b87	-0.021749271
42	0xbcc430d6	-0.023949068
43	0xbe5a3465	-0.2130905
44	0x3d545310	0.051837027
45	0x3e0b8c8e	0.13627836
46	0x3e284177	0.16431223
47	0x3e23fd44	0.16014582
48	0xbe43b4fe	-0.19112012
49	0x3e16ad5e	0.14714572
50	0x3dbea00b	0.093078695
51	0x3ddfc1fb	0.10925671
52	0xbd145eae	-0.036223106
53	0x3e0c8e5d	0.13726182
54	0x3e3edd2c	0.18639058
55	0xbe3abccc	-0.18236083
56	0xbe000dff	-0.12505339
57	0xbdfde9fa	-0.12398143
58	0x3e330048	0.17480576
59	0x3d6d0c1d	0.05787288
60	0xbdfb9096	-0.12283437
61	0x3e1696ed	0.14706011
62	0x3da4abde	0.080405936
63	0xbe3f0477	-0.18654047
64	0xbe5b3ca2	-0.21409848
65	0x3d9182a4	0.07104996
66	0x3e2ce37d	0.16883655
67	0xbd2c17ea	-0.042014994
68	0x3e3a7760	0.182096
69	0xbd9d53f4	-0.076820284
70	0x3d732956	0.059365593
71	0xbcc7370e	-0.024318244
72	0x3e0c5587	0.13704501
73	0x3d7ecbb6	0.062205993
74	0x3d6761da	0.056489803
75	0x3e1ac8f8	0.15115726
76	0xbb3dcd89	-0.002896162
77	0xbd6439a8	-0.055719048
78	0x3e4ae7b3	0.19814949
79	0x3d9a1d44	0.07525113
80	0x3e304c4f	0.1721661
81	0x3dd6d74d	0.10490284
82	0xbc9b1a44	-0.018933423
83	0xbe131d59	-0.14366664
84	0xbdef5710	-0.11686528
85	0x3da939e3	0.08262994
86	0xbbbebecc	-0.0058210846
87	0x3e256c5d	0.16154619
88	0x3ddd6a18	0.108112514
89	0x3d826090	0.06366074
90	0xbe03dcc6	-0.12877187
91	0x3dad168d	0.08451567
92	0x3e0b2230	0.1358726
93	0xbda9175f	-0.08256411
94	0x3ddceec1	0.10787726
95	0x3c9744c7	0.018465413
96	0xbdd61909	-0.10453994
97	0xbd968c8f	-0.07351028
98	0x3e192d18	0.14958608
99	0x3db49bdd	0.08818791
100	0xbe1b1b79	-0.15147199
101	0xbe0ef45c	-0.13960403
102	0x3e225775	0.15853675
103	0xbcf74159	-0.030182527
104	0xbc747ae2	-0.014921876
105	0xbe420fdb	-0.18951361
106	0x3ab53fdb	0.0013828235
107	0xbbb70b3e	-0.005586057
108	0x3e33c065	0.17553861
109	0xbdda87cb	-0.10670432
110	0xbe1b0665	-0.15139158
111	0x3e32fd75	0.17479499
112	0x3d399e15	0.045316774
113	0x3d997f29	0.07494957
114	0x3dbcf0b2	0.092255965
115	0x3e09180c	0.1338808
116	0x3da8b2eb	0.08237251
117	0x3d023d3d	0.031796683
118	0xbe2701d9	-0.16309299
119	0xbcb34758	-0.021884605
120	0xbe43dae6	-0.19126472
121	0xbe1054a5	-0.1409479
122	0xbe0679e6	-0.13132438
123	0x3e0eb769	0.13937153
124	0x3db35726	0.087568566
125	0x3e55c1d0	0.20874715
126	0xbe457f58	-0.19286859
127	0x3da71b27	0.08159476
128	0xbd948e0b	-0.07253655
129	0xbe0664f1	-0.13124444
130	0xbdb475ba	-0.08811517
131	0x3e380ab7	0.17972837
132	0x3e20dd0f	0.15709327
133	0xbd41420f	-0.04718214
134	0xbc8185c2	-0.015810851
135	0xbe49c243	-0.19703011
136	0x3ddcb9a2	0.10777594
137	0x3e2decb3	0.16984825
138	0xbe478fe7	-0.19488488
139	0xbdab8aa9	-0.08376057
140	0xbe03a65e	-0.12856433
141	0xbc9f9230	-0.019478887
142	0xbd64442a	-0.05572907
143	0x3cd40b83	0.025884395
144	0x3dba69db	0.091022216
145	0xbe010945	-0.12601192
146	0xbb207f2d	-0.0024489865
147	0xbe38ad0a	-0.18034759
148	0x3e492cd2	0.19646004
149	0xbe179f39	-0.14806832
150	0x3b8fbda9	0.004386623
151	0xbde8f8e9	-0.11375601
152	0x3dc56d57	0.096399955
153	0xbdd224fb	-0.1026096
154	0xbe484694	-0.19558173
155	0xbdc33071	-0.09530724
156	0x3e42ead5	0.19034894
157	0xbd88241b	-0.066475116
158	0xbde277be	-0.11057995
159	0xbdc9be20	-0.098507166
160	0x3dc120ad	0.094300605
161	0x3e2b3415	0.16719086
162	0x3dd6b4d3	0.10483708
163	0xbc34152a	-0.010991374
164	0x3d99fe1e	0.07519172
165	0xbe0d32dc	-0.13788933
166	0xbd75364b	-0.05986623
167	0xbe087bc1	-0.13328458
168	0xbe4b9b2c	-0.19883412
169	0xbd891724	-0.06693867
170	0xbd12ccd8	-0.035839885
171	0x3e0fe3b1	0.14051701
172	0x3def2387	0.11676698
173	0xbc91f259	-0.017815756
174	0xbe50f455	-0.20405705
175	0x3e041ebc	0.12902349
176	0x3ccca716	0.024982017
177	0x3d95f85d	0.07322762
178	0xbc2fcd39	-0.010730081
179	0xbe2ee600	-0.17079926
180	0x3c7477c4	0.0149211325
181	0x3b0fa4c1	0.002191827
182	0xbe352dec	-0.17693299
183	0xbd9ed236	-0.07754938
184	0xbd72d821	-0.059288148
185	0xbe3662b5	-0.17811091
186	0xbe17b42b	-0.14814822
187	0x3e2741f7	0.16333757
188	0x3c54bd69	0.012984612
189	0x3d182f80	0.037154675
190	0x3e1a9ce4	0.15098912
191	0x3b445a33	0.002996099
192	0xbe0ad350	-0.13557172
193	0xbe252b51	-0.16129805
194	0x3d647cdb	0.055783134
195	0xbc881c58	-0.016615078
196	0x399b970a	0.00029676437
197	0xbe4d9ba6	-0.20078906
198	0xbc4af9ae	-0.01238863
199	0x3de358e7	0.11100941
200	0x3c962483	0.018327957
201	0xbd68c319	-0.056826685
202	0xbe0da0a3	-0.1383081
203	0x3dbe888d	0.09303389
204	0xbdbe19fe	-0.09282301
205	0x3dbac53f	0.09119653
206	0xbe0e15f9	-0.1387557
207	0xbe579a60	-0.21054983
208	0xbd39e9fd	-0.045389164
209	0xbde2070f	-0.110365026
210	0xbe4e5c5c	-0.2015242
211	0x3db1d8e9	0.086839505
212	0x3d095c1d	0.03353511
213	0x3e4a5586	0.19759187
214	0x3e46b4b3	0.19404869
215	0xbc9ad99e	-0.018902596
216	0x3b73f1e0	0.0037223026
217	0x3e0989e5	0.13431509
218	0x3e3e2a3c	0.18570799
219	0xbcf8704b	-0.030326983
220	0x3de44198	0.111453235
221	0xbd9ca972	-0.07649507
222	0xbdb50fb1	-0.088408835
223	0xbe20317f	-0.15643881
224	0xbc92ed59	-0.017935442
225	0xbe362f38	-0.1779145
226	0x3d3641c0	0.044496298
227	0x3e1d8f02	0.15386584
228	0x3e04f65e	0.12984607
229	0xbe08e292	-0.1336768
230	0xbe22a717	-0.15884052
231	0xbe19ffe1	-0.15039016
232	0x3d97565d	0.07389519
233	0xbe4510dd	-0.19244714
234	0xbc03259f	-0.008004575
235	0x3e4d88cc	0.20071715
236	0x3db0f121	0.08639742
237	0xbd524147	-0.051331785
238	0xbe3885a5	-0.18019731
239	0x3e31beb5	0.17357905
240	0x3e0a7946	0.13522825
241	0x3d856202	0.06512834
242	0xbe0099e9	-0.12558712
243	0xbd17d7eb	-0.03707115
244	0xbd260d73	-0.04054017
245	0x3d8d159a	0.06888886
246	0x3e1d8b49	0.15385164
247	0x3e45413f	0.1926317
248	0xbe49133c	-0.19636244
249	0xbdc28171	-0.09497345
250	0x3da434c5	0.080178775
251	0x3df592c1	0.11990882
252	0x3e05fd10	0.13084817
253	0xbdc2317e	-0.09482096
254	0x3abd6194	0.0014448636
255	0x3e40c9b1	0.18826939

conv2.bias f4 [64]
0	0xbac7488e	-0.0015204118
1	0x3b25bb0c	0.002528849
2	0xbaeb539a	-0.0017953992
3	0x3a8d0ce8	0.0010761293
4	0x397baf9d	0.00024002646
5	0xba204855	-0.0006114294
6	0x3b9ff464	0.0048814286
7	0x3c25b8fc	0.0101149045
8	0x3b5806f5	0.003296313
9	0xba61821b	-0.0008602456
10	0x3b356dac	0.0027683778
11	0x3b0c1977	0.0021377483
12	0x3b4a0665	0.0030826565
13	0x3b944439	0.0045247343
14	0xbaaaf680	-0.0013043433
15	0xbb0502e7	-0.002029592
16	0xbae5d610	-0.0017535109
17	0xba3b9fb1	-0.000715728
18	0xba4445e9	-0.0007487224
19	0xb836d7f4	-4.3593303e-05
20	0x3b40e6f3	0.0029434531
21	0x3b06fd15	0.0020597626
22	0x3c4c5dfc	0.0124735795
23	0xbb4f49a6	-0.0031629591
24	0xbbc7745e	-0.00608687
25	0xbb34a37d	-0.0027563267
26	0x3a79c72c	0.0009528275
27	0x3ae6be6a	0.0017604355
28	0x3ac2eb4b	0.0014871148
29	0xbb2bee61	-0.0026234614
30	0x3adb6d81	0.0016741009
31	0xba4b636d	-0.0007758651
32	0xbafe2fcc	-0.0019392907
33	0xbb21587d	-0.0024619394
34	0x3ac99c1a	0.0015381605
35	0xbbc2b27b	-0.0059416867
36	0x3b04aa00	0.002024293
37	0xba13ff34	-0.0005645633
38	0x3b6a2265	0.0035726067
39	0xb97a98c1	-0.00023898763
40	0x3a89fcb6	0.0010527584
41	0xbb00a700	-0.001963079
42	0x38a869d9	8.03058e-05
43	0x3b3933f0	0.0028259717
44	0xba553fc4	-0.0008134807
45	0x3b50a49f	0.0031836403
46	0xbaa62bd0	-0.0012677852
47	0x3b15ec25	0.0022876349
48	0x3b4df940	0.0031429082
49	0x3b51403c	0.0031929156
50	0x3bc9d0fe	0.006158947
51	0xbab56f5a	-0.001384239
52	0x3b55faf0	0.003265079
53	0xba75abeb	-0.0009371626
54	0x3a9e9009	0.0012097369
55	0x3a04a19c	0.0005059482
56	0x3be410e1	0.00696002
57	0x3b34b534	0.0027573826
58	0xbb3a943f	-0.002846971
59	0x3afe941f	0.0019422806
60	0x383631df	4.3438627e-05
61	0x3b05eba5	0.0020434645
62	0x3b1a7d4b	0.0023573216
63	0x3a1b68c8	0.00059283944

conv3.weight f4 [64, 64]
0	0x3e517533	0.20454864
1	0x3dae2048	0.08502251
2	0xbe0baba0	-0.13639688
3	0xbe572743	-0.21011071
4	0x3e33b33b	0.1754884
5	0xbe55cfe4	-0.20880085
6	0x3d8a21b4	0.067447096
7	0x3e23fbc3	0.16014008
8	0x3e0211f4	0.12702161
9	0xbd9c6717	-0.0763685
10	0xbe0e2b66	-0.13883743
11	0x3dc2f75a	0.09519835
12	0x3e1fe394	0.15614158
13	0xbd91038a	-0.07080753
14	0x3da7d3d7	0.08194702
15	0xbc4d04f6	-0.01251339
16	0x3d8c86b0	0.06861627
17	0x3e05d59f	0.13069771
18	0x3e51d7dd	0.20492502
19	0x3b49ace0	0.0030773208
20	0x3e311b26	0.17295513
21	0xbe2b890f	-0.16751502
22	0xbe21ffac	-0.15820187
23	0xbc9a5ca6	-0.018843006
24	0x3d81ab84	0.06331542
25	0xbe3a6391	-0.18202044
26	0x3e30c6c5	0.17263325
27	0xbe0c7a80	-0.13718605
28	0xbe41ffbb	-0.1894521
29	0xbd05ecad	-0.032696415
30	0xbe01792b	-0.12643878
31	0xbe08c10c	-0.13354892
32	0xbd56a0e7	-0.052399542
33	0xbdf19044	-0.117950946
34	0xbd3b3813	-0.045707773
35	0x3cbf5034	0.023353674
36	0x3d800bff	0.06252288
37	0xbd51143d	-0.05104469
38	0xbe592d84	-0.21208769
39	0xbe4ddef5	-0.20104583
40	0x3e42c317	0.19019733
41	0x3e5f7482	0.21821788
42	0xbe01ba62	-0.12668756
43	0x3cf8e175	0.030380944
44	0x3e2bf55d	0.16792817
45	0x3c6e7833	0.014555025
46	0xbc0123d6	-0.007882079
47	0x3dc4c4ae	0.09607826
48	0xbd20c8bf	-0.039253946
49	0x3e2750d0	0.16339421
50	0x3df55127	0.11978369
51	0x3daa1481	0.08304692
52	0xbe47bfab	-0.1950671
53	0x3e2f24a3	0.1710382
54	0xbd730b49	-0.059336934
55	0x3e586f88	0.21136296
56	0xbe16e137	-0.1473435
57	0xbe14578d	-0.14486523
58	0xbd1ffd66	-0.03906002
59	0xbd8ea2e6	-0.06964664
60	0x3e235b9e	0.15952918
61	0xbe19c53c	-0.15016645
62	0xbdcb3fb7	-0.09924262
63	0xbe56489f	-0.2092614
64	0xbe4f2178	-0.20227611
65	0x3e1bf82f	0.15231393
66	0xbde9d67b	-0.11417862
67	0x3cb00acd	0.021489525
68	0xbd4527da	-0.04813371
69	0x3db90145	0.09033445
70	0x3e1df4af	0.1542537
71	0xbdc51b75	-0.09624378
72	0xbc1eb5bc	-0.009686884
73	0x3d5d3e21	0.05401433
74	0x3e574354	0.21021777
75	0x3e34e69b	0.17666094
76	0xbd12b27d	-0.03581475
77	0x3e2b30ee	0.16717884
78	0x3e28f558	0.16499841
79	0x3dd7ab99	0.105307765
80	0xbe3ef21f	-0.1864705
81	0x3d07f0d0	0.03318864
82	0xbd4a584b	-0.04940061
83	0x3d381512	0.04494197
84	0xbe1ac665	-0.15114744
85	0x3dc01eb9	0.0938086
86	0xbde3fd67	-0.11132317
87	0xbda31e95	-0.079648174
88	0xbda493ed	-0.08036027
89	0xbd6e0ef9	-0.058119748
90	0xbdb4e702	-0.08833124
91	0xbe008482	-0.12550548
92	0xbc60b4aa	-0.013714949
93	0x3e16bcf4	0.14720517
94	0xbe217105	-0.1576577
95	0x3ced46a1	0.028964343
96	0x3da3292b	0.079668365
97	0x3e51a816	0.20474276
98	0xbdb93d7a	-0.09044929
99	0x3dac7e5b	0.08422538
100	0x3e4d35f9	0.2004012
101	0xbcec611f	-0.028854905
102	0xbe16b8b5	-0.14718898
103	0x3cd0523c	0.025429837
104	0xbda40a4a	-0.08009775
105	0xbe2fc9cc	-0.17166823
106	0xbdbf914a	-0.093538836
107	0xbda33f4c	-0.07971057
108	0x3e1e826d	0.15479441
109	0x3e0de2ee	0.13856098
110	0xbc71b899	-0.014753484
111	0x3da678a1	0.08128477
112	0xbd01c026	-0.031677388
113	0x3e0f8441	0.14015295
114	0x3e014d6c	0.1262719
115	0xbda14b6e	-0.07875715
116	0xbe56e531	-0.20985867
117	0x3e1fa0bb	0.15588658
118	0xbdfce414	-0.1234819
119	0x3df143fe	0.117805466
120	0xbe063b4a	-0.13108554
121	0xbdf7f267	-0.121067815
122	0xbdf9056e	-0.12159239
123	0xbda5ca15	-0.08095185
124	0x3df31a08	0.118701994
125	0x3e265e95	0.16247018
126	0x3e5d42dc	0.21607536
127	0xbc83b346	-0.016076695
128	0x3d919572	0.071085826
129	0xbe26a923	-0.16275458
130	0xbe58f646	-0.21187696
131	0xbe1b73d7	-0.15180908
132	0x3d9d4ea0	0.07681012
133	0x3df62817	0.12019365
134	0xbe120174	-0.14258367
135	0x3ddd8c89	0.108178206
136	0x3d894040	0.06701708
137	0xbe56af62	-0.2096534
138	0x3e573c93	0.21019201
139	0xbdcba81d	-0.099441744
140	0x3e5b8672	0.21438006
141	0x3e523c76	0.20530877
142	0x3db957b7	0.090499334
143	0x3e30ff55	0.17284901
144	0xbda8db55	-0.08244959
145	0x3e48a431	0.19593884
146	0xbd21413f	-0.039368864
147	0x3e3279f1	0.1742933
148	0x3e4d83a6	0.20069751
149	0xbe555772	-0.20834139
150	0xbd3fcebc	-0.046828017
151	0x3df07bb7	0.11742347
152	0xbe438243	-0.1909266
153	0xbd7ef1a1	-0.062242154
154	0x3d63bd88	0.055600673
155	0x3cffa452	0.031206284
156	0xbdc7c09b	-0.097535335
157	0xbb8fcfe9	-0.0043887985
158	0xbe342dd2	-0.17595604
159	0xbda22d7d	-0.079188325
160	0xbdddeb13	-0.108358525
161	0xbd5dab46	-0.054118417
162	0x3e4af267	0.19819032
163	0x3dc80fea	0.0976866
164	0xbd07bee3	-0.033141028
165	0x3e5d2c8f	0.21599029
166	0x3d7ecebc	0.062208876
167	0xbe42dab1	-0.19028737
168	0xbe027968	-0.12741625
169	0x3dacbdfc	0.08434674
170	0xbe3d43b2	-0.18482855
171	0x3e4c1976	0.19931588
172	0xbe1f1905	-0.15536888
173	0xbda115e2	-0.07865502
174	0x3e1e4b71	0.15458466
175	0xbdd4ba3c	-0.10387084
176	0x3d2dfca1	0.042477254
177	0xbd436694	-0.047705248
178	0xbdb221f0	-0.08697879
179	0xbd4f18b0	-0.050560653
180	0x3bce9337	0.0063041705
181	0xbdc93b22	-0.09825732
182	0x3c9e0e3f	0.019293902
183	0xbe0cffdc	-0.13769478
184	0x3d3d04d7	0.046147194
185	0xbe04f4f3	-0.12984066
186	0xbe1b72e8	-0.15180552
187	0xbc6ced58	-0.014460884
188	0xbd3b79fe	-0.045770638
189	0xbe0395b9	-0.12850083
190	0x3e31fcde	0.17381617
191	0x3e04c5d2	0.12966087
192	0x3e585770	0.21127105
193	0x3df20c34	0.11818734
194	0xbe40d6e4	-0.18831974
195	0xbde205b6	-0.110362455
196	0xbe1deff5	-0.15423568
197	0xbd7fcdfb	-0.062452298
198	0xbe57f545	-0.21089657
199	0xbe59edb1	-0.21282078
200	0xb9b7d9da	-0.00035066792
201	0xbe1fddc0	-0.15611935
202	0xbe0f23a1	-0.13978435
203	0x3d0e1808	0.034690887
204	0x3deb2487	0.114815764
205	0xbe3edac3	-0.18638138
206	0x3dd6b086	0.10482888
207	0xbdd2aae0	-0.10286498
208	0x3dafbdfc	0.085811585
209	0xbd3158ef	-0.043297704
210	0x3dc3bae7	0.09557133
211	0x3ded33e1	0.11582161
212	0xbe391b7d	-0.18076892
213	0xbde6057e	-0.11231516
214	0x3dd1852a	0.10230477
215	0x3d90ff59	0.07079954
216	0xbdd73691	-0.105084546
217	0xbddc4536	-0.107553884
218	0xbdaea51a	-0.085275844
219	0xbda3b25b	-0.07993003
220	0x3e0935a9	0.13399376
221	0x3d917d04	0.07103923
222	0xbdcbb677	-0.09946912
223	0xbe2843e3	-0.16432147
224	0xbe3bbbfd	-0.1833343
225	0x3a895adb	0.0010479348
226	0xbde54536	-0.111948416
227	0x3ca4a725	0.020099232
228	0xbdd95c74	-0.10613337
229	0x3d877748	0.06614548
230	0xbe4696a0	-0.19393396
231	0xbe1663b0	-0.14686465
232	0x3b9fa679	0.00487214
233	0x3e53b2e3	0.20673709
234	0x3e1945c3	0.14968018
235	0x3e53f68d	0.2069952
236	0xbd89af8e	-0.067229375
237	0xbe409905	-0.18808372
238	0xbde2fbe5	-0.11083201
239	0x3deed143	0.11661007
240	0x3dfaa80d	0.122390844
241	0x3e31d47d	0.17366214
242	0x3e0b3419	0.13594092
243	0x3e3c7099	0.18402328
244	0x3e3b40d6	0.18286452
245	0xbdbee117	-0.09320276
246	0x3dae8d9b	0.08523103
247	0x3d82a4d4	0.06379095
248	0x3d086a2d	0.033304382
249	0xbdaca84c	-0.084305376
250	0xbcd2ddad	-0.025740469
251	0xbe332e89	-0.1749822
252	0xbe24afb2	-0.16082647
253	0x3e04ccce	0.12968752
254	0xbe199953	-0.14999895
255	0xbd858565	-0.065195836

conv3.bias f4 [64]
0	0xbb0029f6	-0.001955626
1	0x3a45c997	0.0007544993
2	0x3a921a6e	0.0011146793
3	0x39eb13fd	0.00044837585
4	0xba5d980e	-0.0008453139
5	0x3a7908b1	0.00094998913
6	0xbae5e13d	-0.001753844
7	0xba9c47de	-0.0011923274
8	0xbae0b4a7	-0.0017143682
9	0x3abcf018	0.0014414815
10	0xbac7f3b6	-0.0015255127
11	0xbaa76887	-0.001277224
12	0xbade561d	-0.001696292
13	0xbb5d7ef2	-0.003379759
14	0x3b0639cb	0.0020481225
15	0xbad85f31	-0.0016507861
16	0xb9539769	-0.00020178933
17	0xbaa2194e	-0.001236716
18	0x3b54de79	0.0032481237
19	0x3afd3553	0.001931826
20	0x3b05a454	0.0020392137
21	0x3b5bcd95	0.0033539284
22	0xba4bb543	-0.00077708456
23	0x3b1c0db2	0.0023811874
24	0x3c5a587c	0.01332676
25	0x3ac6c06c	0.0015163547
26	0x3bc78cbc	0.006089775
27	0x3b012a84	0.001970918
28	0x3bd9a11f	0.0066415216
29	0x38a56c09	7.887936e-05
30	0x3a951b76	0.0011375982
31	0x3abb15ff	0.0014273523
32	0x3a056b41	0.00050895294
33	0x3ad61914	0.0016334378
34	0xba546b0a	-0.0008103108
35	0xba87e4ab	-0.0010367831
36	0x3b1f5720	0.0024313405
37	0x3b67a4f8	0.0035346132
38	0x3aca810b	0.0015449835
39	0x38cf7989	9.893167e-05
40	0x3b2da8cc	0.0026498316
41	0xba13c523	-0.00056369806
42	0x3b7463b8	0.0037290882
43	0x3af3308b	0.0018553896
44	0xbafa4885	-0.0019095099
45	0x3aff8f2c	0.0019497625
46	0x3ac77dc2	0.0015219974
47	0xbab016c9	-0.0013434525
48	0x3a658686	0.00087557023
49	0xbb0125af	-0.00197063
50	0x3aff46d7	0.0019476068
51	0xbb25c4e4	-0.0025294358
52	0x3bc0af69	0.0058802855
53	0x3b583614	0.0032991217
54	0x3ad36537	0.0016128187
55	0x3c1eb562	0.0096868
56	0x3ae4773f	0.0017430558
57	0x3b0cdce5	0.0021493968
58	0xbb2b7e64	-0.0026167864
59	0xb9417b75	-0.00018451906
60	0x3b3f44a0	0.002918519
61	0x3b51a408	0.003198864
62	0x3b05735e	0.0020362954
63	0x3aee8022	0.0018196146

fc1.weight f4 [128, 192]
0	0xbd7a6f6d	-0.06114142
1	0xbcd8ca9a	-0.026463795
2	0x3b8757bf	0.004130333
3	0x3c1f70d2	0.009731488
4	0x3d2e8c7b	0.04261444
5	0x3d1aa339	0.037753318
6	0xbd2b25f6	-0.04178425
7	0xbc634918	-0.013872407
8	0x3d8a0cd3	0.06740727
9	0x3cbf9736	0.023387533
10	0xba239ae3	-0.00062410365
11	0xbd3a597a	-0.045495488
12	0x3bbd0309	0.005768184
13	0x3d8e11fc	0.06937024
14	0xbd301c54	-0.042995766
15	0x3d23da20	0.040002942
16	0xbd015639	-0.03157637
17	0xbd5aad18	-0.05338773
18	0x3d02d4bb	0.031941157
19	0x3d8ca8aa	0.068681076
20	0x3d63c3b6	0.055606566
21	0x3d859c6f	0.06523978
22	0x3b2babfc	0.002619504
23	0xbcbb177c	-0.022838347
24	0x3d79badb	0.060969215
25	0xbc8b47cb	-0.017002007
26	0x3c27ad42	0.010234179
27	0xbca2c345	-0.019868502
28	0xbd5686a1	-0.052374486
29	0x3c091ddf	0.008368938
30	0xbd06b3d3	-0.032886337
31	0xbd0a926f	-0.033831056
32	0xbcfddc85	-0.030988941
33	0xbd150742	-0.036383875
34	0x3ca6cb29	0.020360546
35	0xbd416c61	-0.0472225
36	0x3d675bb1	0.056483928
37	0xbd84fda7	-0.06493693
38	0x3d7ecf39	0.06220934
39	0x3b419847	0.0029540227
40	0xbbce1f35	-0.0062903413
41	0xbbf8f068	-0.007597018
42	0x3d2478af	0.040154155
43	0xbd494d98	-0.049146265
44	0x3c2b2394	0.010445494
45	0x3d23ffc9	0.040038858
46	0xbd8ed923	-0.06975009
47	0x3d73ceff	0.05952358
48	0xbbe0849f	-0.006851747
49	0x3d11f10f	0.035630282
50	0x3d343f41	0.044005636
51	0x3d558e7f	0.052137848
52	0xbc55e5c3	-0.013055268
53	0x3d5eb879	0.054375146
54	0xbc9fd4d9	-0.019510673
55	0xbd8b88ee	-0.06813227
56	0xbd8ae716	-0.067823574
57	0xbd43c43d	-0.04779457
58	0xbd419793	-0.047263693
59	0x3d180eb6	0.037123404
60	0xbd799311	-0.06093127
61	0xbc83b12d	-0.016075695
62	0xbbe79ed5	-0.007068495
63	0x3b993776	0.004675801
64	0xbd833156	-0.064058945
65	0x3cdff516	0.027338546
66	0xbcb27cb3	-0.021787977
67	0xbd1bca3a	-0.038034655
68	0x3d43206f	0.047638353
69	0x3d33edca	0.043927945
70	0xbd0ffa74	-0.03515096
71	0x3da75d43	0.08172085
72	0x3c22ca8a	0.009935984
73	0x3b66e613	0.003523235
74	0x3bdcc74b	0.0067376248
75	0x3d41f165	0.047349352
76	0xbd166df3	-0.03672595
77	0xbda2d9a1	-0.07951666
78	0xbd829e97	-0.06377905
79	0xbd6a5fc8	-0.05722025
80	0xbc898344	-0.016786225
81	0x3d4b3a01	0.049615864
82	0xbc692d8a	-0.014232049
83	0xbcea69b3	-0.028614854
84	0xbd1d9f16	-0.038481794
85	0x3cd70c65	0.026251027
86	0x3d7fefeb	0.062484663
87	0x3ce9cf09	0.028541105
88	0x3ccd3846	0.025051247
89	0x3cf24401	0.029573442
90	0xbc12e2e6	-0.00896523
91	0x3ca71634	0.02039633
92	0xbd8b5cae	-0.068047866
93	0xbcc135b0	-0.02358517
94	0x3d7c2ce4	0.06156625
95	0xbd6b897b	-0.05750416
96	0x3d337448	0.043812066
97	0x3d871bd3	0.06597104
98	0x3d8af5a6	0.06785135
99	0x3ce063f0	0.027391404
100	0x3c536c54	0.012904245
101	0xbb9f26bd	-0.004856913
102	0x3d46ecc6	0.04856565
103	0x3d47a241	0.04873872
104	0xbd79f631	-0.061025802
105	0x3d031138	0.031998843
106	0x3d5be2ae	0.053682975
107	0x3d0a0f9f	0.033706304
108	0xbd501086	-0.050797008
109	0xbc7cdf20	-0.0154340565
110	0x3c5028ae	0.012705011
111	0x3d85dbc5	0.06536058
112	0x3d8044f1	0.062631495
113	0xbd0ec369	-0.034854326
114	0xbcd1a31b	-0.02559047
115	0xbcb4e310	-0.022080928
116	0xbcaba51b	-0.020952752
117	0x3d06e6f5	0.0329351
118	0x3c009c2d	0.007849735
119	0x3c7bdc74	0.015372384
120	0x3ceec37d	0.02914595
121	0xbd938b66	-0.072043225
122	0xbd2798a4	-0.040917054
123	0x3b0dd367	0.0021640898
124	0xbce2d2a9	-0.027688341
125	0xbae766c0	-0.0017654523
126	0xbd3c0caf	-0.045910534
127	0xbbc0acdd	-0.005879982
128	0xbd8491bf	-0.06473111
129	0x3d631c43	0.055446874
130	0xbd3145ce	-0.04327946
131	0xbd1d5943	-0.038415205
132	0xbccef3e6	-0.025262784
133	0xbd609e80	-0.054838657
134	0x3d37e8a1	0.044899587
135	0x3c1d57a4	0.009603415
136	0x3d777398	0.060412973
137	0xbd3e9e44	-0.046537653
138	0x3c1ca94b	0.009561847
139	0xbd88ae25	-0.066738404
140	0x3c69bf0b	0.01426674
141	0xbd10c557	-0.035344448
142	0xbd79e4a1	-0.061009053
143	0x3d78120a	0.06056408
144	0xbcdb5bc9	-0.026777165
145	0xbcdb61cf	-0.026780037
146	0xbc6c9357	-0.014439425
147	0x3bad5716	0.0052899225
148	0x3d2acc77	0.0416989
149	0x3d295a29	0.04134575
150	0x3d7392c2	0.05946613
151	0x3d96f815	0.07371537
152	0xbca98284	-0.020692118
153	0xbd75919b	-0.059953313
154	0xbb4c9a05	-0.0031219732
155	0x3d802336	0.06256716
156	0xbd5e0d47	-0.05421188
157	0xbce754dd	-0.028238708
158	0xbcf55556	-0.029947918
159	0xbd303385	-0.043017883
160	0x3d816120	0.06317353
161	0x3d6f7b95	0.058467466
162	0x3d2d0bb2	0.04224748
163	0xbd6f2dfa	-0.058393456
164	0xba8eb7c1	-0.0010888503
165	0x3da184b3	0.078866385
166	0xbc05561f	-0.008138209
167	0xbd4c851d	-0.049931634
168	0x3d5cf93f	0.053948637
169	0x3bf3f474	0.0074449126
170	0x3d6352a4	0.055498734
171	0x3d777616	0.06041535
172	0xbc0a8b4b	-0.008456062
173	0xbd81c024	-0.06335476
174	0x3d30c5a9	0.043157253
175	0x3cd99f03	0.02656508
176	0x3d8fac3e	0.070152745
177	0x3d271ace	0.040797047
178	0x3d19a9f7	0.037515607
179	0xbd5d1abe	-0.05398058
180	0x3c222e71	0.009898768
181	0x3d60e55c	0.054906234
182	0xbd18e6ae	-0.03732937
183	0x3cae7279	0.02129482
184	0x3d48b02e	0.048996143
185	0x3c1a034c	0.0094002
186	0x3d749501	0.059712414
187	0xbd45b225	-0.048265595
188	0xbd7f342c	-0.062305614
189	0xbd76de46	-0.06027057
190	0xbba3f55a	-0.0050036134
191	0x3d2922fc	0.04129313
192	0xbd57b391	-0.052661482
193	0x3d7976b1	0.06090421
194	0x3d7ef71a	0.062247373
195	0x3c77920a	0.015110502
196	0x3d42cd7d	0.04755925
197	0x3cab0171	0.02087471
198	0x3ca9e2f7	0.020738108
199	0x3d3218b7	0.0434806
200	0xbc2096c3	-0.009801569
201	0xbc8b5c85	-0.01701189
202	0xbd06100a	-0.03273014
203	0xbb075d7b	-0.0020655084
204	0xbc01fc71	-0.007933722
205	0xbd5b0ff1	-0.053482
206	0x3b33f6a0	0.0027460232
207	0x3c86b6a1	0.016444506
208	0xbd574450	-0.052555382
209	0xbd0a6014	-0.033783033
210	0xbcb3540e	-0.021890666
211	0xbcb09db0	-0.021559566
212	0xbd552ee6	-0.05204668
213	0x3cd2a051	0.02571121
214	0x3cf270b5	0.029594759
215	0xbc496f9f	-0.012294679
216	0xbd869e29	-0.065731354
217	0x3cba5c97	0.022749228
218	0xbd36f9ff	-0.04467201
219	0x3c5f0118	0.013611101
220	0xbba3ee83	-0.005002798
221	0xbd48c965	-0.04902019
222	0x3d589568	0.05287686
223	0x3d8fd009	0.070221014
224	0xbd61a2f6	-0.055087052
225	0x3cad2b80	0.021138906
226	0xbaef731f	-0.0018268562
227	0x3d1e5c04	0.03866197
228	0x3d35e510	0.044407904
229	0xb9fe60a7	-0.00048518667
230	0xbcbec2e8	-0.023286298
231	0x3cc24549	0.023714678
232	0x3d5ff27a	0.054674603
233	0xbd861dc8	-0.06548649
234	0xbd7e2dd2	-0.062055416
235	0xbd08509c	-0.03328
236	0xbcc21e86	-0.023696195
237	0x3d36fd95	0.04467543
238	0x3d2306f3	0.03980155
239	0x3d556389	0.052096877
240	0x3ce7afd1	0.028282078
241	0xbd62ad1f	-0.055340882
242	0x3bedb0f8	0.0072537623
243	0x3d8c46cd	0.06849442
244	0x3d84214b	0.06451663
245	0xbd1ae11b	-0.037812334
246	0x3d675dda	0.05648599
247	0xbcd3c88a	-0.02585246
248	0xbca69d02	-0.020338539
249	0x3d85fa4f	0.06541883
250	0x3d263d37	0.040585723
251	0xbd524853	-0.051338505
252	0x3bfff6bf	0.007811397
253	0x3d88021b	0.066410266
254	0xbd86623d	-0.06561706
255	0x383d9485	4.519943e-05

fc1.bias f4 [128]
0	0xbb5d1cb5	-0.0033739035
1	0xbd0e972d	-0.03481214
2	0x3ccd01f2	0.025025342
3	0x3aa3bd5b	0.0012492345
4	0xbbe5fbad	-0.0070185275
5	0x3cf96a87	0.030446304
6	0xbce61c07	-0.028089536
7	0x3d35cf4e	0.044387154
8	0x3d0c52d2	0.03425867
9	0xbd4b419d	-0.04962312
10	0xbd56efe6	-0.05247488
11	0x3d64f8a8	0.0559012
12	0xbcaa4982	-0.020787004
13	0xbd0ab216	-0.033861242
14	0x3d5093cc	0.0509222
15	0xbc10030c	-0.008789789
16	0x3d77480a	0.060371436
17	0xbcd22e36	-0.0256568
18	0x3d2832d6	0.041064106
19	0x3d3dea58	0.046366066
20	0x3c76fde6	0.015075183
21	0x3c63f3a1	0.013913066
22	0x3cda23dd	0.02662843
23	0xbca21ab6	-0.019788127
24	0xbd3c3a30	-0.04595393
25	0xbd2c85d8	-0.04211983
26	0x3d6ecd90	0.05830151
27	0xbd7e77a8	-0.06212583
28	0x3d815d51	0.06316627
29	0xbc29ee1c	-0.010371711
30	0xbb851585	-0.004061403
31	0xbd5b756a	-0.05357877
32	0xbd6f0eed	-0.058363844
33	0x3cae3884	0.021267183
34	0xbd4b5f52	-0.04965145
35	0xbd309f17	-0.04312047
36	0xbcd2b1f2	-0.025719617
37	0x3d8567f0	0.06513965
38	0xbd51fb26	-0.051264904
39	0x3d2777a5	0.040885586
40	0xbd87f3b5	-0.0663828
41	0x3d2f7950	0.042840302
42	0xbd3409df	-0.043954726
43	0xbcc72825	-0.024311135
44	0xbd028713	-0.031867098
45	0xbd427a5d	-0.047479976
46	0x3c728388	0.014801867
47	0x3d200c75	0.03907438
48	0xbd468bfa	-0.048473336
49	0x3c903947	0.017605437
50	0xbd3ee0e3	-0.046601187
51	0xbd5d5afc	-0.054041848
52	0xbd3d0a70	-0.046152532
53	0x3c9ce16c	0.019150458
54	0x3c97d88d	0.018535877
55	0x3d0f8069	0.03503457
56	0xbd836138	-0.064150274
57	0x3d2cceac	0.042189285
58	0xbb869037	-0.004106547
59	0x3d7a95f8	0.061178178
60	0x3d4d71e2	0.050157435
61	0x3d4355a4	0.047689095
62	0xbd807c8c	-0.062737554
63	0x3d800da1	0.062525995
64	0x3cefdedc	0.029281072
65	0x3d1b0ad1	0.037852112
66	0xbcd62a34	-0.02614317
67	0x3c9070b1	0.01763186
68	0x3cff658d	0.031176353
69	0x3ce1d9fd	0.027569765
70	0x3b9ca5ad	0.0047804923
71	0x3b3569dc	0.0027681505
72	0x3cb23fde	0.02175897
73	0x3ce387c3	0.027774697
74	0x3b8c7b37	0.0042871493
75	0xbd5611f2	-0.052263208
76	0xbce184bc	-0.027529113
77	0x3cb76f33	0.022391891
78	0x3c9bf720	0.019038737
79	0xbbe6647e	-0.0070310226
80	0x3d1b12d7	0.037859764
81	0x3c2346f8	0.009965651
82	0xbd50ff8c	-0.05102496
83	0x3c2c0782	0.010499837
84	0x3c0d5e34	0.008628417
85	0xbd958fd8	-0.07302827
86	0x3d1de02c	0.038543865
87	0x3d869ceb	0.065728985
88	0xbc90ac9e	-0.017660435
89	0xbd16176b	-0.036643427
90	0xbd83909e	-0.06424068
91	0xbbef150e	-0.007296211
92	0x3ce74c2d	0.028234566
93	0x3d4ec08e	0.050476603
94	0xbd3c803d	-0.046020735
95	0xbca89068	-0.02057667
96	0xbb1dfcec	-0.0024107052
97	0x3d46ffde	0.048583858
98	0x3d801cef	0.06255519
99	0xbd819566	-0.063273236
100	0x3d085a4f	0.03328925
101	0xbd6f68de	-0.05844962
102	0x3d155487	0.036457565
103	0x3c8e09a4	0.017338581
104	0xbc45f729	-0.012082853
105	0x3d83fe59	0.06444997
106	0xbd44edda	-0.048078395
107	0x3c6270cf	0.013820841
108	0x3c1e568c	0.009664189
109	0x3ba15453	0.0049233823
110	0xbd0c4e66	-0.034254454
111	0xbcc410d4	-0.023933806
112	0xbca9dd33	-0.020735359
113	0x3d6b4799	0.057441328
114	0x3d088b1e	0.033335797
115	0xbd30995d	-0.04311501
116	0x3c5fc921	0.013658793
117	0x3d79525b	0.060869556
118	0x3c121185	0.00891531
119	0x3c166026	0.009178197
120	0xbd0e1c60	-0.03469503
121	0xbbd244e9	-0.006416906
122	0xbd88e29d	-0.06683848
123	0x3c632d66	0.013865804
124	0x3c823db8	0.01589857
125	0x3ccc9306	0.02497245
126	0x3d6596f1	0.056052152
127	0xbbad3f0d	-0.0052870573

fc2.weight f4 [64, 128]
0	0xbc9bea5b	-0.019032648
1	0x3d1cd859	0.038292263
2	0x3d1b64b6	0.037937842
3	0x3bca8bd7	0.006181221
4	0xbc8c7642	-0.017146233
5	0xbc6f650b	-0.014611493
6	0xbaafc3d6	-0.0013409804
7	0xbd8e461c	-0.06946966
8	0xbcc63d2e	-0.024199095
9	0xbac5912e	-0.0015073174
10	0x3d7be43e	0.061496966
11	0xbd2cc829	-0.042183075
12	0xbcf79ccc	-0.030226134
13	0x3d5575f4	0.052114442
14	0x3ad7949a	0.0016447485
15	0xbd560e1f	-0.05225956
16	0x3cb162c0	0.021653533
17	0x3d4db85e	0.050224654
18	0xbc106f87	-0.008815653
19	0x3ca6bf92	0.02035502
20	0x3d6292b9	0.055315707
21	0x3dc5180d	0.09623728
22	0xbd7bfaa5	-0.06151833
23	0x3cf23178	0.029564604
24	0x3cea1a26	0.028576922
25	0x3b82b21c	0.0039885174
26	0x3dab28e1	0.083574064
27	0xbd949692	-0.072552815
28	0x3d67c777	0.05658671
29	0xbd2dbf2c	-0.042418644
30	0x3d861f02	0.06548883
31	0xbd887235	-0.06662408
32	0x3d388fe7	0.04505911
33	0x3d0d5562	0.034505256
34	0x3ca927e6	0.020648908
35	0x3da4fb5e	0.08055757
36	0x3d348fca	0.04408244
37	0x3d4cfab6	0.050043784
38	0x3d17e9fa	0.03708837
39	0xbda2ebca	-0.079551294
40	0x3d39e0b4	0.04538031
41	0x3c8ee6e7	0.017444087
42	0xbd9d7732	-0.0768875
43	0xbdaf62d5	-0.085637726
44	0x3d57b943	0.052666914
45	0x3d8c929f	0.06863903
46	0xbcd76ee3	-0.026297992
47	0xbd22580a	-0.03963474
48	0xbd2f03f1	-0.04272837
49	0xbd7b6798	-0.06137809
50	0x3d1dbaba	0.038508154
51	0x3da8b9a9	0.08238537
52	0xbbd7f613	-0.0065906136
53	0x3b4d05f8	0.0031284075
54	0x3c94c802	0.018161777
55	0xbd8dadb0	-0.06917894
56	0x3c8a5c2a	0.01688965
57	0x3b33f941	0.00274618
58	0x3cfc8448	0.030824795
59	0x3d378110	0.044800818
60	0x3d98a0c1	0.074525364
61	0x3db17259	0.08664388
62	0xbd82a877	-0.06379788
63	0xbd6c39d6	-0.057672344
64	0xbdbf01e5	-0.09326533
65	0xbc78c691	-0.015184061
66	0x3d0f2821	0.03495038
67	0x3d5430c9	0.051804338
68	0xbda11871	-0.0786599
69	0xbd8ad6e8	-0.06779271
70	0xbb2765c6	-0.002554284
71	0x3d849aac	0.06474814
72	0x3d7f395d	0.062310565
73	0xbc385e5c	-0.011252966
74	0x3d66afaf	0.05631989
75	0x3ce18059	0.027527021
76	0xbbc0bf00	-0.005882144
77	0x3d994183	0.074831985
78	0xbbd36f42	-0.006452472
79	0x3a965147	0.0011468314
80	0x3da55a63	0.080738805
81	0xba967b65	-0.0011480866
82	0xbd6aae9d	-0.05729543
83	0xbda0b839	-0.07847638
84	0xbcc8e724	-0.024524279
85	0x3daaacf8	0.083337724
86	0x3b8c43b4	0.004280532
87	0x3db2c427	0.08728819
88	0xbce98bce	-0.028509047
89	0xbcce0f62	-0.02515382
90	0x3d3b6609	0.045751605
91	0x3d5cb1c8	0.053880483
92	0xbd94722e	-0.072483405
93	0xbcbf7e24	-0.023375578
94	0x3d2336fe	0.039847367
95	0x3a4e3230	0.0007865755
96	0xbda01f40	-0.078184605
97	0xbc6cfc01	-0.014464379
98	0x3d98c374	0.07459155
99	0xbd1cf3df	-0.03831851
100	0x3db73ebd	0.08947513
101	0xbd07da8b	-0.033167403
102	0xbd53134e	-0.051532082
103	0x3d5016a6	0.05080285
104	0x3d978cb9	0.073998876
105	0x3dbf6736	0.09345858
106	0xbb537bcf	-0.003226984
107	0xbce93f54	-0.02847258
108	0x3db7b3fe	0.08969878
109	0xbc22abd6	-0.009928664
110	0x3da60a8c	0.081074804
111	0x3cc313d0	0.023813158
112	0x3d0aa1df	0.03384578
113	0xbcb768c2	-0.02238882
114	0x3d1d543a	0.038410403
115	0xbc553bcb	-0.013014744
116	0xbd4de565	-0.050267596
117	0xbd94390c	-0.07237443
118	0x3d96e4c9	0.07367856
119	0xbd371925	-0.044701714
120	0x3cebf71b	0.028804353
121	0xbd35cb1c	-0.044383153
122	0x3cf27d71	0.02960083
123	0x3d3d4ca1	0.046215657
124	0xbd87db95	-0.06633679
125	0x3d3c9650	0.046041787
126	0xbd2caaaf	-0.042154964
127	0x3dae6231	0.08514822
128	0xbcc42dc1	-0.023947598
129	0x3a64a874	0.0008722611
130	0x3d881499	0.06644554
131	0xbda851b2	-0.08218707
132	0x3c388e64	0.011264417
133	0xbca7a9a4	-0.020466633
134	0x3c53dedf	0.012931555
135	0x3d4f8781	0.050666336
136	0xbd4ec228	-0.05047813
137	0x3d2f3c18	0.04278192
138	0xbd15f5a2	-0.036611207
139	0x3da679da	0.0812871
140	0xbd27cf73	-0.040969323
141	0x3d3c7181	0.046006683
142	0xbd977fd5	-0.07397429
143	0xbd6cd20b	-0.0578175
144	0xbc15dc91	-0.009146825
145	0xbbf452c0	-0.0074561536
146	0xbc6f7834	-0.014616061
147	0xbd0d34a6	-0.034474038
148	0x3d4a12a6	0.04933419
149	0xbd90f839	-0.07078595
150	0xbd976c3b	-0.0739369
151	0x3ce5d82e	0.028057184
152	0x3d32f217	0.043687906
153	0xbc12539a	-0.008931065
154	0x3dbaefbf	0.09127759
155	0xbd3c6798	-0.045997232
156	0x3d8eba22	0.06969096
157	0x3d13ce8a	0.036085643
158	0xbd3dcddb	-0.046338897
159	0x3d497e1e	0.04919254
160	0x3d8d3ff3	0.06896963
161	0xbd142eb3	-0.03617735
162	0xba482b7a	-0.0007635873
163	0xbcd94891	-0.02652386
164	0x3d620a83	0.055185806
165	0x3d333bb2	0.0437581
166	0xbd067995	-0.032830793
167	0xbd255134	-0.040360644
168	0x3ceeed24	0.029165812
169	0x3da3e431	0.080025084
170	0x3d32058e	0.04346233
171	0xbd02eff2	-0.03196711
172	0xbd3c7d1a	-0.046017744
173	0x3d2d034e	0.04223948
174	0xbd8ff2b9	-0.070287175
175	0xbd083c20	-0.033260465
176	0x3d6cc02c	0.057800457
177	0x3b4c9bdc	0.003122083
178	0x3d7bd882	0.061485775
179	0xbb8f92a0	-0.0043814927
180	0x3bde2730	0.006779574
181	0x3d1e2f87	0.038619544
182	0x3d810961	0.06300617
183	0x3c2b5989	0.010458359
184	0xbcc061c4	-0.023484118
185	0xbd1e26b8	-0.038611144
186	0x3d631390	0.055438578
187	0x3d2d78eb	0.042351644
188	0x3d1df42f	0.03856295
189	0x3d36de24	0.044645444
190	0x3d1f8972	0.038949437
191	0xbd3f882d	-0.046760727
192	0x3db68990	0.08912957
193	0xbc961b3e	-0.018323537
194	0x3db1968d	0.086712934
195	0x3be8aa4f	0.0071003805
196	0x3d9c57c8	0.076339304
197	0xbc3f7202	-0.011684896
198	0xbd837311	-0.064184316
199	0x3c6f1622	0.014592679
200	0xbca1372c	-0.019679628
201	0x3ca27095	0.019829074
202	0xbd120d11	-0.035656992
203	0xbd53e09f	-0.051727887
204	0xbc88168c	-0.016612314
205	0xb9cec077	-0.0003943478
206	0x3d83bb2f	0.06432187
207	0xbda3d78c	-0.08000097
208	0x3d449a4d	0.047998715
209	0xbc4c0ad0	-0.01245375
210	0x3daee091	0.085389264
211	0xbce09554	-0.027414955
212	0xbd20a61c	-0.039220914
213	0xbd5fa9b1	-0.05460519
214	0x3d1f363d	0.038870085
215	0x3d576e5b	0.052595478
216	0x3d958968	0.07301599
217	0x3d2c5128	0.042069584
218	0xbcebd1a3	-0.028786486
219	0x3ae4a9a7	0.001744558
220	0xbd03bc1d	-0.03216182
221	0xbd87e478	-0.06635374
222	0xbd017ffd	-0.0316162
223	0x3d1a482e	0.037666492
224	0x3d59f47d	0.053211678
225	0x3cb0c13a	0.021576513
226	0x3cfd665a	0.030932594
227	0x3ae7c056	0.0017681222
228	0x3c04cb8c	0.00810517
229	0x3d91ba4c	0.071156114
230	0xbdb3a4d6	-0.08771674
231	0xbd859755	-0.06523005
232	0xbce1b55e	-0.027552303
233	0xbd356067	-0.04428139
234	0x3d61046b	0.054935854
235	0x3ca38e14	0.019965209
236	0xbcb9a2bd	-0.022660607
237	0x3d67387a	0.056450345
238	0xbdad0dc5	-0.08449892
239	0x3d95e291	0.07318605
240	0xba1135c0	-0.00055393204
241	0xbd966afa	-0.07344623
242	0x3ce58225	0.02801616
243	0x3db402b6	0.087895796
244	0xbd10e535	-0.03537484
245	0xbcc9ebeb	-0.024648627
246	0xbda85912	-0.08220114
247	0x3cfb26fb	0.030658236
248	0xbcf7ab37	-0.030233009
249	0xbd43faae	-0.04784649
250	0xbd839681	-0.06425191
251	0x3da344ad	0.07972083
252	0xbd594f21	-0.05305398
253	0xbcdda696	-0.027056973
254	0xbd5dddca	-0.054166593
255	0xbd250b4a	-0.04029397

fc2.bias f4 [64]
0	0xbc9974f4	-0.018732525
1	0x3d98439b	0.0743477
2	0xbb97bcd7	-0.0046306658
3	0x3cbd48f4	0.023106076
4	0x3d87df76	0.06634419
5	0x3d0a78ef	0.033806738
6	0xbcd4521d	-0.02591806
7	0xbd1cedd9	-0.038312767
8	0xbd8546a3	-0.065076135
9	0xbce56294	-0.028001107
10	0x3d1bd9ad	0.03804939
11	0x3d66a4a9	0.056309376
12	0x3d8e815b	0.06958266
13	0xbc0aa1a2	-0.008461388
14	0x3d97ae0e	0.07406245
15	0xbd897f22	-0.06713702
16	0x3d8f5032	0.06997718
17	0x3d3f3783	0.0466838
18	0x3d47339e	0.04863321
19	0x3da794cb	0.08182677
20	0x3caccccb	0.021093747
21	0x3da3ba36	0.07994501
22	0x3d8c0652	0.06837143
23	0x3d3b068a	0.045660533
24	0x3d2c7d24	0.04211153
25	0xbd306804	-0.043067947
26	0xbc7f2fb6	-0.01557534
27	0x3d59bb04	0.053156868
28	0xbcddd61a	-0.02707963
29	0xbcff4176	-0.031159144
30	0xbd0c8143	-0.03430296
31	0x3caac16c	0.020844184
32	0xbd2c1aa7	-0.042017605
33	0x3da44133	0.08020248
34	0xbda9c5f1	-0.082897075
35	0x3db3db7a	0.08782096
36	0xbd0febad	-0.035136867
37	0xbc385a92	-0.011252062
38	0xbd48f679	-0.04906318
39	0xbd235e05	-0.039884586
40	0xbce4ca44	-0.027928479
41	0xbd83dfff	-0.06439208
42	0xbda9d9ef	-0.08293521
43	0x3d9f2b40	0.07771921
44	0x3da8d21a	0.08243199
45	0xbd046a05	-0.03232767
46	0xbd2f24cf	-0.042759713
47	0x3d9c7e9c	0.07641336
48	0xbd69f4f2	-0.057118364
49	0x3db33926	0.087511346
50	0x3d9288b5	0.07154981
51	0x3d2084f5	0.039189298
52	0x3ca3104b	0.01990523
53	0xbd28e101	-0.041230205
54	0x3da86478	0.08222288
55	0x3c9d71a1	0.019219222
56	0x3ce60b01	0.028081419
57	0x3d97fe55	0.07421557
58	0x3c6db2c0	0.014507949
59	0xbd9ee01e	-0.07757591
60	0xbc60b8f0	-0.013715968
61	0xbd7c8601	-0.061651234
62	0x3c818197	0.015808864
63	0x3d9831bf	0.07431363

fc3.weight f4 [2, 64]
0	0xbda89a65	-0.082325734
1	0xbcc19675	-0.023631314
2	0xbdc538a5	-0.09629945
3	0xbdaf7408	-0.08567053
4	0x3d802a68	0.06258088
5	0xbcfc979e	-0.030834015
6	0xbc8c1ee3	-0.017104572
7	0xbd92574d	-0.071455576
8	0x3ddf7b20	0.10912156
9	0xbc236c0f	-0.009974494
10	0xbdc04328	-0.09387809
11	0xbdf346d3	-0.11878743
12	0x3da9680c	0.082717985
13	0x3b70822e	0.0036698687
14	0xbde11629	-0.10990555
15	0x3e00fa36	0.12595448
16	0x3dcec048	0.100952685
17	0x3d632089	0.05545095
18	0xbdbe672c	-0.09297022
19	0xbd99e0c1	-0.075135715
20	0xbb3bf1c1	-0.0028678032
21	0xbcf769db	-0.030201843
22	0x3cafd102	0.021461967
23	0x3c2055d9	0.009786093
24	0x3d2cfafd	0.04223155
25	0xbdd13f5e	-0.102171645
26	0x3d1b058b	0.037847083
27	0xbc13b0d1	-0.009014324
28	0xbd92591d	-0.07145903
29	0xbc6b4bae	-0.014361305
30	0x3c9ea3c0	0.019365191
31	0x3c6fda83	0.0146395
32	0x3c034770	0.0080126375
33	0xbd7c5f66	-0.061614417
34	0x3d4b36e8	0.04961291
35	0x3db0046d	0.08594594
36	0xbdb612d2	-0.088903084
37	0xbd1d99ea	-0.038476862
38	0xbcc336eb	-0.023829898
39	0xbddfb171	-0.10922516
40	0x3d065cf1	0.03280348
41	0xbd58eac4	-0.052958265
42	0xbd907014	-0.07052627
43	0xbde8d9fd	-0.11369703
44	0xbca8d32a	-0.020608503
45	0xbd9b5d4e	-0.07586156
46	0xbbfe0a02	-0.007752658
47	0xbcd11b5b	-0.02552574
48	0xbdd3055b	-0.10303756
49	0xbd689126	-0.05677905
50	0x3ddf4312	0.109014645
51	0x3d54243e	0.051792376
52	0xbdb41f1f	-0.087949984
53	0xbbae0b00	-0.00531137
54	0x3c902bf2	0.01759908
55	0x3da8bfc5	0.08239702
56	0xbbcc0d23	-0.006227152
57	0xbdb13eb5	-0.086545385
58	0xbd6bbf08	-0.05755523
59	0xbdf0a1f5	-0.11749641
60	0xbdb27244	-0.08713201
61	0xbcc35eab	-0.023848852
62	0x3aa30266	0.0012436628
63	0xbdfab9b2	-0.1224245
64	0x3dd779cb	0.10521277
65	0xbd744791	-0.059638564
66	0x3dccc4c9	0.09998471
67	0xbdd24361	-0.10266758
68	0x3d392fd1	0.045211617
69	0x3c8be4ff	0.017076967
70	0x3dea15e1	0.11429954
71	0x3d88551b	0.066568576
72	0x3d3d89d4	0.04627402
73	0x3d775673	0.06038518
74	0xbc6fbf58	-0.014633022
75	0x3d975875	0.07389919
76	0x3d5ff13f	0.05467343
77	0x3cd73f15	0.026275197
78	0xbdb25445	-0.087074794
79	0x3ca1c6f4	0.019748189
80	0xbdb8e372	-0.09027757
81	0x3d3d7417	0.04625329
82	0x3de34fe2	0.11099221
83	0x3d9047f5	0.07044975
84	0x3cdc2f62	0.026878063
85	0x3df700d7	0.12060707
86	0xbde81e7f	-0.11333942
87	0xbcd2425d	-0.02566641
88	0x3d7d40f7	0.061829533
89	0x3d026e8c	0.031843707
90	0xbdacd19b	-0.084384166
91	0x3d1771b6	0.036973678
92	0xbd6c8069	-0.05773965
93	0xbdad7f5e	-0.08471559
94	0x3dbf5334	0.093420416
95	0x3db22fd0	0.08700526
96	0x3da5e372	0.081000224
97	0x3d95369e	0.07285808
98	0xbb8f587d	-0.0043745623
99	0xbd0d25d2	-0.034459896
100	0xbd4f5184	-0.05061485
101	0x3df86321	0.12128282
102	0x3e0a11a3	0.1348329
103	0x3c97cdc0	0.018530726
104	0x3cbe0952	0.023197804
105	0x3d542d18	0.051800817
106	0x3d4f1230	0.050554454
107	0x3d9dfc6f	0.077141635
108	0x3dd1996a	0.102343395
109	0x3d64e192	0.055879183
110	0x3dd0bd5d	0.10192368
111	0x3d3f7e56	0.046751343
112	0x3d31418e	0.04327541
113	0xbda3c1cf	-0.079959504
114	0x3d2dbd49	0.042416845
115	0x3d86e44e	0.065865144
116	0x3e04289e	0.12906119
117	0xbd044de4	-0.032300845
118	0x3de1f72e	0.11033474
119	0xbcadff00	-0.021239758
120	0xbcbdf900	-0.023190022
121	0x3ddebda3	0.10876014
122	0xbd29b324	-0.041430607
123	0x3d1a1877	0.037620988
124	0x3dfc2a46	0.123127505
125	0x3d2d6761	0.042334918
126	0xbd9de3c4	-0.077094585
127	0xbdddba20	-0.10826516

fc3.bias f4 [2]
0	0x3bc3d9b0	0.005976878
1	0xbda07b61	-0.07836033
