model_to_load/mod64_save4.pt (torch_old, 172265 bytes, 12 tensors)

conv1.weight f4 [18, 64]
000000 eb ff 65 3e 6a f7 46 be d2 b8 5a 3c 83 54 9c 3c
       0.22460906 -0.19430318 0.013349729 0.019083267
000010 fb 7b 6f 3d c1 bf 83 be c3 87 23 be 3b 22 ae bc
       0.058467846 -0.25732234 -0.15969758 -0.021256557
000020 08 36 3e 3d 94 9d fc 3d 7e e3 d6 3c 75 44 2e 3e
       0.046438247 0.12334743 0.026231524 0.17018302
000030 9f a4 6f 3e 16 e2 83 bc 48 5d aa bc 1d 05 9c bc
       0.23402642 -0.016099017 -0.020796433 -0.019045407
000040 b7 6f ff bd 18 3c 70 be ec 3d e0 3d a3 66 18 3d
       -0.1247248 -0.23460424 0.10949311 0.037207257
000050 89 02 e7 3d b8 66 45 3d 65 ac 42 3e b9 23 17 be
       0.112797804 0.048193663 0.19011076 -0.14759721
000060 7f 2a 11 be 0a f3 4d be b9 1e 7a 3e 89 0d fd bd
       -0.14176367 -0.20112243 0.24425782 -0.12356097
000070 73 5b 6d 3e 38 f5 fd bd 65 23 92 3d 2e 8b 80 be
       0.23179416 -0.124002874 0.07135657 -0.25106186
000080 cf e7 4d 3e 69 16 a2 bc 6f 74 7b ba ee da 15 3e
       0.20107959 -0.019786077 -0.000959224 0.14634296
000090 6e cc 31 3e 00 44 1d be 34 d3 aa bc 0d ce 69 3e
       0.1736314 -0.15357971 -0.020852663 0.22832508
0000a0 bd 94 db 3d 9b b2 ce 3a 3f 6d cb bd 75 67 e2 3d
       0.10721729 0.0015769781 -0.099329464 0.11054889
0000b0 02 bc db bd 6f 22 13 be 80 4d 89 be 06 6e 80 bd
       -0.10729219 -0.14368604 -0.2681694 -0.06270985
0000c0 50 2f 2a be d8 9c 54 be 1d 3e 20 3e e9 97 2d be
       -0.16619611 -0.20762956 0.15648694 -0.1695248
0000d0 8f e3 b9 3c 3a 5b f6 3c 7c a0 21 3e ad fb 81 3d
       0.022691516 0.030072797 0.15783876 0.063468315
0000e0 e1 5e 21 3b d8 96 81 3e 2f 67 26 3e d5 fc 77 3e
       0.0024623203 0.25310397 0.16250299 0.24217542
0000f0 06 48 2d be dc e2 12 3e 1b c7 69 be 3c 11 c4 3d
       -0.16922006 0.14344352 -0.22829859 0.095736
000100 64 31 1b 3e da f1 80 3e 67 e0 57 be 8a be 10 3e
       0.1515556 0.25184518 -0.21081696 0.14135185
000110 88 64 87 3e 9d a1 40 be fd e2 ee bd 8f 85 94 3c
       0.26443887 -0.1881165 -0.11664388 0.018130092
000120 d5 b4 d5 bc f0 25 0f 3e a2 9e 4c 3e 1c 3a 1e 3e
       -0.026087204 0.13979316 0.19982389 0.15451854
000130 9a 02 88 3e 3a e4 5b 3e f4 63 50 3e ad 61 f3 3d
       0.26564485 0.2147378 0.20350629 0.118838646
000140 59 b4 82 be 32 04 39 be 6a 62 81 3e 0f f4 20 3e
       -0.2552822 -0.18068007 0.25270396 0.15718101
000150 d5 92 ea 3d c0 5b 06 be 9e af 26 be 85 d8 55 3e
       0.11453787 -0.13120937 -0.1627793 0.20883377
000160 73 90 de bd 33 8c 28 3e c8 94 42 be e8 c4 a2 3d
       -0.10867395 0.16459732 -0.19002068 0.07947713
000170 20 48 50 bc de 67 7f 3e 34 5f 18 3e 3f 7a 97 bd
       -0.012712508 0.24941966 0.14880067 -0.073963635
000180 c9 9a 47 3b 3e ee 43 3e 5d bc 23 be 45 4b f9 3c
       0.003045725 0.19133851 -0.15989824 0.0304314
000190 75 30 ea 3d 90 80 e3 bd 01 c9 6f be e7 61 7c be
       0.11435024 -0.11108506 -0.2341652 -0.24646722
0001a0 6b 6b a1 bc 25 e1 46 3e 6b 04 19 3e ef a6 5c be
       -0.019704541 0.19421823 0.14943092 -0.21548055
0001b0 07 3f b9 3d 32 f4 23 3e e5 f5 11 3e be 5d 54 be
       0.09045225 0.16011122 0.14253958 -0.20738885
0001c0 5e d0 b6 bd ca 57 06 bd fa c9 41 bd 4f 1a 72 bd
       -0.08926462 -0.032798566 -0.04731176 -0.05910712
0001d0 c6 33 53 be d7 e5 d9 3d e1 54 78 be b9 e4 07 be
       -0.20625219 0.106395416 -0.24251129 -0.13270845
0001e0 95 bb 60 3e 1d 69 e6 3d ff 39 74 bd 44 bf 15 be
       0.21946557 0.112505175 -0.059625622 -0.14623743
0001f0 29 8f 44 3e 06 41 1a bd 55 3c 89 bd 35 b4 52 be
       0.19195236 -0.037659667 -0.067009605 -0.20576556
000200 f4 f6 c3 bc af f7 0d be 96 02 b6 3c 7f aa 88 3c
       -0.023921467 -0.13864015 0.02221803 0.016682861
000210 15 a5 ee bc bb 07 03 3e 78 44 54 be 3e 7b a6 bc
       -0.029131452 0.12795918 -0.20729244 -0.020322438
000220 15 47 24 3e 87 2e c6 bc 02 a5 39 bd 24 93 31 3e
       0.1604274 -0.024192108 -0.04532338 0.17341286
000230 ca 56 b8 3d e4 23 00 3e 21 47 82 bd 67 39 01 be
       0.09000929 0.12513691 -0.06361223 -0.12619554
000240 96 fd 06 3e 3c 89 ec bd fd d8 18 be 85 61 66 3e
       0.13182673 -0.11549613 -0.14926524 0.22498138
000250 2b 7c f6 bc c2 40 81 bc de 3c c0 3c 52 f6 3a 3e
       -0.030088505 -0.01577795 0.023466524 0.18258026
000260 92 3a be bc fd 1f 5e be b9 79 5c 3e 82 ef 61 bd
       -0.023221288 -0.2169189 0.21530809 -0.055160053
000270 5b 0d 18 be 1a d4 2e be fc 55 2c 3e de 95 d9 bd
       -0.14848845 -0.17073098 0.16829675 -0.10624288
000280 2a 2e 81 bd 0b a0 ad bd 3e 7b 7e bd 07 12 86 bb
       -0.06307633 -0.084777914 -0.06212925 -0.0040915045
000290 8b 8b 82 be e2 d8 53 3e 4c 55 5e 3e 15 b4 7d be
       -0.25497088 0.20688203 0.21712226 -0.24775727
0002a0 ce f5 55 3e 64 46 5b 3e 59 48 99 bc 51 b4 25 3e
       0.20894548 0.2141357 -0.018711256 0.16182067
0002b0 f6 a2 2a be 29 de 12 3e 9a 1b 43 be bf 03 83 be
       -0.16663727 0.1434256 -0.19053498 -0.25588796
0002c0 5b b4 80 be b9 4f d4 bd cf 77 78 3e c5 a2 c8 bd
       -0.251376 -0.103667684 0.24264453 -0.09796671
0002d0 30 44 02 be 2f fb 4d be e1 38 0d 3c 9e 7a dd bc
       -0.12721324 -0.2011535 0.008619518 -0.027036007
0002e0 d8 be 24 be 79 36 bc bc 82 d4 58 be 01 b8 f2 3d
       -0.16088426 -0.022975193 -0.21174815 0.11851502
0002f0 25 5e a2 3d ef fb c1 3d 54 67 27 3e 0a 21 8f 3d
       0.07928113 0.09471881 0.1634801 0.069887236
000300 1f bc 56 3e 69 61 0e be e2 ff 87 be 97 bc 32 3e
       0.209702 -0.13904347 -0.2656241 0.17454754
000310 2e f8 f1 bd 3d 8c 24 3d a4 99 79 3e aa 4d eb bc
       -0.11814915 0.040172804 0.24375015 -0.028723557
000320 c1 44 35 bd 25 be 6d be 75 46 d2 3d 37 ee 89 3e
       -0.044255022 -0.23217066 0.10267345 0.26939556
000330 59 fb c7 3d 4c 2d 3a 3e 38 77 20 be 08 26 dd 3c
       0.09764738 0.18181342 -0.15670478 0.026995674
000340 2f 79 84 be b5 3d a2 38 05 8a 47 3e a9 b8 08 3e
       -0.25873706 7.736256e-05 0.19486244 0.13351692
000350 5e af 85 3d f0 95 cb bd 0c ca 64 3e 20 00 bd 3c
       0.06527589 -0.09940708 0.223427 0.023071349
000360 59 2a 88 3e 20 64 b0 3c 14 ef 4f 3d 06 e4 76 be
       0.2659481 0.021532118 0.050765112 -0.24110422
000370 88 68 06 3e 11 df 0e bd f6 80 47 be 5a 9a 17 3e
       0.13125813 -0.0348807 -0.19482788 0.14804974
000380 43 32 fa 3d c1 8d 8b 3e f0 39 86 bd a4 d1 30 be
       0.12216618 0.27256587 -0.065540195 -0.17267472
000390 72 2d 0c 3e ab 32 54 3e 95 61 37 3e 68 60 54 be
       0.13689211 0.20722453 0.17908318 -0.20739901
0003a0 71 9c 86 3e 3c 25 cf 3c 95 2a 8c be 7c da 56 3c
       0.2629123 0.02528631 -0.27376238 0.013113614
0003b0 ea 0f 2e 3e 31 bd 2a bd 0b 9d 87 3e 4c ea 5d bd
       0.16998258 -0.041684333 0.26487002 -0.05417852
0003c0 df 0f e9 bd d4 c9 85 3e 22 4c 2f be 08 9f d3 3c
       -0.1137998 0.26130545 -0.17118886 0.025832668
0003d0 6c 8e 26 be 80 6e 05 3e ef aa e3 3d 81 06 d4 bd
       -0.16265267 0.13030434 0.11116587 -0.10352803
0003e0 40 20 1f 3e 97 98 8e 3b e8 6e 61 3e c4 fc 70 be
       0.15539646 0.004351686 0.22014964 -0.23533922
0003f0 b4 d2 f3 3c be 73 d3 3d ef fb af bd f8 a3 0c be
       0.029763557 0.103248104 -0.085929744 -0.13734424

conv1.bias f4 [64]
000000 47 b3 ef 3a 6f 0a 44 ba 10 d5 44 ba b9 3d c4 3a
       0.0018287682 -0.00074783614 -0.00075085554 0.0014972008
000010 ea 36 76 3b 16 86 10 3b d7 05 cf 39 9f b8 82 3a
       0.0037569352 0.0022052578 0.00039486468 0.0009973234
000020 77 06 39 3b bf 04 07 3c b1 6d 82 b9 ec c5 3f b9
       0.0028232613 0.008240878 -0.0002487726 -0.00018288911
000030 4a ca e3 3a 9f 07 08 bb 75 6c 1e 3a 27 57 cb ba
       0.0017379012 -0.0020756496 0.0006043383 -0.0015513644
000040 bb a6 68 b9 e8 6f 73 b8 8f 3e 9f bb 7c 22 15 ba
       -0.00022187356 -5.8039936e-05 -0.0048597525 -0.00056890375
000050 55 5c 53 b9 b4 49 40 ba c0 5e 45 3b b5 a1 fc 3a
       -0.00020156924 -0.00073352014 0.003011629 0.0019274267
000060 d9 a0 87 38 c5 67 6c ba 09 57 72 3a e0 aa 8d bb
       6.467262e-05 -0.00090181484 0.00092445366 -0.0043233484
000070 03 98 02 3c b9 93 67 3a c7 e7 09 3a af 90 82 3b
       0.007970813 0.0008833963 0.0005260673 0.003984533
000080 a9 55 cb 3b 48 ad 78 3b 3a 40 16 bb e3 c4 9c 3a
       0.00620528 0.003794508 -0.0022926466 0.0011960532
000090 0b 80 86 3a 09 4e 1b 3b ea 51 24 b9 34 93 f2 3b
       0.0010261548 0.0023697636 -0.00015670774 0.007402802
0000a0 2c a5 3c 3b ce ab 44 39 91 b9 4f 3a 05 b3 73 b9
       0.0028784974 0.00018756019 0.0007924075 -0.00023240976
0000b0 ad 1a 0d 3a 07 fa 92 3b 1d 4b 24 3b cf 7d 0d 3b
       0.0005382698 0.004485372 0.0025069185 0.002158988
0000c0 e1 19 a1 39 11 6a 97 3a ff 2a a6 ba 32 f8 32 3c
       0.00030727594 0.0011551996 -0.0012677609 0.010923432
0000d0 13 1e b7 3a 22 f2 e2 ba 10 fa 31 3b 09 12 0c 3c
       0.0013970755 -0.0017314593 0.0027157106 0.008549222
0000e0 94 98 31 3b c4 38 7c 3b ba c1 44 3b dd 2e 06 ba
       0.0027099 0.0038485983 0.0030022697 -0.00051186775
0000f0 ca 41 f0 3a c5 9a 3f b9 21 11 b6 3a ae fa cb 3a
       0.0018330154 -0.00018272836 0.0013890603 0.0015562379

conv2.weight f4 [64, 64]
000000 e1 4a 25 be 13 2d 1c bd 59 f3 59 bd 25 42 da bd
       -0.16141845 -0.038128924 -0.05321059 -0.10657147
000010 50 8b 3b 3e 89 b9 3a 3d 15 b2 55 be 05 1f 2f bc
       0.18314862 0.045587096 -0.20868714 -0.010688548
000020 d0 13 38 3e bc 6a 57 be de 68 d7 bd dc 48 d8 bd
       0.17976308 -0.2103681 -0.10518049 -0.10560772
000030 fa 0f 12 be 64 64 eb bd 68 03 e8 3d 48 c2 02 3e
       -0.14263907 -0.11493757 0.11328775 0.12769425
000040 dc bd a9 bd ec c3 89 3d 03 40 37 be a3 14 42 bd
       -0.08288166 0.06726822 -0.17895512 -0.047382962
000050 f1 38 9b 3d d8 61 bb bd c2 03 7a 3d b4 a1 3f 3e
       0.0757922 -0.091495216 0.06103874 0.18714029
000060 e4 fd 49 3e 49 17 ee bd 3c 18 01 3e 93 d3 19 be
       0.19725758 -0.11625535 0.12606901 -0.15022115
000070 97 5b 8b bd 87 a1 90 3d 61 31 fe 3b c0 f7 7e 3d
       -0.06804579 0.07062059 0.0077573513 0.06224799
000080 f5 67 14 be 96 71 dc bd c8 03 22 be eb 39 2e be
       -0.14492781 -0.10763852 -0.15821755 -0.17014281
000090 c4 4e 23 3e df d7 83 3b ee 9c 4f 3e 65 d4 36 be
       0.15948015 0.0040235366 0.20274708 -0.1785446
0000a0 a8 db 12 3e c8 9b 2e be 91 f0 19 3e 18 4e 3e be
       0.14341605 -0.17051613 0.15033175 -0.18584478
0000b0 89 59 d2 3b 32 00 1a 3e b0 26 0e 3d 0f ea 2c be
       0.006419365 0.15039137 0.034704864 -0.16886161
0000c0 cb 2b a4 3d d1 7a 27 bd 39 24 5a be 3c ce 07 be
       0.08016165 -0.04088861 -0.2130288 -0.13262266
0000d0 92 b5 5c 3d cd b8 5b 3e 13 f6 42 3e 0a 9e 26 be
       0.053884096 0.21457215 0.19039182 -0.16271225
0000e0 fe b4 00 3e 7e 3d 0b bc cc e2 2a bd 51 a3 f5 bd
       0.12569043 -0.008498548 -0.041720197 -0.11994041
0000f0 a6 e2 23 3d 02 9e 53 bd 2c ab 45 3e c6 c7 79 bd
       0.04001107 -0.05166436 0.19303578 -0.060981534
000100 bc db dc 3d 86 04 0c 3e 23 bb 8e 3d 9f c0 cf 3d
       0.107840985 0.136736 0.06969287 0.101441614
000110 e5 e5 d1 3b 79 36 bc 3d fc 35 e1 bd 58 7e 2a be
       0.0064055794 0.09190077 -0.10996625 -0.16649759
000120 ce d4 fb bd 82 70 2b 3e 84 b0 1d 3e 9c b2 fa 3d
       -0.12296449 0.16742137 0.15399367 0.12241098
000130 8e ad f3 bd 8d 27 88 bd a0 bc 05 be db 8a d7 bc
       -0.11898337 -0.06648169 -0.13060236 -0.026311329
000140 ea 33 da 3d f7 14 a6 3d 4f 4b 3a 3e 01 68 43 3e
       0.10654433 0.081094675 0.1819279 0.19082643
000150 51 a9 2e be 05 65 3d 3e 98 a2 4d bd 01 fe 42 be
       -0.17056777 0.18495567 -0.05020389 -0.19042207
000160 a9 9e 05 bc 29 bd cd bd 4a a2 25 3d 6f 3e 47 3c
       -0.008155503 -0.10045845 0.040437974 0.012160881
000170 4d cf 92 3d 46 67 b0 3d 92 32 4a be f6 0d 38 3e
       0.07168446 0.08613448 -0.19745854 0.17974076
000180 c9 6f 03 3d 11 9e 93 3d 81 58 85 3d 84 5d 21 3e
       0.03208903 0.07207883 0.065110214 0.1575833
000190 c0 c4 a4 3d a8 8c 9d 3d 57 a6 6c 3d 95 e3 09 3e
       0.080453396 0.07692844 0.05777582 0.13465722
0001a0 3c b5 14 3e 66 0d 44 be 47 1f e1 bd 03 00 d1 3d
       0.1452226 -0.19145736 -0.10992294 0.1020508
0001b0 39 a0 b0 3d de 57 97 bc 5f a6 b1 3d 55 d4 c7 bd
       0.0862431 -0.018474516 0.08674311 -0.09757296
0001c0 cd 0d 1c 3e 19 45 53 3d f1 44 12 be 31 14 d6 bc
       0.1523964 0.05157957 -0.14284112 -0.026132675
0001d0 4e 29 4d be 78 44 0d 3e 6e b4 0d be b3 83 2c 3e
       -0.20035288 0.1379565 -0.1383836 0.16847114
0001e0 0b 42 5a be 75 18 c3 bd 65 cb 19 be e6 9d f6 bd
       -0.21314256 -0.09526149 -0.15018995 -0.120418355
0001f0 05 4f 0f bd 93 49 e5 bd 6d 23 fe ba c6 74 4b 3e
       -0.03498747 -0.11195674 -0.001938922 0.19868764
000200 4f 51 d7 bd 1e 70 52 3e 0e 96 7f bd 0e 28 df bd
       -0.10513555 0.20550582 -0.062398963 -0.10896312
000210 d6 9e 5b be 5b 33 18 3e 8d c2 83 3c 6a 40 9a ba
       -0.2144731 0.1486334 0.01608398 -0.0011768464
000220 1b d0 4b be ca 9f 31 be e3 cd 8f bd 04 9c 3d 3d
       -0.19903605 -0.17346111 -0.07021692 0.046291366
000230 12 fa 36 be 25 d8 4d 3d 71 2c 16 be c5 68 bf bd
       -0.17868832 0.05025496 -0.1466539 -0.09346155
000240 0e 32 b1 3d 7a f1 0e 3e e8 0c 62 bd 91 7c 42 bd
       0.08652125 0.13959303 -0.05518809 -0.047482077
000250 38 1e c7 bc e0 7a 25 bd 2d 73 21 3e 73 ce 49 3e
       -0.024306402 -0.040400386 0.15766592 0.1970766
000260 ba 75 a1 bd a3 73 8c 3d 43 8e 29 3d 0f 08 63 bd
       -0.07883783 0.068579935 0.041395437 -0.055427607
000270 e3 b1 e4 3c 93 ec 57 be c9 96 b9 3d d3 4f 5d 3e
       0.027916854 -0.2108634 0.09061963 0.21612482
000280 2e 67 fa bc 33 02 ad 3d e2 6e 15 be af db 8f bd
       -0.030566778 0.08447685 -0.1459308 -0.07024323
000290 73 49 00 be f0 98 89 bd e4 84 e1 3d bc a1 ae 3d
       -0.12528019 -0.06718624 0.11011675 0.08526942
0002a0 10 1b 5b 3e 6c 15 cf bd 6d 75 09 be 69 9f 01 3d
       0.21397042 -0.10111508 -0.134237 0.031646166
0002b0 2a f2 ce bd b2 4c 6b 3d 4b a4 a2 bc fb 1b 36 bd
       -0.10104783 0.05744619 -0.019853732 -0.044460278
0002c0 7f aa 4f be df 63 56 3d 34 f1 c7 bd dc e4 3d 3e
       -0.20279883 0.05234134 -0.09762803 0.18544334
0002d0 fd 48 9e 3d 2f 9a 1e be 7d 2b 03 3c 9e e2 1f bd
       0.07728765 -0.15488504 0.008005974 -0.03903448
0002e0 90 f0 59 be 08 1b 8c 3d 3e 77 35 3d e0 ba 06 3e
       -0.21283174 0.06841093 0.04430317 0.13157225
0002f0 e8 89 fe bd a9 74 9f 3c 59 a4 9c 3d f1 eb 54 be
       -0.12428647 0.019464808 0.07648534 -0.2079313
000300 84 50 97 3d e3 1c 16 3e 36 0b ec 3d ff 41 28 be
       0.07388404 0.14659457 0.11525576 -0.16431426
000310 ac 5d 14 3e ed 04 ab 3d de ac c3 bc c3 68 96 bd
       0.14488858 0.08350549 -0.02388614 -0.073442005
000320 c0 c4 8c bd 5a 01 34 3e ca 9c b9 bc 61 27 2c be
       -0.068734646 0.1757864 -0.02265777 -0.16811897
000330 a5 9c b2 3d c7 de ab bd 10 14 aa bd f1 76 d5 3d
       0.08721284 -0.08392101 -0.08304608 0.10423077
000340 c3 5c 17 bd 44 6f 48 3e 9a df 0b be ea d6 bb bd
       -0.0369537 0.19573694 -0.13659516 -0.09171851
000350 d9 e8 1e 3e 76 88 25 be e9 b5 f6 bd b2 37 c2 3d
       0.15518512 -0.16165337 -0.12046415 0.09483279
000360 b4 00 63 3c 74 6d fb 3d 36 d5 ad 3d df 21 1d be
       0.013855148 0.12276736 0.084879324 -0.15344952
000370 47 94 33 bd 28 5d 3f 3e 3c 64 01 3e 2f 4f 1f 3e
       -0.04384258 0.1868788 0.12635893 0.1555755
000380 52 4d 53 3e 89 48 b2 bc f2 ef 15 3d b2 2d 5c 3e
       0.20634964 -0.021763103 0.036605783 0.21501806
000390 37 ec c0 bd cb 92 39 3e e3 4b 5f bc 25 b9 12 3e
       -0.094200544 0.18122403 -0.013628933 0.1432844
0003a0 00 c2 e5 bd c9 53 56 3e e2 e0 9a 3c 75 8a f7 3d
       -0.11218643 0.20930399 0.01890606 0.120869555
0003b0 dd a9 fc 3d 2a 73 4a 3e 9f 86 f5 3c 7d 8e 5a 3e
       0.12337086 0.19770494 0.029971419 0.21343417
0003c0 f0 cc 21 3e b1 a8 4b be ed 97 3c be 4e 93 d4 bc
       0.15800834 -0.1988857 -0.1841733 -0.025949147
0003d0 d5 d2 38 be 82 69 14 3d ca d4 ff bd cd fc 3c 3e
       -0.18049176 0.036233433 -0.12491758 0.18455811
0003e0 ff 6d ad 3c 0a e6 1a 3e c3 47 ed bd f9 94 b9 bc
       0.021170614 0.15126815 -0.11585953 -0.022654044
0003f0 b8 d9 44 3e fb 9a 6d bd 63 21 1d bd b0 fb 18 bd
       0.19223678 -0.05800913 -0.03836192 -0.037349403

conv2.bias f4 [64]
000000 6c 46 8e 3a 4c 5c 29 39 ca d2 1e bb 6a 51 24 3c
       0.0010854728 0.00016151479 -0.0024234527 0.010029176
000010 cd 03 48 ba 4c 9c b8 ba 12 66 12 3a a5 53 a4 3a
       -0.0007629961 -0.0014084666 0.00055846677 0.0012537135
000020 42 27 83 3a 7c 22 4d bb 0e a0 27 3a 73 68 f0 39
       0.0010006207 -0.0031301072 0.00063943944 0.00045854188
000030 d6 3b 85 b9 29 15 19 3b 90 2d 8e 3a f0 fc e5 3b
       -0.00025412318 0.002335856 0.0010847319 0.007018678
000040 76 48 a7 b9 f2 dd 11 3b 7b 9e a5 3a d4 9e 08 ba
       -0.0003190671 0.0022257534 0.0012635732 -0.00052116555
000050 e2 a7 73 3a d4 20 5c ba 27 91 72 3a 69 73 55 3b
       0.0009294731 -0.0008397226 0.0009253197 0.003257001
000060 07 dd 65 3b d1 5c 25 3a 3d bf 9e 3a 4f a2 94 3b
       0.003507437 0.0006308081 0.0012111437 0.0045359503
000070 46 cf 01 ba 3f 18 a1 b9 5f 00 02 bb db d5 b8 3a
       -0.00049518456 -0.00030726378 -0.0019836647 0.001410182
000080 e2 a6 23 3b c0 3f a0 39 ee f7 ca b9 37 3f 13 3b
       0.0024971296 0.00030565076 -0.00038713164 0.00224681
000090 0c 82 34 ba 41 4c 16 b9 e3 52 59 3b 35 19 00 3b
       -0.00068858336 -0.00014333522 0.0033160977 0.0019546275
0000a0 2d 46 db 39 21 f1 96 3a 8e 51 0e 3c 0f d1 3a ba
       0.0004182322 0.0011515954 0.008686436 -0.0007126489
0000b0 2e 47 92 3b 06 80 c7 3a aa 28 09 bc 29 15 3d 3b
       0.0044640517 0.0015220649 -0.0083715115 0.0028851724
0000c0 06 de 42 3b d5 67 c5 38 2c 2a 34 ba 73 58 13 3b
       0.0029734387 9.413032e-05 -0.0006872739 0.002248314
0000d0 0f 7e 0b ba b6 12 a4 ba 26 15 a0 bb b7 60 ed 3a
       -0.00053212134 -0.0012517783 -0.0048853336 0.0018110488
0000e0 11 3c 12 3b 4a 3c 79 3b 46 9e 39 b9 1c 68 fe 3a
       0.0022313634 0.003803032 -0.00017701936 0.0019409689
0000f0 b4 58 34 bb 1f c5 18 bb 3a 94 67 3a 09 09 bf ba
       -0.0027518691 -0.0023310853 0.0008834038 -0.0014574836

conv3.weight f4 [64, 64]
000000 5e 9b ef 3c df d0 2a bd a1 e1 26 be e7 92 92 bd
       0.02924889 -0.0417031 -0.16297008 -0.07156926
000010 f4 12 8b bd cb a5 4c be fd 2a 17 be 11 19 56 3e
       -0.067907244 -0.1998512 -0.14762492 0.20908
000020 c7 f5 a0 3d e8 68 97 bd 12 07 25 3e 63 fd c7 bc
       0.07859378 -0.07393056 0.16115978 -0.024412816
000030 d5 56 93 bd 5f 97 d9 bd 7b 3a 31 3e 70 fd 27 3d
       -0.07194296 -0.10624575 0.17307465 0.04101318
000040 8e a8 a9 3b 08 35 54 3e e6 11 13 be bb 71 36 3e
       0.005177564 0.20723355 -0.14362296 0.17816822
000050 d0 b4 93 3d 9b 73 01 3e 9b c1 2c 3e a6 88 92 bb
       0.072122216 0.12641756 0.1687073 -0.004471856
000060 88 b5 64 bc e2 aa 30 3e 97 e5 22 be bb af c7 3d
       -0.013959296 0.17252687 -0.15907894 0.09750315
000070 12 5c 73 bc 84 9c 00 be e3 02 e5 3d fd c9 26 be
       -0.014853494 -0.12559706 0.11182191 -0.1628799
000080 70 82 2f be 94 da 40 3d aa 1b 7d 3d a6 81 20 3e
       -0.17139602 0.047083452 0.06179396 0.15674457
000090 d3 11 0f 3b 73 70 33 3e 93 b9 cd 3d ed 63 46 bd
       0.0021830692 0.17523365 0.10045161 -0.04843514
0000a0 03 d5 08 3e 1d 4a 2b be a0 75 6d 3d ad 0a ba 3c
       0.13362508 -0.1672749 0.057973504 0.022710169
0000b0 06 34 56 3e e1 44 95 bd 5b 1c 38 be a1 29 46 be
       0.20918283 -0.07288528 -0.17979567 -0.19351818
0000c0 41 2a 53 3e ea ae 8f bd 29 a9 ed 3c eb 7a c7 bd
       0.20621587 -0.07015784 0.029011326 -0.097402416
0000d0 6e 4a 2d be f2 a0 8f bd 65 f7 20 be 1f 5c 45 3e
       -0.16922924 -0.0701312 -0.15719374 0.19273423
0000e0 48 ad c2 bd 0c ca 09 3e a5 0a 4d 3e 2c 7e b4 bd
       -0.09505707 0.13455981 0.20023592 -0.08813128
0000f0 c5 f7 cd bd a3 c3 9b 3c 24 ba 9d ba 47 7e e8 bc
       -0.10057024 0.019014185 -0.0012033624 -0.028380526
000100 4f 69 89 bd cb 52 bc bd ce 40 73 3d e2 c6 cf bd
       -0.06709539 -0.09195479 0.059387974 -0.10145356
000110 e2 77 22 be cb 19 2c be 7d be 1b bc 76 63 f0 3d
       -0.15866044 -0.16806714 -0.009505865 0.11737721
000120 0e 3b 44 3d 38 98 48 3e e5 cf 4b bb 30 fb 18 bd
       0.04790788 0.19589317 -0.0031099257 -0.037348926
000130 63 95 a5 3d a9 94 5b 3d c7 be 68 3d cc 38 7d bd
       0.08085134 0.05360857 0.056822564 -0.061821744
000140 d7 47 01 be 8a 63 18 3e 0e bd 59 be a5 43 4e 3d
       -0.12625061 0.14881721 -0.21263525 0.05035748
000150 4a eb 14 3e c5 06 1b be a0 81 d1 bd 27 ea ea bd
       0.1454288 -0.15139301 -0.10229802 -0.11470442
000160 87 50 4a 3e 69 db 19 3e 1d b2 4c 3e 64 08 4b 3d
       0.19757281 0.15025105 0.1998982 0.04956855
000170 12 30 78 3c 7d 6f 4a be 0a cb 27 be b3 30 35 bd
       0.01514818 -0.19769092 -0.16386047 -0.044235896
000180 75 3a 9a 3b bd 3b 3b be b8 30 49 3b 9e 42 0b 3e
       0.0047066757 -0.18284507 0.0030699205 0.13599631
000190 5a ba 43 3c 42 6f cb 3d a2 90 48 3e 84 e0 e4 3d
       0.011946285 0.0993333 0.19586423 0.111756355
0001a0 17 9d 8e bd 90 f6 1d 3d 80 e7 17 be 01 d7 fe bd
       -0.06963556 0.03856522 -0.14834404 -0.124433525
0001b0 b8 51 3a 3e 7d de 04 3e c7 74 2e be f8 de 50 3d
       0.18195236 0.12975498 -0.17036735 0.05099389
0001c0 8a d4 1b 3e ed 91 6b 39 d8 c1 0f bd bf 1c af 3d
       0.15217796 0.00022465708 -0.035096973 0.08550405
0001d0 ec 6b 38 3e 52 57 2a be 11 6e 56 3e 3b 10 5a 3c
       0.18009919 -0.16634873 0.20940425 0.013309534
0001e0 d6 9e 21 3d ad ca 42 3e a6 52 9f 3d ae a1 4e be
       0.03945812 0.19022627 0.07779436 -0.20178863
0001f0 46 2e c7 3d 4c 1c 3b 3e db cf cc 3d 88 19 48 3e
       0.09725623 0.18272513 0.10000583 0.1954099
000200 11 ed 5c 3e 5b 5b cd 3d 18 2c 0e 3e da cd 1d 3e
       0.21574809 0.1002719 0.13884008 0.15410557
000210 57 55 e7 3d ae 53 8a 3d 8d ca eb 3d 4f 23 f7 bd
       0.11295574 0.06754242 0.11513243 -0.120672815
000220 14 2a 5a be 97 d4 90 bd 7b 8c c1 3d 6b c2 e5 bd
       -0.21305114 -0.07071798 0.09450623 -0.11218723
000230 ed 0d 3c 3e d7 2f 73 bd ad 07 3a be 48 e8 de bd
       0.18364687 -0.059371796 -0.1816699 -0.10884148
000240 38 ba 3e be 41 ff 97 bd 5f 08 95 3d c8 f9 cf bd
       -0.18625724 -0.07421733 0.07276987 -0.10155064
000250 00 74 31 be 09 b8 49 3d 0b ca 86 bd 49 eb 71 bd
       -0.17329407 0.049247775 -0.065815054 -0.059062276
000260 bd aa c2 3d 68 99 1c 3d b7 ee 4d be d8 2c 2e 3c
       0.09505222 0.038232237 -0.20110594 0.010630809
000270 01 24 7f bc a4 ca 88 3d 45 8b 36 3e 9e 10 a1 3d
       -0.015572549 0.06679276 0.17826565 0.078644976
000280 66 af 55 be a1 a4 82 bd f6 ed 9d 3d 7b 03 de 3d
       -0.2086769 -0.06379057 0.07711403 0.108405076
000290 1e 5a f8 3d 26 73 40 be 8d 4c af bd 10 70 e0 bd
       0.121265635 -0.18793926 -0.08559523 -0.10958874
0002a0 06 61 c9 bd 84 29 66 3d 1a 78 51 be a1 62 f3 3d
       -0.09832959 0.056191936 -0.20455971 0.11884046
0002b0 5c b6 27 3e 4b 37 58 3e e3 b2 54 be 39 b5 51 bd
       0.16378158 0.21114843 -0.20771365 -0.051198218
0002c0 5a 34 2a be 96 dd 52 3c 8b 5b 45 3d db 98 6a 3d
       -0.16621533 0.012870213 0.048183005 0.05727468
0002d0 79 46 20 bd b8 e2 2d bb 2d 4d 3a be 80 42 3c bd
       -0.039129708 -0.002653284 -0.18193503 -0.045961857
0002e0 a6 2f 22 be 33 c2 fd bb d8 dd cc bd 6b 91 ec bd
       -0.15838489 -0.0077440976 -0.10003251 -0.11551174
0002f0 67 35 4e 3e 00 00 15 bd 00 25 fd bd 5e e5 60 be
       0.20137559 -0.036376953 -0.12360573 -0.21962497
000300 9b 0a 4c 3e cd 48 95 bd 76 87 a7 bc cd fb 32 be
       0.1992592 -0.07289276 -0.020450335 -0.17478867
000310 16 da f4 bd 8a 03 f3 3d 5e 5b b2 bd d2 72 a6 3d
       -0.11955659 0.118659094 -0.08708833 0.08127369
000320 7e a0 ed bd ba 3c 47 be 03 6f 0b 3e b8 c2 fa 3d
       -0.11602877 -0.19456759 0.13616566 0.12244171
000330 3c dd f2 bd b7 b4 e7 bd 5e 93 77 3d e9 58 1d 3e
       -0.11858603 -0.113137655 0.060443275 0.15365948
000340 55 42 0f be 16 93 c0 bd 58 e2 09 be 11 8b c6 3d
       -0.13990147 -0.094030544 -0.1346525 0.096944936
000350 05 8f 68 bd 67 d1 a9 bc 25 3e 9e bd 10 67 15 be
       -0.05677702 -0.020729734 -0.07726697 -0.14590096
000360 e0 85 a0 3d 93 7f 01 3e 77 11 58 bd 1a 84 f4 3d
       0.07838035 0.12646322 -0.05275103 0.11939259
000370 2d d9 12 bd 6c e4 25 be 11 0f 0c be 5d f1 43 bd
       -0.035851646 -0.16200417 -0.13677622 -0.047837604
000380 7e 20 e8 3d 06 12 48 be da 8e 31 3e 7e ad 2f 3e
       0.113343224 -0.19538125 0.1733965 0.17156026
000390 1a 60 42 3e 4b ba 3b 3e 4e 34 52 3e 25 cc a2 3d
       0.18981972 0.18332784 0.20527765 0.07949094
0003a0 4c 6c 8e bd dd c9 60 3e d8 39 28 be 2c b0 cf bc
       -0.0695425 0.21952005 -0.16428316 -0.02535256
0003b0 dd 56 b1 3a 40 3c c0 3d a7 4a 39 3e 7a 8c 33 be
       0.0013529916 0.09386492 0.18094884 -0.17534056
0003c0 b3 98 06 3e 06 af aa bd 36 fc e0 bd f8 7e 52 be
       0.13144188 -0.08334164 -0.109856054 -0.20556247
0003d0 b3 03 49 be 0e be e5 bc 28 f3 60 3d c6 a1 4b be
       -0.19630317 -0.028044727 0.054919392 -0.1988593
0003e0 e0 90 1c 3a 80 0e 03 3e 56 21 83 3d 12 10 f1 3d
       0.0005972516 0.127985 0.06402843 0.11770643
0003f0 61 95 42 3e 64 1c 2d 3e bf 8b 9c 3d a3 89 c0 bd
       0.19002296 0.16905361 0.07643842 -0.09401252

conv3.bias f4 [64]
000000 ed d4 6e bb 4c 11 0d 3b 5c 4d 7b 3a 39 c1 1c 3a
       -0.0036442832 0.0021525202 0.00095864176 0.000597972
000010 e2 c8 b6 ba 1e 99 03 b9 75 61 3c 3a 0a 25 9a 3b
       -0.0013945366 -0.00012550174 0.0007186153 0.0047041224
000020 ac 47 f9 39 b6 6c 2e 3b c8 9b 3c 3a 89 ef d1 3b
       0.0004754638 0.002661509 0.0007194844 0.0064067286
000030 ee 34 d3 3b 36 a9 b4 38 a2 1c c6 ba a0 0d 29 3a
       0.0064455187 8.614587e-05 -0.0015114734 0.00064488687
000040 1b 8f 12 3a de 2f bb 3a 6c 7d 2b 39 ab 8c da 3a
       0.00055907824 0.0014281233 0.00016354554 0.0016674002
000050 46 78 8b 3a 1b d2 b8 ba f2 5e 6a bb 1b f5 59 3b
       0.0010640703 -0.0014100702 -0.0035762158 0.0033257667
000060 8e 46 4f bb d9 60 d3 3a 10 8b a6 3a e2 39 0a bb
       -0.0031627747 0.0016126885 0.0012706239 -0.002109163
000070 64 dc a2 3b 76 fb d9 39 01 f8 2e ba f9 28 54 3a
       0.0049701203 0.00041576818 -0.00066745287 0.00080932636
000080 95 ad d8 ba 46 01 7b 3b 9d ec c9 3b e4 5a 64 3a
       -0.0016531224 0.003830032 0.0061622397 0.00087110535
000090 07 7b a1 ba cc 62 3a 3a 27 1e 44 ba 11 43 e5 3a
       -0.001231999 0.0007110059 -0.00074812997 0.0017491301
0000a0 00 e4 0a bb ed 53 37 3a f3 f3 eb ba 3c 03 84 3b
       -0.0021193027 0.0006993402 -0.001800178 0.004028706
0000b0 b7 f0 a9 b9 fe c1 d7 ba 6f 5a 32 3a b8 31 fc b9
       -0.00032413538 -0.0016461012 0.0006803637 -0.0004810223
0000c0 37 27 1d 3a ae 78 02 3c 8d a8 87 ba 91 3d d1 3b
       0.0005994918 0.007963343 -0.0010349915 0.006385513
0000d0 2c 80 3c 3a 51 bd 7a b9 b1 1e 8c 39 b3 fa 3e ba
       0.000719073 -0.00023912384 0.00026725748 -0.0007285282
0000e0 94 ef c2 ba e2 f7 14 3b 18 4d ae 39 0d e9 98 39
       -0.0014872425 0.0022730757 0.00033245306 0.00029165336
0000f0 1e 92 3f 3b 4f f9 8f ba a3 92 b1 3a e1 80 6a 3b
       0.002923138 -0.0010984334 0.001354773 0.0035782384

fc1.weight f4 [128, 192]
000000 8e c3 95 3d 16 8c 84 bd b2 ce f2 bc b1 e8 b2 bb
       0.0731269 -0.06472032 -0.029639576 -0.005459868
000010 9b 88 38 bd 79 14 44 bd fa 3f 95 3d 7c ae 14 bc
       -0.045052152 -0.047871087 0.07287593 -0.009074803
000020 2f f5 f5 bc 76 11 77 bc 6e b2 86 bd 61 ec 3b 3d
       -0.03002414 -0.015079847 -0.065770015 0.045879725
000030 f2 7c d3 3b d6 b4 e2 bc 1c 0f 65 3c 67 10 a8 bc
       0.0064541036 -0.02767412 0.013980653 -0.020515634
000040 9a 63 85 bd 37 b9 20 bd 26 63 a8 3c c9 96 aa 3b
       -0.06513138 -0.039239135 0.02055509 0.0052059633
000050 f5 7b d3 bc da 83 91 3c 5e da 5e 3d ee 5b c6 bb
       -0.025815943 0.017763067 0.05440747 -0.0060534393
000060 3d 37 71 3d 0f 0c 01 bd aa 1f 82 3d e6 be 88 3d
       0.05889057 -0.03150564 0.06353696 0.06677036
000070 d7 03 01 3c 97 3a 89 bd 1a 08 cd bc a3 65 d3 3c
       0.007874451 -0.06700628 -0.025028277 0.0258053
000080 c6 98 99 bb 5f 4c 95 3d 84 bd 4f 3d 76 87 be bc
       -0.0046874015 0.07289957 0.050717846 -0.023257952
000090 88 ca b7 bc a6 d8 8f 3d 49 21 06 bd 83 f9 09 3d
       -0.022435442 0.07023744 -0.032746587 0.03368522
0000a0 35 b8 82 bd c4 4b 80 bd 71 be 96 bd 23 1d de bc
       -0.06382791 -0.06264451 -0.073605426 -0.027113503
0000b0 a5 5e 65 bd 9e c6 4e bd 19 53 10 bd 04 26 7a bd
       -0.055998463 -0.050482385 -0.035235498 -0.06107141
0000c0 d7 8d 67 bd de ad 35 3d c3 76 17 bd 7b 22 82 3d
       -0.056531753 0.044355266 -0.036978494 0.06354233
0000d0 01 fc 6a bd fb 94 77 bc 4b 32 2a 3d 04 db 2c 3d
       -0.057369236 -0.015111203 0.04155187 0.042201057
0000e0 30 ac 27 3b 19 a1 2f bd 9d 18 f7 3c 0c 5f 92 bd
       0.002558481 -0.042878244 0.030163104 -0.07147035
0000f0 c5 11 ef bc c6 2c 17 3c 92 15 f5 3c d8 c4 d2 3a
       -0.029183278 0.009226983 0.029917512 0.0016080393
000100 de 19 89 3d a7 31 0b 3d e0 aa 3e 3d a7 7e 02 3d
       0.06694387 0.0339829 0.046549678 0.031859066
000110 8a 5f 03 bd eb 27 8e 3c 58 70 01 bd c9 87 82 ba
       -0.032073535 0.017353019 -0.03160128 -0.000995868
000120 14 d2 bd 3c 69 91 14 bd 7f 7d cf 3b a1 66 3d 3d
       0.023171462 -0.036271486 0.006332099 0.046240453
000130 80 4c 96 bd 13 cc 39 3d f7 34 8b bd 00 8f 0e bd
       -0.0733881 0.045360636 -0.067972116 -0.034804344
000140 49 10 27 3d 9f 60 fb 3c cf 42 bf bc 2a 0b b7 bc
       0.040787015 0.030685721 -0.023347287 -0.02234419
000150 c5 da 19 3d 17 af 00 bc 40 5e 42 3d 8c 93 7d bc
       0.03756215 -0.007854245 0.047453165 -0.015477072
000160 03 2e 27 3d 0f 60 6c bd f7 8d df ba ac 4f de 3b
       0.040815365 -0.057708796 -0.0017055859 0.0067844
000170 eb 7d 7f 3d 28 47 86 bd cd af 68 3d a9 83 e6 bc
       0.062375944 -0.06556541 0.05680828 -0.028138952
000180 56 6d c1 bc 15 8a bc 3b 36 05 84 bd 99 c9 28 bd
       -0.023611706 0.0057537653 -0.064463064 -0.041207884
000190 a3 79 8f bd 0e ce fb bc 1b 3c 8a 3d 26 f1 04 3d
       -0.07005622 -0.030737903 0.067497455 0.03245654
0001a0 a8 4f 34 3c 75 90 6e 3c 3a 1c 0c bd 00 e6 93 3d
       0.01100532 0.014560808 -0.034206606 0.072216034
0001b0 76 cb 98 3c 60 7b b9 3c ee ee ac bc b7 bf 49 3c
       0.018651705 0.022641838 -0.021110024 0.012313775
0001c0 4f 5f 6d 3d 0e 16 3f 3d 01 85 c9 3c bf a6 4e 3d
       0.05795222 0.046651892 0.024599554 0.05045199
0001d0 9b 91 ae 3c f2 5c c2 3c b1 03 72 3d 7e ef e3 3c
       0.021309664 0.02372596 0.05908555 0.02782416
0001e0 8f 0d 5a 3d d8 69 f8 3c 49 e7 e3 3c 79 60 59 bc
       0.053235587 0.030323908 0.027820246 -0.01326763
0001f0 66 ed 97 bc d6 49 85 bd 50 43 2b bd dd 01 8b bd
       -0.018545818 -0.06508224 -0.04181224 -0.06787465
000200 7b 53 5e bd 7b 13 a5 bc 9a e1 85 bc 30 6c 80 3d
       -0.054278832 -0.02015089 -0.016342927 0.06270635
000210 50 a2 61 bd dc 00 13 bc 28 33 af 3c 6e 06 13 bd
       -0.055086434 -0.008972373 0.021386698 -0.035894804
000220 b4 ec 42 bd 39 3f 4d 3d cb 30 e1 3b d6 55 bd 3b
       -0.04758902 0.050109122 0.0068722717 0.0057780547
000230 c9 f9 77 3c d7 af 8f 3d 79 a6 dd bb 07 15 0b bc
       0.015135237 0.07015961 -0.00676423 -0.0084889
000240 30 fe 09 bc 65 2f 15 3c 68 d5 07 3c 24 1f 7a 3d
       -0.008422419 0.009105538 0.008290626 0.061064854
000250 ad 5c c6 3c 71 02 84 3d d0 dc 51 3d e7 e8 13 bd
       0.024214113 0.06445778 0.051235974 -0.036110785
000260 36 2f 7c 3d 9e 4b 5b bd 0b 07 dc bc 3d ad 1e bd
       0.06156846 -0.05353891 -0.026858827 -0.03873943
000270 f8 76 36 bd a5 eb 49 bd 1e 80 7d bc 00 d0 45 3d
       -0.04454705 -0.049296994 -0.01547244 0.048294067
000280 1e cc 1f bd 45 ea ef 3c 8f 13 c2 bc de 9c c7 3c
       -0.03901302 0.029286513 -0.023690967 0.024366792
000290 ca 66 03 bd 8e 23 3a bd 33 7d 6f bc 6f 26 c5 3b
       -0.03208045 -0.045444064 -0.014617252 0.0060165445
0002a0 4b d3 5a 3d 12 28 de ba 51 10 8e 3d 02 fe 40 3b
       0.05342416 -0.0016949198 0.06936706 0.0029448275
0002b0 2e fb 80 bd 82 e1 22 3c 0b 82 8f 3c f4 68 50 3c
       -0.06297909 0.009941461 0.017518064 0.012720335
0002c0 e5 bd 51 3d af b5 18 bd 2a 86 95 bc b4 ab e6 3b
       0.05120649 -0.037282642 -0.018252451 0.0070395116
0002d0 33 24 07 3d 4e 51 1b bc 95 86 42 bd 29 12 81 bc
       0.032993507 -0.009479834 -0.04749163 -0.01575573
0002e0 f1 c4 8c 3d 49 73 a6 bc b1 04 84 3d ee 03 27 3d
       0.06873501 -0.020318644 0.06446207 0.040775232
0002f0 a5 2f 39 3d a5 85 62 3d a8 33 83 bd d5 6c 83 bd
       0.045211453 0.055303235 -0.06406337 -0.064172424
000300 3d 2b 12 3d 59 11 70 3d b6 95 a6 bb 51 6d 9c 3c
       0.035685766 0.058610294 -0.005083765 0.019095095
000310 29 3e 92 3c b5 af aa bc 48 79 3e bb ce a3 b8 3c
       0.017851906 -0.020835737 -0.0029063988 0.022539046
000320 6d 10 ea bc 7e 96 93 bc 80 ee 7b 3d 3a 81 d6 ba
       -0.028572286 -0.018016096 0.06150675 -0.0016365417
000330 4e 84 57 bd 21 60 2e 3d 8f 87 f6 bc 93 4f 1d bd
       -0.05261641 0.042572144 -0.030093936 -0.038405966
000340 cb 21 7a 3d 29 0f c2 bc 20 97 bf bc ac cc 29 3d
       0.061067384 -0.02368887 -0.023387492 0.041454956
000350 eb 6b 26 3d 1a 10 b1 3b cc 23 4f 3c 26 c7 2a bd
       0.040630262 0.005403531 0.012642812 -0.04169383
000360 39 83 8b bd 14 6e 89 3c 26 74 94 bb 51 dd 45 3c
       -0.06812138 0.016776122 -0.0045304475 0.012076692
000370 b8 f8 8e 3d 2c e6 14 bc ca af 14 3d 4c af 16 3d
       0.06981033 -0.00908808 0.036300458 0.03678827
000380 9f 2b 5f bd d6 16 be bc d2 ee 89 3d a0 67 09 ba
       -0.05448496 -0.023204248 0.067350045 -0.00052415766
000390 e4 70 56 3c e3 3f 3a bd a8 5c c3 3b 68 72 9a 3c
       0.013088439 -0.045471083 0.005961973 0.018853381
0003a0 d3 55 a1 bc 10 03 69 3c 5e eb 69 3c 0f c0 24 bc
       -0.019694244 0.014221922 0.014277307 -0.010055556
0003b0 25 72 81 bd 2d e3 d1 3c eb fe 5a 3d c1 88 69 3d
       -0.063205995 0.025621021 0.053465765 0.057015184
0003c0 24 0b 61 bd e7 ff 49 bd e3 f7 32 3d de 5f 86 3d
       -0.054942265 -0.049316313 0.043693434 0.06561254
0003d0 31 04 ed 3c 84 d8 8e 3a 71 8d b3 bc 28 ce 8f 3b
       0.028932663 0.0010898267 -0.02191803 0.0043885894
0003e0 ef b1 70 3d b0 54 5c 3c 8b 61 37 bd 6a 52 82 bc
       0.05876344 0.013447925 -0.04477076 -0.015908439
0003f0 ae 50 65 3c 6f 31 2b 3c 1a a6 99 bc 59 ba 79 3b
       0.013996286 0.010448798 -0.018755961 0.0038105457

fc1.bias f4 [128]
000000 58 99 33 bd 0e dc 79 3c 8b 1a dd bc 4c 4c 8f 3d
       -0.043847412 0.015250219 -0.026990196 0.06996974
000010 08 b3 9f 3c 09 b5 45 3d 35 1d 03 bb 40 f1 1b 3c
       0.019494548 0.04826835 -0.0020006422 0.009517968
000020 52 77 02 3d 88 97 67 3c fd 1a dc bb 74 20 6b 3d
       0.031852074 0.014135249 -0.0067170844 0.057403997
000030 40 d9 3f bd 12 5a 4a 3d f4 52 e5 bc 42 81 a6 bc
       -0.046838045 0.049402304 -0.027993657 -0.020325307
000040 0a 53 81 3a 61 96 7b 3d 51 bb 4d 3c 9d 6a d9 bc
       0.0009866667 0.06142271 0.012556867 -0.026540095
000050 6d e9 2d 3d b9 c4 17 bd 3f eb 11 3c 35 74 81 3c
       0.04245894 -0.037052844 0.008906185 0.015802482
000060 9a aa 69 3d 25 37 51 3d a3 d6 d4 bb 78 fa 60 bd
       0.057047464 0.05107798 -0.0064953133 -0.054926366
000070 57 c6 53 3c 11 1e 7e 3d 4c 2f 3e 3d 99 e4 c2 bb
       0.012925706 0.062040392 0.046431825 -0.005947661
000080 50 e1 8e 3d d9 3b b5 bc ed ea 58 3d a1 c9 0e 3d
       0.06976569 -0.022123264 0.052958418 0.034860257
000090 c8 33 81 3d a5 5a 83 bd 3f 7c 1e bd 89 4b d0 3c
       0.063087046 -0.064137734 -0.03869271 0.025426643
0000a0 dd f4 9a 3d 58 b2 27 3c 9b ac 59 3d f8 65 1e 3d
       0.07566235 0.010235392 0.053143125 0.038671464
0000b0 0a 0a 3a 3d 20 bc 82 bd 49 d1 83 bd 38 d5 76 bd
       0.04541973 -0.06383538 -0.06436402 -0.060261935
0000c0 9c 1b a0 bb e9 ec d1 3c 48 2f 33 3d cc 15 18 bd
       -0.004886104 0.025625663 0.043746263 -0.037130162
0000d0 ba fd 76 bb 06 55 20 3d a9 ac 51 bd ca 67 f9 3c
       -0.0037687854 0.039143585 -0.051190052 0.030444998
0000e0 eb a1 e9 bc c4 f4 48 3d ef 47 3f bd 02 04 34 bd
       -0.028519591 0.04906155 -0.04669946 -0.043949135
0000f0 50 cf c3 3b d3 85 0e bd 2d e6 19 bd 41 8a b6 3c
       0.0059756413 -0.034795593 -0.03757303 0.022282721
000100 03 73 9e 3d 75 6a 78 3d a0 ac a3 3c 5a b5 99 3c
       0.077367805 0.0606484 0.019979775 0.018763233
000110 fd 20 e8 bb d1 ab d5 bc 7d b1 d5 bb 7f eb 6a bd
       -0.0070840106 -0.026082905 -0.0065214024 -0.057353493
000120 5b 2d 8d 3c 3e 86 84 bd 90 81 38 bd a8 51 8c 3c
       0.017233541 -0.06470917 -0.045045435 0.01712878
000130 7d 42 90 3d cf 7c 1c 3d 49 9d e5 bc 8c 5b 4a bc
       0.07043932 0.038204964 -0.028029101 -0.012350928
000140 34 f2 c8 bc ec 31 b3 3c c6 d7 66 3d 48 4c 2a 3d
       -0.024529554 0.02187439 0.05635812 0.041576654
000150 f1 b0 20 bc e9 43 19 bd f5 c2 28 3d e0 39 51 3d
       -0.009807811 -0.03741828 0.04120155 0.051080585
000160 bf 33 39 3d 09 b0 83 bd ec 70 6c bd e3 c5 63 bd
       0.045215365 -0.064300604 -0.05772488 -0.05560864
000170 84 b5 2d 3d 7a 97 60 bd 61 12 82 3d f5 3f b5 3c
       0.042409435 -0.05483196 0.06351162 0.022125224
000180 c7 8d 4c bd 86 87 67 3d 6e ed 54 bd 2a 45 f7 bc
       -0.049939897 0.05652573 -0.051984243 -0.030184347
000190 f5 0f 61 3d 3e 4c ca bc 6d 40 3a 3d b3 44 8d 3c
       0.05494686 -0.024694558 0.045471597 0.017244672
0001a0 5e b1 23 3d 8e 7d 83 3d 20 1b 92 3c 7d 3f 4b bd
       0.039964072 0.06420432 0.0178352 -0.049621094
0001b0 fa 09 40 3d 17 99 32 3d ec 90 90 3d c8 48 74 3d
       0.046884514 0.04360303 0.07058892 0.059639722
0001c0 7a 4e 59 bc 45 4e 38 bd 70 de 54 bd 88 fc c7 bc
       -0.013263339 -0.04499652 -0.051969945 -0.024412408
0001d0 ea e0 0f bb e3 7f 4a bd 24 93 bb bc 06 38 45 bc
       -0.0021954128 -0.04943837 -0.02289731 -0.012037283
0001e0 64 f8 12 3c b3 0b f9 bb b0 c9 f0 bc 4f 56 31 3d
       0.008970354 -0.0076002716 -0.029393047 0.0432952
0001f0 d1 5f 5b bd 63 7a 8a 3c 84 08 36 3d 9e fc 83 bc
       -0.053558175 0.016904062 0.044441715 -0.016111668

fc2.weight f4 [64, 128]
000000 28 8a c5 bc 04 14 e0 bc b5 6a a2 3d ad 71 94 3d
       -0.02411373 -0.027353294 0.07930509 0.072482444
000010 b3 4b 77 bd 50 de b9 3c 9c f6 3c bd e2 42 5a 3d
       -0.060374927 0.022689015 -0.046133623 0.05328644
000020 0e 39 3a 3d e6 1b 66 3d 0a af 88 bd e0 a9 27 3c
       0.045464568 0.05617895 -0.06674011 0.010233372
000030 58 11 75 bd 1c ce e1 bc 80 8e 84 ba 80 db b9 3a
       -0.059830993 -0.0275641 -0.0010113269 0.0014179796
000040 f4 d4 9a bc 45 15 a1 3d 2e b5 81 bd 72 e0 0e bd
       -0.018900372 0.07865385 -0.063333854 -0.034882016
000050 67 41 79 bd 62 62 5f 3d c0 13 8d bd 8d 5c a7 3d
       -0.06085339 0.054537185 -0.06888533 0.081719495
000060 f2 1d 82 bd 50 6a 5c bd b4 a9 9b bc 46 2d b1 bd
       -0.06353368 -0.053812325 -0.01900182 -0.08651213
000070 f2 f5 4a 3d 64 f7 89 bc f6 be 54 3d ac cc 99 bc
       0.049550958 -0.016841598 0.051939927 -0.018774353
000080 b7 5f a9 3d b0 75 c7 bb b0 c9 20 3c 96 26 97 bd
       0.08270209 -0.0060870275 0.009813711 -0.073804066
000090 17 5b a6 3d 56 7d 42 3d e0 92 05 bc 08 dd 30 bc
       0.08122843 0.04748281 -0.0081526935 -0.010794885
0000a0 2e d4 d6 bc a8 e6 26 bc 85 d8 86 3d 53 ed 81 bd
       -0.026224222 -0.010186829 0.065842666 -0.06344094
0000b0 28 73 17 bc 3c b6 a0 3c ab db 5f bd 68 58 38 3c
       -0.009243764 0.019618146 -0.05465285 0.011251546
0000c0 e0 2b 46 3b b2 84 97 bd 5d 59 91 3d 55 a8 b1 3d
       0.0030238554 -0.073983565 0.07097123 0.08674685
0000d0 92 ba 28 3d 50 2e e0 bb f8 2c 75 3c 35 2c 82 bd
       0.041193552 -0.0068414584 0.014964335 -0.06356088
0000e0 10 05 ba 3b 14 b1 a8 bd 84 7e 89 bd 34 eb 0d 3d
       0.005676873 -0.082369 -0.06713584 0.034648135
0000f0 80 a0 74 bb 49 28 86 bd fd af 97 bd a6 70 25 3d
       -0.003732711 -0.065506525 -0.07406614 0.040390633
000100 d6 8f a9 bd 90 6e 59 bc 8b 35 50 bd 7b 03 84 3d
       -0.08279388 -0.013270989 -0.050832313 0.06445976
000110 e4 11 8b 3c c2 87 46 3d 48 c0 40 3c 09 36 8b 3d
       0.016976304 0.048469312 0.011764593 0.06797416
000120 b4 08 d2 bc e8 7b d9 3c 3f 2a 81 bd da 1f e1 bc
       -0.025638916 0.02654834 -0.06306886 -0.027481008
000130 9a 8c 44 bd 4e f6 4c 3d 9b fe 88 bd fc c1 8a bd
       -0.04798565 0.050039582 -0.06689187 -0.06775281
000140 48 63 9c bc 98 5b 9f 3c 27 a5 99 bd c0 d0 d4 3b
       -0.01909031 0.019452855 -0.075022034 0.0064946115
000150 c8 f9 fc 3c 8e 7f 74 bd 20 6d 43 3c da 31 1a 3d
       0.030880824 -0.059691958 0.011927873 0.0376452
000160 b4 ab 93 bc 40 67 16 bc 68 8e 98 bd 00 62 74 b9
       -0.01802621 -0.00917989 -0.07449037 -0.00023306161
000170 c0 35 c5 bc 48 43 6d bc 6c 9c f9 bc 75 ca a0 bd
       -0.024073482 -0.014481373 -0.030470096 -0.078511156
000180 06 6c 3a 3d 0e c9 31 3d ca cf a2 bd 07 31 88 3d
       0.045513175 0.04340463 -0.07949789 0.06649976
000190 09 f2 32 bd 45 28 a9 3d 31 f4 a0 3d 21 9c 8d 3d
       -0.043687854 0.08259634 0.07859076 0.06914545
0001a0 c5 d7 95 bd f8 a6 94 bc 83 38 59 bd 8d b0 10 bd
       -0.073165454 -0.018146023 -0.05303241 -0.035324622
0001b0 a1 95 9b bd 2c 6f cf bc 00 3a 51 3c 14 6d f3 bc
       -0.07596899 -0.025321566 0.012770176 -0.029715098
0001c0 a4 5d c7 bc ae 25 2c 3d 00 8f 8e b9 f2 05 16 3d
       -0.024336644 0.04202812 -0.00027190894 0.036626764
0001d0 20 04 17 bd b7 c3 ab bd c0 7d ba bc 88 8c 87 3c
       -0.03686917 -0.08386939 -0.02276504 0.016546503
0001e0 66 c6 4e 3d 60 61 5b 3b 1e ed 62 3d b8 4d ac bc
       0.050482176 0.0033474788 0.055401914 -0.021033153
0001f0 74 ff cc 3c 93 78 a6 3d c4 e9 eb 3c ca d9 46 bd
       0.025024153 0.081284665 0.028797992 -0.048547544
000200 60 45 78 3b ce 73 30 bd da 4b 6b bd 45 1f 4a 3d
       0.0037883148 -0.04307919 -0.057445385 0.049346227
000210 62 5a 3e bd 66 93 79 bc 3f 32 63 3d a8 81 95 3c
       -0.046472915 -0.015232896 0.05546784 0.018250301
000220 bd ec 03 3d 43 66 a5 bd f7 7e 64 3d 40 f4 cf bc
       0.032208193 -0.080761455 0.055785146 -0.025385022
000230 3f 5a 97 3d e2 9c 89 3b eb b3 a8 bd ba 07 bd bc
       0.0739026 0.00419961 -0.08237442 -0.023074973
000240 28 8e 0b bd 50 25 dd 3c 51 d9 36 bd e8 97 ac bb
       -0.034071118 0.026995331 -0.044640843 -0.005267132
000250 00 80 9a bd 9c 3c 84 bc b0 10 8a bd 53 95 4a bd
       -0.07543945 -0.016142182 -0.06741464 -0.049458813
000260 6c b7 04 3d 22 68 8c 3c 9d 7d 70 3d 1a d9 db 3c
       0.032401487 0.017139498 0.058713544 0.02683692
000270 d1 e5 ae bc 1d f4 aa bd 2c 49 77 bd 8e 94 70 3d
       -0.02134982 -0.08347342 -0.060372517 0.058735423
000280 14 63 a6 bd 7e 14 7f bd af 7c 3a 3d 34 8f 1e 3d
       -0.081243664 -0.062275402 0.045529064 0.038710788
000290 94 cc 8b 3d e3 fe 9c bd f8 2a b3 3d 78 5f 82 bc
       0.068261296 -0.07665803 0.0874843 -0.015914664
0002a0 ac 75 9f bd 8a 94 1f 3d 98 fe 86 bd f0 80 4d bd
       -0.07786116 0.038960017 -0.06591529 -0.050171793
0002b0 44 32 e9 3b 12 1d 3a 3d 68 11 89 3c 62 af 60 3d
       0.007116588 0.04543788 0.016731933 0.054854758
0002c0 02 9b 57 bd 13 67 99 3d 43 dd 55 bd f0 3d 95 bd
       -0.05263806 0.07490363 -0.052212965 -0.07287204
0002d0 0f 21 72 bd b8 29 45 3c d1 43 90 3d 6a a1 5d 3d
       -0.05911356 0.012033872 0.07044185 0.054109015
0002e0 53 f1 7e 3b 13 88 0a 3c 1a 06 97 3c 62 40 79 3d
       0.0038901165 0.008455294 0.018435527 0.060852416
0002f0 86 d0 99 bd 8a 27 72 bd 20 4c 9c 3d a0 17 b8 bc
       -0.07510476 -0.05911974 0.07631707 -0.022472203
000300 90 fa fd 3b b5 ad d0 3c df 0a 72 bc c4 cf 99 3d
       0.0077508166 0.025473455 -0.0147731 0.07510331
000310 ae bf 41 3d ef a9 77 bd 0a ff 59 3d e2 58 d2 bc
       0.04730194 -0.060464796 0.05322174 -0.025677148
000320 36 60 24 3c ae 49 80 bd 2a 03 0b bd d8 e2 77 3c
       0.010032704 -0.06264053 -0.033938564 0.015129767
000330 63 f9 a2 bd ab 9f 2e bd 66 bc 6b 3d 39 d8 64 bd
       -0.07957723 -0.04263274 0.057552718 -0.05587027
000340 30 04 c4 bc 2e 32 f0 bc b0 e7 fa 3c 1d e5 a9 3d
       -0.023927778 -0.029320803 0.030628055 0.08295653
000350 a9 71 ac bd 11 52 b1 3d 84 ab e0 bc f6 29 3a 3d
       -0.084201165 0.08658231 -0.027425535 0.045450173
000360 8b 00 9f 3d ff 20 96 3d 80 6c 8e bd 21 a8 0d bd
       0.077637754 0.07330512 -0.069542885 -0.03458417
000370 cb 58 ad 3d 3a a6 07 3d 2e d6 5f bd 26 60 64 3d
       0.084642015 0.03311751 -0.054647617 0.055755757
000380 62 48 5d 3d b7 c5 37 bd 98 97 4f bd 86 bc 84 3d
       0.054024108 -0.04486629 -0.05068168 0.064812705
000390 02 6c 28 bd 70 02 aa 3b 53 1c f0 ba d2 45 f3 bc
       -0.04111863 0.005188279 -0.0018318988 -0.029696379
0003a0 90 00 a3 bd 87 03 0f 3d 0b eb a1 3d b1 93 28 bd
       -0.07959092 0.034915473 0.07906159 -0.041156475
0003b0 ff 4b a0 3d 57 9e 3a bd 9d 0b 3f bd 94 e4 96 bc
       0.07826995 -0.04556116 -0.046641935 -0.018419541
0003c0 c0 67 9e 3a cd 85 9e 3b 88 f4 a5 3c f6 a7 2c 3d
       0.0012085363 0.0048377276 0.020258203 0.042152368
0003d0 d8 43 28 3c 93 01 dd bc 94 b7 b0 bd 74 93 ba 3c
       0.010270081 -0.02697829 -0.08628765 0.02277539
0003e0 b1 3c af bd e8 1f d2 bc 45 2a 88 bc 92 cd c2 bb
       -0.08556498 -0.02564998 -0.016621718 -0.005944916
0003f0 64 20 83 bd 30 33 c8 b9 66 6d 62 bd d8 60 13 3c
       -0.064026624 -0.0003818511 -0.05528011 0.008995257

fc2.bias f4 [64]
000000 64 0b 1c bd b1 cd bf bc a2 82 2b bd 1c 15 e8 3b
       -0.0380968 -0.023413511 -0.041872628 0.0070825946
000010 2b 1f d2 bb 53 91 a9 bd bc 6e 44 3d 54 3b ea 3c
       -0.006412407 -0.082796715 0.047957167 0.028592743
000020 e2 e5 0d bd c2 81 9f bd 7d d6 3b 3d d8 9f ab 3d
       -0.03464306 -0.07788421 0.04585885 0.08380097
000030 48 34 09 3d a8 fe 84 3d f4 6c 95 bd 6e bf 2c 3d
       0.033497125 0.06493884 -0.07296172 0.04217475
000040 56 9a 9e 3d a3 66 c5 3c 41 df 8a bd db ca 27 3b
       0.07744281 0.024096793 -0.067808636 0.002560309
000050 48 28 74 3d d4 e1 53 3c 56 22 30 bc 20 fb 16 3d
       0.059608728 0.01293226 -0.010750374 0.036860585
000060 a3 29 20 3d 80 2b b0 bc 3e 04 16 3b f0 08 b6 3d
       0.039102208 -0.021505117 0.0022890712 0.088884234
000070 8e f2 59 bd b4 b1 8b 3d b8 99 b4 ba 6e 68 ae bc
       -0.053209834 0.068210036 -0.0013778722 -0.02129003
000080 c4 eb 56 bc 80 7e 2f 3b f7 7e 62 3d 2a 4f 20 3c
       -0.013117734 0.002677828 0.055296864 0.009784499
000090 0a 93 a0 3d 45 04 6f bd a0 e7 c2 3c 64 10 dc 3c
       0.078405455 -0.05835368 0.023792088 0.026863284
0000a0 54 ea 9b 3d 90 4a 96 3c 86 a1 8c 3c a2 43 74 bd
       0.07613054 0.018346101 0.017166864 -0.059634812
0000b0 20 89 c6 bc 5d 18 fb 3c 99 97 f0 bb 22 bc 43 3d
       -0.024235308 0.030651266 -0.0073422906 0.04778684
0000c0 e6 9d e5 3c 93 e5 1d bb 0c a0 8a 3c af 68 4a bc
       0.028029393 -0.0024093136 0.01692202 -0.01235406
0000d0 4f 73 a7 bc 51 50 e6 3c 37 d9 8a bc a9 b1 a0 bc
       -0.020440726 0.02811447 -0.01694928 -0.019615965
0000e0 b2 49 5d 3c f0 76 82 3d a2 83 88 bd b4 9e 5a 3d
       0.01350634 0.06370342 -0.06665732 0.053374007
0000f0 c5 a1 d1 bc bf fd 6c bd 57 d3 8b 3d 38 ef 47 bc
       -0.025589833 -0.05785918 0.06827419 -0.01220303

fc3.weight f4 [2, 64]
000000 f6 65 ef 3d e5 96 1a 3d ca 17 3a bd 34 4e b2 3d
       0.116893694 0.03774156 -0.045432843 0.08706322
000010 39 9d d9 bd c1 f5 86 bd 1d 3a 98 3d 6a 6c ba bb
       -0.10625691 -0.065898426 0.07432959 -0.0056891935
000020 63 42 9c bd 2d 13 ab 3d a9 ed 6b 3d e2 75 23 bd
       -0.0762985 0.08353267 0.057599697 -0.039907344
000030 db c7 82 3d 03 91 87 bd 68 08 1b bd c9 88 35 3c
       0.06385776 -0.06619456 -0.037849814 0.011079975
000040 5a 6f 86 bd 22 77 fc 3c d1 66 fd bc 1f 1d ba bc
       -0.065642074 0.030818526 -0.030932816 -0.022718964
000050 71 75 70 3c 94 83 0e bd b0 a5 61 bc 37 96 76 3c
       0.014676438 -0.03479345 -0.013772413 0.015050462
000060 4a ee 6a bd b8 04 77 bd 6d 65 c4 bd 05 0a eb bd
       -0.057356156 -0.060307235 -0.09589658 -0.114765204
000070 06 c3 97 3d 30 46 32 bd 20 ce bc bd 72 94 a1 bd
       0.07410245 -0.043523967 -0.09219003 -0.07889642
000080 af e5 1a bd 00 68 e9 bb 7d 49 0a bd 97 b3 10 bd
       -0.0378167 -0.0071229935 -0.03376149 -0.03532752
000090 07 7b 94 3d dd 98 db 3d 7f 5c 4c bd ae 3b ef 3d
       0.07250028 0.10722516 -0.0498929 0.11681305
0000a0 72 c9 c0 bc b1 68 e4 bd 8a 87 c4 bd a0 73 27 3d
       -0.023533557 -0.11152781 -0.095961645 0.040881753
0000b0 58 b7 a8 3d 1b 79 eb bd 85 14 c2 bd fb c7 67 bc
       0.08238095 -0.114977084 -0.0947657 -0.0141468
0000c0 3a 70 35 3d 10 10 23 3d 43 55 d1 3b aa 37 4c bc
       0.04429648 0.03981024 0.006388338 -0.012464443
0000d0 a1 c5 56 bd 01 71 e7 bd 75 17 ba 3d 01 0a 3e 3d
       -0.052434567 -0.11300851 0.09086505 0.04639626
0000e0 34 f3 1b 3b 8e 83 c8 bd 71 55 4d bd 32 85 d5 3c
       0.0023796083 -0.09790717 -0.05013031 0.026064489
0000f0 c6 f2 7d 3d 74 a8 9a bd a1 78 b9 3d e8 3a 94 3c
       0.061999105 -0.07551661 0.09056211 0.018094495
000100 ae df 8d 3d 2b 25 c9 3d ca 4a 8f bd 7d dd 7d 3d
       0.06927429 0.09821542 -0.06996687 0.061978806
000110 e5 02 9f bc 81 aa e2 3d eb 93 df 3d 04 02 7e 3d
       -0.01941056 0.11067677 0.10916885 0.06201364
000120 c0 5e 93 3c 1d 46 41 bd 71 fd f8 3d 5e 2f 58 bd
       0.017989516 -0.047186006 0.12157715 -0.052779548
000130 38 59 14 3d f7 59 93 3c 94 c0 e2 bd e6 61 51 3d
       0.036217898 0.017987235 -0.110718876 0.051118754
000140 e6 32 d6 3d 76 86 a9 3c df f4 01 3e 31 bb a9 3d
       0.10458927 0.020693999 0.12691067 0.08287657
000150 07 7c a6 3d b2 ff 37 3c 02 5f 84 bc 5f d4 9f 3d
       0.08129125 0.011230396 -0.016158585 0.078041784
000160 76 86 4a bd 3e 85 72 3d 78 a7 28 bd dd 57 b0 bc
       -0.04944464 0.0592091 -0.041175336 -0.021526271
000170 10 c4 21 bd e0 43 9d 3d 2c e0 49 3b da f1 98 3d
       -0.03949362 0.07678962 0.0030803783 0.074680045
000180 71 51 4b bd 50 d1 d1 bd 3e 4e ac bd a0 6c 02 be
       -0.049638215 -0.10245001 -0.08413361 -0.1273675
000190 29 6d f6 bd fd 9c 02 be 1e 9c 59 3d 1c 62 cd bd
       -0.120325394 -0.12755199 0.0531274 -0.100284785
0001a0 b6 10 b2 3d ee a5 3c bd 30 8c 8d 3b c0 21 81 3d
       0.086945936 -0.04605668 0.00431969 0.063052654
0001b0 27 02 7a bd a5 7d 93 bd f6 9b 29 bd e2 c1 a3 3d
       -0.06103721 -0.07201699 -0.0414085 0.079959646
0001c0 26 d4 ad 3d de a3 92 bd c9 39 8c bc d5 eb 3d bd
       0.0848773 -0.071601614 -0.017117398 -0.046367485
0001d0 8b be 6a bd c0 03 b8 3c f5 c3 42 bd 71 10 60 bd
       -0.057310622 0.022462726 -0.04755016 -0.05470318
0001e0 85 2f 46 bd 61 d2 28 3d 69 06 19 3d 43 6c a2 bd
       -0.048385162 0.041216258 0.03735963 -0.079308055
0001f0 fe ee 17 3d c6 e0 4f bd c2 65 df 3d 00 82 99 ba
       0.037093155 -0.05075147 0.10908081 -0.0011711717

fc3.bias f4 [2]
000000 72 ad 4d 3d c2 e2 30 bd
       0.05021424 -0.043185003
