model_to_load/mod64_save3.pt (torch_old, 172265 bytes, 12 tensors)

conv1.weight f4 [18, 64]
00000000: 80f1 7abe 7827 fcbd 486f d53c 91d6 bd3d
00000010: 0ec4 623d 7e9c b1bd 9df0 bb3d 4419 7e3e
00000020: a657 883e ced4 4a3e aabf 343e 4eb9 3abe
00000030: ec5e ee3d 3dbc 173e 7614 8c3d e89b 793e
00000040: 6f65 7abe 5a88 6a3d 24c9 d2bd 7765 2b3e
00000050: 9ddc 1b3b cf00 813e 7412 883e 35d9 51be
00000060: 11d1 023e a1dc 5d3e e652 683e 4fd9 4cbe
00000070: 89c0 493e ec2b 4bbe 95cc e7bc 3b05 5fbe
00000080: fcf6 ac3d bc99 69be 5a12 8b3e 2326 2ebe
00000090: 999c 5dbe 7e60 833d a455 563d 248a 473e
000000a0: 42b6 003c 77c3 b23d 01f8 65bd 8655 a3bd
000000b0: cf9e 2c3e 4b4f 2a3e 2f44 68be 76c1 49be
000000c0: 5b98 b2bd 43b1 78be cbbf cfbd 3825 4d3e
000000d0: d4a8 3fbd 9abe 50be 33f4 b03d b984 183d
000000e0: 80ee 703e 449a 06bd dd0a e6bd 7471 04be
000000f0: 153e eb3d 82e4 dc3d 1003 24be 2b3b cbbd
00000100: 6b63 13be d119 58be 47e8 8c3d fa24 36bd
00000110: 24fb 18be 961a 3a3e 807f 76bc 6788 553e
00000120: 6bf0 28be a6af ec3d 2b2e e9bd 06c9 16bd
00000130: ecb2 b03d 03c5 363d d1d4 863e ea8a 20be
00000140: 633d 05be 3d5e 323e c9f8 063e 22f2 4fbe
00000150: 54cb 7d3e b0a9 77be 6284 2f3e f079 46bc
00000160: 3634 853e e8bd d73d 6b0a 823e f714 803e
00000170: 124f 383d e701 e8bd ccf2 8cbe 8f61 643d
00000180: c833 a4bc 2418 7e3d 15eb 22bd adaf 8bbe
00000190: 13cb 0ebe 01a3 2abe d27a 47be 129b 2bbe
000001a0: 99f6 21be 1777 74be f8a0 e73c 65ee 36be
000001b0: c898 363e b0f2 503c db3d 313e 44e2 833e
000001c0: b6f2 5f3e 0c4c 27be b59b 943d 43a5 febd
000001d0: 4239 e53d 063c 1ebd 2d8c a63d 6b88 293e
000001e0: 3d20 5bbe 17fc 603e e1a9 c9bc bbf3 c83d
000001f0: 1fb4 43be 56b0 453e 9291 79be 5e1b f53d
00000200: 4d6b c1bb 46e8 03bd bc94 3d3d 08c7 dfbd
00000210: e750 833d 9375 383e 30ea 803e 8fd5 5abe
00000220: 5b50 ae3d 0940 f1bb 4bcc 7d3e 5691 8c3d
00000230: 029a 00be b994 bd3d dd11 a63c 568f 4dbe
00000240: 6451 1b3e 21c5 8fbd 2f69 803e b6cf 593e
00000250: e5ad 37be b16d ef3c 64db 26be 19a9 7ebe
00000260: 7532 45bd a1c0 1bbe 1a23 883e adab 863e
00000270: 2028 183e 441d 0a3e 889a 79be 2b4c 33bd
00000280: 4cf5 213c 2232 583c 4a57 0bbe 6645 8f3c
00000290: 413c 24be ffd8 243e 280b a3bd 2a37 83be
000002a0: df65 3ebe 34c2 263e a230 0abe 074d 6b3e
000002b0: 0adb 7ebe 16ea 043e 6a35 4f3e bb83 293d
000002c0: 7ba8 873e 77d3 98bd 50ea 11be 369e bbbd
000002d0: aea8 e8bd a990 553d 03ce 7c3e c44a 263b
000002e0: 3aad 91bd d444 373d 7aec 953c 0754 193e
000002f0: 0eda 2e3e 0974 9cbd 49c6 87bc 58c4 38bd
00000300: dcb0 c0bd 53ae 673d 24e1 a13d 340c 183e
00000310: 4a3b 963d 0195 a1bd fa19 073e bc04 c33d
00000320: a0f6 35bd 449d 303e f46b a8bd b569 473c
00000330: 60c4 8d3c 22bb 40be af6e cf3d 5e07 f4bd
00000340: 32ec 7e3e 0a7c 68be 06ab d23d 17bf 0cbd
00000350: fbf6 f43c 64d6 653c d6b3 283e 32f2 103e
00000360: 012e 8c3e 9793 7e3e 6d48 853e 8ba1 5abe
00000370: 4705 0e3e 2333 153e 0455 123d 6bac d7bb
00000380: a23a 9abd 0cdc f6bd 75b7 48be 8f1f 1dbe
00000390: 60a8 b9bd 99b7 d63d 7fba 823d 779c 95bd
000003a0: 2bee 6abe 7ea1 5cbe ffd5 62be a367 86be
000003b0: c706 e5bd 874d c5bd 9173 cc3d b721 26be
000003c0: 954a 6ebe 4fb1 2f3c a718 983c 0c78 9dbd
000003d0: ef6a 1d3e 2ffc e7bd 1af3 78bd d55a 053e
000003e0: 88df dabd d152 2abc c8c4 763b df14 4bbd
000003f0: 7294 113e 52eb c63b c8df f2bd 7d81 e8bd
-0.24506187 -0.123122156 0.02605404 0.09269441 0.055362754 -0.08672427 0.09176753 0.24814326
0.2662937 0.19807741 0.17651239 -0.1823475 0.11639199 0.14817901 0.0683984 0.2437588
-0.24452756 0.05725894 -0.10292271 0.16737925 0.0023782619 0.2519593 0.2657658 -0.20493014
0.12775065 0.21666194 0.22687873 -0.20004772 0.19702353 -0.19840974 -0.028295795 -0.21779339
0.08445546 -0.22812551 0.2716244 -0.17006736 -0.21641769 0.06414889 0.052327767 0.1948629
0.007855954 0.08728688 -0.056144718 -0.07975297 0.16857456 0.1663181 -0.2268226 -0.19702706
-0.08720466 -0.2428637 -0.101440035 0.20033729 -0.046791866 -0.20385209 0.08640327 0.03723595
0.2352848 -0.032861963 -0.11232541 -0.12933904 0.114864506 0.10785772 -0.16016793 -0.09923395
-0.14393394 -0.21103598 0.06880241 -0.044468857 -0.14939553 0.18174204 -0.015045047 0.20852815
-0.16497962 0.1155694 -0.11385759 -0.036812805 0.08627877 0.04462148 0.2633424 -0.15677992
-0.13011698 0.17418762 0.13180842 -0.2030721 0.24784595 -0.24185824 0.17140344 -0.012114033
0.26016396 0.105342686 0.25398573 0.25015995 0.044997282 -0.11328488 -0.2752899 0.0557571
-0.020044222 0.06203474 -0.039774973 -0.27282467 -0.13944654 -0.16663744 -0.19480446 -0.16758373
-0.15816726 -0.23873554 0.028274998 -0.17864378 0.17831719 0.012753174 0.17308752 0.25758564
0.2186993 -0.16337603 0.07256261 -0.12433865 0.11192562 -0.03863146 0.08132205 0.16555946
-0.21399017 0.21971165 -0.024617137 0.09812113 -0.1911168 0.19305548 -0.24371937 0.119681105
-0.005902684 -0.032203935 0.046284422 -0.10926634 0.06411915 0.18013601 0.2517867 -0.21370529
0.0851142 -0.00736237 0.24784963 0.06863658 -0.1255875 0.09256882 0.02027219 -0.2007421
0.15167767 -0.07020021 0.2508025 0.21270642 -0.17937429 0.02922711 -0.16294628 -0.24869193
-0.048143823 -0.15210201 0.2658928 0.26302853 0.14859056 0.13487726 -0.24375355 -0.04377381
0.0098851435 0.013195546 -0.13607517 0.017489146 -0.1603861 0.16098402 -0.07961112 -0.25628024
-0.18593548 0.1628502 -0.13495114 0.22978602 -0.24888244 0.12979922 0.2023522 0.041385394
0.26495728 -0.07462209 -0.1424954 -0.09161036 -0.11360298 0.05213991 0.24687962 0.0025374154
-0.071131185 0.044743374 0.018301237 0.1497346 0.17075369 -0.076393194 -0.016574042 -0.045109123
-0.09408733 0.056562733 0.0790427 0.14848405 0.07335527 -0.07889748 0.13193503 0.095223874
-0.044424653 0.17247492 -0.082237154 0.012171199 0.017305553 -0.18821386 0.10128533 -0.11915468
0.24894789 -0.22703567 0.102865264 -0.034361925 0.029902926 0.0140281655 0.16474852 0.1415489
0.27378848 0.24860989 0.2603182 -0.21350686 0.138692 0.14570288 0.03572561 -0.006581833
-0.075307146 -0.12053689 -0.19601233 -0.1534407 -0.09065318 0.10484237 0.063832276 -0.07305234
-0.22942416 -0.2154598 -0.22151946 -0.26250944 -0.11182933 -0.09633928 0.0998298 -0.16223799
-0.23270638 0.010723426 0.018566443 -0.07688913 0.15372823 -0.11327397 -0.060778715 0.13022931
-0.106871665 -0.0103957215 0.0037653912 -0.04958045 0.14216784 0.006070533 -0.11859089 -0.11352823

conv1.bias f4 [64]
00000000: cd45 27bb 7feb eabb 1136 9b3b 5f88 9f3b
00000010: 268b fd3a 680c 3eba bd37 053b 6ee6 75ba
00000020: 8ab9 da38 1e58 3b3b 7f13 983b 84a0 023b
00000030: 3b7a 0e3b 9f02 873a 7cad b03a 4623 513b
00000040: 662a 213b 6ec2 3ebb ceba b83a 61ab 3e3a
00000050: 0d48 c9ba 30bf 173c cc56 cb3a 555f d53a
00000060: 6109 933b f7a9 db38 ca6a ff3a 74fb c738
00000070: defb 743b 5efd 093a 7d7d de3a 8212 23bb
00000080: 8376 793b 481d 36bb ab01 103c 40c5 8db9
00000090: 19cf be38 8519 7b3b 84f6 beba bed6 383b
000000a0: f985 1ebb da66 cb3a 9fd5 edba d774 42ba
000000b0: 400a 133a 5b18 043b 901e 38ba 5ca2 7d3b
000000c0: 93ca 8d3a 0dcd 813a 6bfa 17bc e0a3 9a3b
000000d0: 1f28 393b cfd5 173b eb74 02bb ba04 c4ba
000000e0: ee53 103b e8e6 07bb ea5c a23a 1d77 623b
000000f0: 8009 293b 2010 08ba 3627 45bb 5b2f 083b
-0.0025523782 -0.0071691866 0.00473667 0.0048685516 0.0019343838 -0.00072497735 0.0020327412 -0.0009380345
0.000104296094 0.0028586457 0.004640996 0.00199321 0.0021740336 0.0010300464 0.0013479437 0.0031911894
0.0024591922 -0.0029107588 0.0014093758 0.0007273462 -0.0015356556 0.009261891 0.0015513538 0.0016279022
0.004487202 0.00010474392 0.0019486782 9.535896e-05 0.003738157 0.000526389 0.0016974654 -0.0024882858
0.0038065023 -0.002778845 0.00878946 -0.00027040578 9.098481e-05 0.0038314771 -0.0014569317 0.0028204168
-0.002418874 0.0015518323 -0.0018145329 -0.0007417923 0.00056091323 0.0020156119 -0.0007023597 0.003870151
0.0010817818 0.0009903029 -0.009276013 0.0047192425 0.0028252674 0.0023168211 -0.0019906114 -0.0014955022
0.0022022682 -0.0020736996 0.001238731 0.003455586 0.0025793016 -0.0005190391 -0.0030083186 0.002078018

conv2.weight f4 [64, 64]
00000000: 4d81 593e d0eb cbbd b5ff 15be a288 03be
00000010: e601 dfbd f1b6 d63d d140 02be 04a6 dc3d
00000020: b3fa 4c3c f99f d63c 8092 813c c1fa 5c3d
00000030: 2bef 59be 7e40 073e f199 383e f7f3 833d
00000040: fb5d a33d f0f7 b3bd 8b3c 0bbe 7300 36be
00000050: 221a 353e ece1 e1bd bd6e 4c3e 0556 0a3e
00000060: 6acc 373e 6593 d6bd 4fad f53a 0421 ac3d
00000070: 7a3c 1cbe 26c7 ecbd 1656 0fbd 047d 53be
00000080: ef0e 403e 01ce e2bd 0d21 3fbe c6c0 4cbe
00000090: 345f 153e f54a 623d 5217 ce3d 2001 a53d
000000a0: 8894 fb3b c5b2 dbbd 5df7 d1bd a002 6ebd
000000b0: feb9 10be 3f48 e73d 387d ecbc a60e 273d
000000c0: 59ac cf3c 3283 293e 1933 a83d 7b4c 50bd
000000d0: d49f 97bc 336a b63d 97f6 11be 6f68 0d3e
000000e0: d3df cf3d 4dc6 89bc 150b c5bd 6025 43be
000000f0: 0d20 843d 3420 243e 0e36 b43c c5b9 79bd
00000100: 69cd 51be 2810 263d fa9c 35bd d305 3b3e
00000110: dfea 0d3e 87da 33bd fe33 4abe b553 473e
00000120: 2117 0abe 7dc1 54be ed7c 98bc c9c7 3e3e
00000130: ce64 3abe 5c1b 4e3e 7f58 9fbd aab0 ddbb
00000140: bf7f 1abe dce6 3c3e f139 35be 6400 de3d
00000150: cfc0 173d d5af 333e 8965 07be e869 36bd
00000160: 5df7 153d 8f00 dc3c 3bdd 303e 7d63 353e
00000170: 44ab ae3c f53d 0bbd 649b 90bd 255c e63d
00000180: ad51 a23d 849b 56bd de7e 31bd f1c7 29bc
00000190: 606d 973d bbee 11be dd29 1bbe c235 95bd
000001a0: 90c9 27be fa95 d93d 82b4 97bd a7d6 f73c
000001b0: b3ea 31be 1168 623e 8b60 463d 691a b5bd
000001c0: 707d ddbd 4929 da3d 51a7 273e 7e0a 913d
000001d0: 92df 2b3e ae80 4e3e 53a0 853d 1855 bf3d
000001e0: b5a8 383d 5c14 5cbc 5146 0abe b0b4 6abd
000001f0: 8662 3dbe 3fe2 553e 430b b23d e9b0 d6bd
00000200: c8f0 063e 17ec 413e 0a3c 4cbc e002 113e
00000210: b442 563e aa18 cf3d 075f 133d c2d2 babd
00000220: c999 05be c351 0dbe 87ee 8ebd 95de a53d
00000230: 3e00 e9bd e03a 66bc f37c 403e f0e6 57bd
00000240: df10 f53c 55df a93d b0cb c13c 1306 c8bd
00000250: 86b0 2bbd b4c2 8fbd 5ede b43d 174a 2fbe
00000260: 6255 53be 3f6b 03bd 8d58 123d 13c9 8bbd
00000270: 34a4 913d 240c 143e 478f cebd ace2 b73d
00000280: 426b 233e 1c79 153e 8e3e 503e 1401 993d
00000290: f026 37be 8e98 43be d023 6ebd 610b 923d
000002a0: a8fc 31be 9e01 d33d aa0d 0d3e 5dd6 f4bd
000002b0: 0a39 123e ea06 9bbd d405 35be d0eb dd3d
000002c0: d9a6 8b3d d82c 89bd 3804 febd a39c 013e
000002d0: 9c7a 24bb a349 64bc b781 30be 29fe 4fbe
000002e0: e511 293e 0d00 20be 2846 48be c3d2 56be
000002f0: f2af 85bb c649 4c3e dcdb 6fbc 2644 873b
00000300: 07ec d13d df40 e8bd 5872 e9bd ce4a fabd
00000310: b3e5 adbd 5bd9 11bc 847a 533e 7ec2 32bd
00000320: eedd 823c d585 29be 8a04 a3bd 49b2 c8bd
00000330: a9dd 013c 8bcc 46be a055 ff3c a565 22be
00000340: 3187 e63d b94b 913d a44f 42be fcd3 3d3e
00000350: 26e8 0ebd a07b 913c a4db 9ebb 2ed8 9ebd
00000360: 7b6a bb3d b58e 57be e0fb 483e 1112 0e3e
00000370: 1979 1e3e 0ebf 6f3d f770 94bd f1d7 f03d
00000380: cd70 fdbd c35e 2ebd 5af0 0cbe dacf 093d
00000390: 9838 ebbd eb00 313e 85fd 023c eff8 ef3d
000003a0: 05bd 0b3e bc59 ed3d 341f f3bd 507f 13be
000003b0: 0a18 93bc c541 15be 2910 e4bd 98bb 323d
000003c0: e7a5 283e eb4d 543e dd07 633d 2700 5e3e
000003d0: 28c8 cd3d a34d 4b3e a632 f53d ba9f 893d
000003e0: 45c9 4b3e 23a9 33be 8f5a 833d 60dc dcbd
000003f0: bd14 abbd fc64 c53d 78a2 b23c 4f7d 32be
0.2124073 -0.09957087 -0.14648326 -0.1284509 -0.10889034 0.10484112 -0.12720038 0.107738525
0.012510943 0.026199328 0.015816927 0.053950075 -0.21282642 0.13208196 0.18027474 0.06443017
0.0797691 -0.08787525 -0.13597314 -0.17773609 0.1768575 -0.11029419 0.19964118 0.13509376
0.17949072 -0.10477332 0.0018743667 0.08404735 -0.15257445 -0.11561422 -0.034994207 -0.20653158
0.18755697 -0.110744484 -0.18664952 -0.19995412 0.14587098 0.055247266 0.10063042 0.08056855
0.0076776184 -0.10727457 -0.10252259 -0.058107972 -0.1413345 0.11293077 -0.028868303 0.040785454
0.025350736 0.16553953 0.08212871 -0.050854187 -0.01850883 0.08906975 -0.14254223 0.1380937
0.10150113 -0.01681819 -0.09621254 -0.19057226 0.06451426 0.1602791 0.021998432 -0.06096818
-0.20488514 0.04054275 -0.044339158 0.1826394 0.13859127 -0.043909576 -0.19746396 0.19465525
-0.13485385 -0.20776935 -0.018614257 0.186309 -0.18202516 0.20127624 -0.07780551 -0.0067654448
-0.15087794 0.18447441 -0.17697884 0.10839918 0.03704911 0.17547543 -0.13222326 -0.044534594
0.036612857 0.026855735 0.17271893 0.17713733 0.0213219 -0.033994634 -0.070608884 0.11248044
0.07925735 -0.052394405 -0.04333388 -0.010362611 0.073939085 -0.14251225 -0.15152688 -0.07285644
-0.16385484 0.10624309 -0.07407476 0.030253721 -0.17374687 0.2211001 0.048431914 -0.08842928
-0.10814941 0.10652406 0.1637242 0.07082079 0.16784504 0.20166275 0.0652472 0.09342402
0.045082767 -0.013432588 -0.13503386 -0.057301223 -0.18494615 0.20887087 0.08693554 -0.10482962
0.13177788 0.18937717 -0.012465486 0.14161253 0.20923883 0.10112126 0.035979297 -0.0912223
-0.13046946 -0.13800721 -0.06979089 0.08099095 -0.11376999 -0.014052123 0.18797664 -0.052710474
0.029915271 0.0829455 0.023656696 -0.097667836 -0.041916393 -0.070195585 0.08831476 -0.17118107
-0.2063804 -0.0320847 0.03572898 -0.06825461 0.071113974 0.14457756 -0.10085922 0.08978781
0.15958884 0.14596981 0.20336363 0.07470909 -0.17885947 -0.19101164 -0.058139622 0.071310766
-0.17381537 0.10303043 0.13774744 -0.11954949 0.14279571 -0.07569678 -0.17678005 0.10835993
0.06818933 -0.066980064 -0.124031484 0.12657408 -0.0025097495 -0.013933572 -0.17236982 -0.20311798
0.16510732 -0.1562502 -0.19558012 -0.20978837 -0.004079812 0.19950017 -0.014639821 0.004127997
0.10250097 -0.11340498 -0.113987625 -0.12221299 -0.08491077 -0.008901919 0.20652205 -0.043642513
0.015974965 -0.16554959 -0.0795985 -0.0979963 0.007926383 -0.19413964 0.031168759 -0.15859087
0.112562545 0.07094521 -0.18975693 0.18537897 -0.034889363 0.017759144 -0.0048479605 -0.07756077
0.09151169 -0.21050532 0.19627333 0.1387408 0.15475883 0.058531813 -0.07248109 0.117599376
-0.12375031 -0.04257084 -0.13763562 0.03364549 -0.11485404 0.17285506 0.007995014 0.11717402
0.13646324 0.11589381 -0.11871186 -0.14404035 -0.017955799 -0.1457587 -0.11135895 0.043635935
0.16469537 0.20732848 0.05542742 0.21679746 0.100479424 0.19853835 0.11972551 0.067199185
0.19900997 -0.1754499 0.06413757 -0.10784221 -0.08353565 0.09638402 0.021805987 -0.17430614

conv2.bias f4 [64]
00000000: 32b4 513a 547d f23a 15ad 543a 828a b7ba
00000010: f4a1 f93a 139d 40ba b6d8 923b 49cb 86ba
00000020: 466d 953b f350 b139 0ae0 07ba 2c7a 5cb8
00000030: 9690 14bb 91dc 17ba e595 5a3b d752 343a
00000040: 3b13 0ebb bd02 15bb 02bb 05bb fc2d 5435
00000050: 6f75 9c3b fbea a739 f636 c13a 92ce 36ba
00000060: e337 22ba 4b5a c73a 3c56 6bba 6ff2 ae3b
00000070: 7c4a 09ba d0b7 843b 4701 b7b9 dd27 97ba
00000080: 0626 2c3a e3e5 92b9 533e e63b 7c41 223b
00000090: a3b8 073b c2d4 2ab8 31aa 28bb 2bf0 013b
000000a0: f7b3 07bb 7390 e03a c8a9 9d3a f4b7 a739
000000b0: fc70 983b 204f 1bbb 25bf c1b9 798f b93b
000000c0: 6f58 1a3a ac99 8139 ef92 c53a 7264 df3a
000000d0: c336 aeba cb3b 193b e7d0 733b 2357 e23a
000000e0: f5bf 8f3a 47c8 87bb 20fd e43a 4a3d 65ba
000000f0: b0a2 29b9 c1dc 853a 5ed8 9f3b 1981 f5ba
0.00079995685 0.0018500485 0.00081129494 -0.001400307 0.0019045458 -0.00073476246 0.0044814004 -0.0010283972
0.0045601455 0.00033820383 -0.0005183226 -5.256587e-05 -0.0022669188 -0.000579306 0.0033353504 0.0006878799
-0.0021678943 -0.0022737228 -0.0020405655 7.904307e-07 0.0047747414 0.00032027796 0.0014741111 -0.00069735304
-0.00061881373 0.0015209405 -0.00089773885 0.005338959 -0.0005237234 0.0040502325 -0.00034905432 -0.0011532266
0.0006566945 -0.0002801857 0.0070264726 0.002475827 0.0020709417 -4.0729305e-05 -0.0025736208 0.001982699
-0.0020706633 0.0017132893 0.0012028748 0.00031989778 0.0046521407 -0.0023698285 -0.00036954242 0.005662855
0.00058878114 0.00024719292 0.0015073697 0.0017043485 -0.0013291467 0.0023381587 0.0037203373 0.00172684
0.0010967242 -0.004143748 0.0017470457 -0.00087447895 -0.00016177702 0.0010212885 0.004878088 -0.0018730491

conv3.weight f4 [64, 64]
00000000: ad4f f5bd 3e2c ab3d e6c9 f23d 46ab afbc
00000010: d16d 49be f07e 3cbe fa76 323d b9a2 483d
00000020: e386 47be c395 34be e556 51be fc53 01bd
00000030: ac1f 053e ae97 03bd 5ae7 8b3d c441 1a3d
00000040: 8c06 583d d7c2 e0bd 7766 82bd 8bad c4bd
00000050: 6f29 61bd 702d 0d3e 6e91 423e 1d07 c03d
00000060: 693f 37be 737c e33d 8a07 74bd 5f9c 343e
00000070: 851c 4dbc 1aed 1fbe ee9e 25be 6693 f03d
00000080: 2c05 37bd 5d94 a73d c64e a83d 3147 533e
00000090: 05c0 2d3e b8fe 4d3e 0f38 3fbe 5732 09be
000000a0: cbd3 3a3e b8f3 51be 0e54 84bd 6e0f a7bd
000000b0: 060f b4b9 9d94 04be cd09 0fbe ee80 3e3d
000000c0: e120 553e 6d7c ce3d 7fb6 a83c f97c 10be
000000d0: a8ce a83d 00b6 163c 2208 a13c bd36 5bbe
000000e0: a47c 33be 8981 3fbe 751a 56be 40a7 493e
000000f0: 8ace 21bd d19c 00be b87c 59be 1f19 d53c
00000100: da52 3dbe 93ca 543e 0dea 2e3e 5cf1 bbbd
00000110: d216 1c3e 8147 06bd c53b 31bd 9027 14bd
00000120: a2d3 56be 37d7 693d e029 5a3e d89a 5d3e
00000130: 6238 fc3d 1815 39be 7eb9 1e3c 65f0 ba3d
00000140: 8335 a5bd 7fef 823d 8197 debc 7401 a0bd
00000150: 4321 113a 1249 03be 34a7 0dbe a784 babd
00000160: 41bb 3fbc aaaa 123d 3c58 bf3d 9524 4f3e
00000170: 10ca 2dbe c6a5 c23d e02d a03d 897c a4bd
00000180: 131e 77bd 0091 20bc 848b 023e 8fb7 5ebd
00000190: 1cb8 13be 7b4a 8c3d b71f 453e e547 1dbe
000001a0: 3b82 65bd 428c 483e 9c14 5ebd ce58 3ebe
000001b0: 33f3 463e c417 5cbd c769 f1bd b62e ddbb
000001c0: 901a 2f3d 692c 29bd 2c6a a9bd d816 59bd
000001d0: 94c9 543e c775 b9bc c246 debd c9f0 d33d
000001e0: 18a9 c6bd 1790 7ebd 08ed 043e b108 a9bd
000001f0: aa58 0b3e 3181 23be 36de 3abe d62a e1bc
00000200: 7fc5 97bc 1cd1 1abe 527c bcbd 1143 bcbd
00000210: e579 ff3b 2103 823d 06e7 013e 32d9 c3bd
00000220: 0fac 323e 8e29 b53d 8b25 d83d 3d04 0fbe
00000230: 769a 3abe ec38 143e 7c67 f63d 894c 243d
00000240: b1af d0bd bd19 a0bd 9a26 2e3b d509 4a3e
00000250: 4fb1 e9bd 1301 05be 8487 ddbd f324 35be
00000260: 9064 3e3e 4a27 3abe f0b2 a6bb d100 3c3e
00000270: c260 50be a9b3 2b3e a60e c5bd 5617 5a3e
00000280: b139 4abe d72d d43c 89d0 9c3b fcb9 003e
00000290: 2a87 48be d97d 34be c1c5 983d 8e7f c73b
000002a0: b228 ccbb 8e84 493e ada7 40bd 1c00 f43d
000002b0: 61e3 26be 8e43 083e 05e8 41be 7bf6 083e
000002c0: 630c fc3d 6d9d 2b3e 7608 be3c 363d 38be
000002d0: 390e c9bc 76c8 353e 5984 803d 4b01 0dbe
000002e0: b2d2 a83d b6e0 9b3b 6bc9 763c 1ace 5c3e
000002f0: 296c c53c 648d eb3d 81c2 60bc 5d66 dd3d
00000300: 3792 16bd 7240 ddbd 2786 cc3d 55cf 64bd
00000310: 43bd 693c f00b 69bd 4144 1b3e ef0e 5a3e
00000320: 6053 25be 0a4b 34be f95c 043e f320 13be
00000330: 95e0 d9bd 61b4 b3bd 1365 52be 9d31 42be
00000340: 59d3 02bc 6c68 1fbe 1b96 053d cd71 59be
00000350: e631 00be 159e 313e 1753 d5bd 7bbd 193c
00000360: 107f a8bd f641 033e b7ba 0fbe 7905 813d
00000370: a37b b93d 335a b93d fb7a 5d3d 6f40 ad3d
00000380: 733f 6c3d c46a b5bc c49d a63d ddb5 b5bd
00000390: 1a55 373e 50cc 81bd e084 97bd 0569 813d
000003a0: 749b 50be 164e 12bd 770d 1abb 6330 8abd
000003b0: 8182 62bc 3deb e13d 41bd e83d 1065 a03d
000003c0: f4f0 da3c 4a55 12be f477 223e 55f1 f93d
000003d0: 21ce 3a3e 54e4 9c3d 98ce 43be ea15 d2bd
000003e0: ac4d 133e 4e7b 61bd f863 43be ac40 a4bc
000003f0: 8c13 1cbd 0d77 eabd 7ce4 c23c a871 063e
-0.119780876 0.08358048 0.11854915 -0.021443974 -0.19670798 -0.18407798 0.043570496 0.04898331
-0.19485049 -0.17635255 -0.20443304 -0.031574234 0.13000363 -0.032127075 0.06831236 0.037660375
0.05274062 -0.10974663 -0.063672 -0.09603413 -0.054971155 0.13786864 0.1900079 0.09376357
-0.17895283 0.11107721 -0.059577502 0.17637776 -0.012519007 -0.15617791 -0.16173908 0.11746864
-0.044682667 0.08182595 0.0821815 0.20632626 0.16967781 0.20116699 -0.18673728 -0.1339811
0.18244855 -0.20503128 -0.06461345 -0.0815724 -0.0003434347 -0.12947316 -0.13968582 0.046509676
0.20813324 0.10082326 0.020594833 -0.14110173 0.082425416 0.009198666 0.019657198 -0.214076
-0.17528015 -0.18701757 -0.2090853 0.19692707 -0.03950361 -0.1255982 -0.21238983 0.026012955
-0.18488637 0.20780401 0.17081471 -0.09176895 0.1524308 -0.032783035 -0.04326989 -0.036170542
-0.20979169 0.05709001 0.21305037 0.216411 0.12315442 -0.18074453 0.0096877795 0.09127883
-0.08066847 0.063933365 -0.027171852 -0.07812777 0.00055362674 -0.12820843 -0.13833314 -0.09107333
-0.01170236 0.03580729 0.09343001 0.20228799 -0.16971612 0.09504275 0.0782125 -0.08031566
-0.060331415 -0.009800196 0.12748533 -0.054374274 -0.14425701 0.068501435 0.1925038 -0.15359457
-0.0560324 0.19584754 -0.054218873 -0.18588564 0.1942871 -0.053733602 -0.117877536 -0.006749953
0.04274994 -0.04130212 -0.08272204 -0.0530003 0.20780021 -0.022639168 -0.1085334 0.103486605
-0.09700221 -0.062149134 0.12981045 -0.08253611 0.13608041 -0.15967251 -0.18248829 -0.027486246
-0.01852679 -0.15118831 -0.092034 -0.091924794 0.0077965134 0.06348253 0.12685785 -0.09562911
0.17448448 0.088458166 0.10554036 -0.1396646 -0.18222985 0.14474839 0.12031457 0.040112052
-0.101897605 -0.07817409 0.0026573301 0.19730313 -0.11410772 -0.12988691 -0.10816863 -0.17689876
0.18593049 -0.1817905 -0.005087249 0.18359686 -0.2034941 0.16767754 -0.096219346 0.21297964
-0.1974857 0.025900764 0.0047856015 0.12570947 -0.19582811 -0.17626132 0.074595936 0.0060882038
-0.006230437 0.19679472 -0.047034908 0.11914083 -0.16297676 0.1330702 -0.18936165 0.13375275
0.1230705 0.16759272 0.023197394 -0.179921 -0.024542915 0.17752251 0.06275243 -0.13770024
0.08243312 0.0047570122 0.01506267 0.21562997 0.024099426 0.115015775 -0.013718248 0.1081054
-0.036760535 -0.108033076 0.09986525 -0.05586179 0.014266315 -0.05689615 0.15162756 0.21294759
-0.16145086 -0.1760675 0.12926091 -0.14368038 -0.10638539 -0.08774639 -0.20546369 -0.18964238
-0.0079849595 -0.15567178 0.032613855 -0.21234818 -0.12519035 0.1734546 -0.10416239 0.009383555
-0.0822736 0.12818131 -0.1403607 0.06299872 0.09056785 0.09050407 0.05407236 0.08459555
0.057677697 -0.022145636 0.0813556 -0.08872578 0.17903557 -0.06337798 -0.07398391 0.06318859
-0.203718 -0.035719 -0.002350656 -0.0674751 -0.01382506 0.11031196 0.11364222 0.07831776
0.026726224 -0.14290348 0.15866071 0.122042336 0.18242694 0.07660738 -0.19121778 -0.10258086
0.14385098 -0.055049233 -0.19081104 -0.02005037 -0.03810458 -0.114484884 0.02379059 0.13129294

conv3.bias f4 [64]
00000000: 8e96 b139 1c21 cf39 9930 e33a 67fe 01ba
00000010: 43b8 393b e82d bb3a 524e a2ba bad4 08bb
00000020: 2ce4 feba ac66 20bb f9ad 4e3b fec4 acba
00000030: 8938 343b f8d1 0b3b 8136 2d3b 21b0 943a
00000040: f8e4 14ba c04c d539 a27e 9b3b e373 e7ba
00000050: abd1 f63a c9e7 b93a e2e5 bc3b 4c64 75ba
00000060: e03d 00b9 6054 533b 1609 4d3b bb7c 593a
00000070: c320 28ba 378a 063b e6b2 273b 4472 4eb8
00000080: fbbb 57ba 98c3 0d3a b9a2 203b e80e f73a
00000090: 36d7 82ba e228 9739 4a3c cb3b 2663 703a
000000a0: 18be e0ba a114 803b 948d 69ba adc0 85bb
000000b0: 5f6d 253b 5435 beba a5ca b23b fbad d73a
000000c0: d9fc a73a 7a7a 3e39 102c 78ba c8a1 8f3a
000000d0: 0909 133a f83b 343b 3d61 923a 5dc0 0ebb
000000e0: 4a12 fc3a f86e 8c3b c408 8e3b 9b9f 183b
000000f0: ae49 2c3a 036f 5eb9 82ad 82ba 4602 12bb
0.00033872243 0.00039506785 0.0017333209 -0.00049588684 0.0028338588 0.0014280649 -0.001238296 -0.0020878748
-0.0019446663 -0.002447526 0.0031536801 -0.0013181267 0.0027499518 0.0021334868 0.0026430192 0.0011343994
-0.0005679871 0.0004068371 0.0047453204 -0.0017658438 0.0018830796 0.0014183457 0.005764709 -0.00093609537
-0.00012230081 0.0032246336 0.0031285933 0.00082964794 -0.0006413573 0.002052916 0.002558881 -4.9220645e-05
-0.00082296104 0.0005407869 0.0024511053 0.0018849047 -0.0009982351 0.00028831424 0.0062022554 0.00091700477
-0.0017146496 0.003908709 -0.00089093414 -0.0040818066 0.0025242192 -0.0014511743 0.005456286 0.0016455048
0.0012816443 0.00018165438 -0.0009467015 0.0010958249 0.00056089513 0.0027501564 0.0011167895 -0.0021782138
0.0019231525 0.0042856894 0.004334541 0.0023288492 0.00065722584 -0.00021212925 -0.0009969922 -0.0022279187

fc1.weight f4 [128, 192]
00000000: 3f87 afbc d11e 083d 7a1a 333d 547b 13bc
00000010: 28f5 81bc 3b3f 83bd 3f85 013d bb0c 683c
00000020: d9a9 4bbd 32ca 873d 4ec5 e73c 71d0 983d
00000030: 5c3e 42bd 7f82 873b adab 673d 9aea 6d3d
00000040: 9fc7 8a3c 988e 663d 52b4 0c3d e513 68bd
00000050: 0da3 9abd 5b81 3a3d 7dae dabc 8340 b33c
00000060: 845b 75bc 46c9 0c3d 04fe 5ebd cb2b 47bb
00000070: e5af fe3c aaa0 b83c b8ea 64bd cd33 833c
00000080: 68cf 413d 42dd be3c efdd 8d3d 207e 80bd
00000090: 5d84 6b3d 77e4 343d 6815 853d 5e23 743d
000000a0: 9870 2e3c 311f 29bd 8138 7abd 9fd3 ec3c
000000b0: 9754 64bd 090c 4abd a19e 943d bb42 8f3d
000000c0: 9ca9 943d 4ec5 30bd 9e4b 403d ebef 4ebd
000000d0: 2ce6 4ebd 43f5 5ebd 3af5 b03a 2c09 313d
000000e0: 165e 86bd 4ecd 39bd 16ec 82bc 2014 3e3b
000000f0: 2dc0 70bd e059 433d b52d 10bc 9038 ff3c
00000100: 4a37 033d d83f 80bd 8175 e1bb b282 033c
00000110: 75eb a93c ba33 88bd 4c1e 0d3c fa2f 82bd
00000120: 5121 883d 3ace 93bd 93b7 3c3d eca8 c83b
00000130: 52ce 77bd 620c e9bc 5563 5c3d 1cba b03c
00000140: e726 47bd 9f46 fe3c c771 8dbc e415 dd3c
00000150: b237 113d 6bbb 683d b71c 203d 99ca 6d3c
00000160: 76c5 56bd 968a 2c3b 0b30 37bd 2f33 7a3d
00000170: 3a86 47bd 8255 38bd c9f2 29bd 7a1d a0bc
00000180: 4152 103c ba34 633d 6422 523d b41b 353d
00000190: eecc eabb f6d6 2bbd b54b a7bc 9d72 6b3c
000001a0: a1bd 3c3d c1b5 763d e9ce 0ebd e28c 15bb
000001b0: 5496 71bd 08fc bbbb 6b2f 843d 48a8 84bc
000001c0: 47a2 82bd fd68 a73c 7eac 733d a4e0 183c
000001d0: 81f6 463d d28f f13c 1f1d 85bc dd97 943d
000001e0: ea74 04bd 4d7e ddbc 4958 5d3d 6a1e 383d
000001f0: e78d c13c 73ae 0abd 9832 3d3d 57e0 45bb
00000200: ad3d 89bd 9bc8 623d 5c1b 89bd cc2c e83c
00000210: 6093 8f3d f5b6 ff3a ccee 5c3c 51e0 00bd
00000220: 2a34 90bb 31eb 97bd 4c20 813c fd36 64bc
00000230: 5e5f f9bc 67ef 793c 19ad 873c 149f b63c
00000240: 1979 433d 5e1f 43bd e73f 6bbd e5f5 853b
00000250: ea37 453d beb9 45bc 8653 21bd aea5 f9ba
00000260: a390 fdba d2d3 8f3d f5dd 2b3c 4407 19bd
00000270: acd5 513d c7d8 51bb a879 013d c560 1abd
00000280: 36f9 3dbc 8cf8 1bbd eac8 573c b671 61bd
00000290: 5624 dabc 0c3c 83bd 52e2 31bc 005f 773c
000002a0: ddcf 6abd 9f15 923d fc0a 583d c704 77bd
000002b0: 8fce 7abc 560c c53c 3d8f 66bd 86a6 773d
000002c0: 07b4 3b3c 9a5a 52bd 2628 ccbc 5775 93bd
000002d0: 814a 23bc f5fb 8e3c c599 87bd 015c f2bc
000002e0: dcb1 593d 0680 02bb 46ed 8dbd 837d 3f3d
000002f0: 3754 743d 67bd 6f3d 1f1d 483d a50b ba3b
00000300: 5ef6 0e3b 312d 92bb 184d a4bc 360b 7a3d
00000310: fcd7 a13c 351d 1ebd f400 933c cdbb 64bd
00000320: 0497 343d ca71 083d 1f40 bfbc 3107 76bd
00000330: bdc5 ca3c ccb6 8e3d dfec ec3c e617 40bd
00000340: ab13 983c 2e89 c93c a40e 303c afe0 f93c
00000350: 2adb 683c 77f5 183c 8e68 38bc ef6c 183b
00000360: 26c8 24bd 0d58 dabb e84e 663d cc1a 82bc
00000370: bf38 36bd 4242 8f3d 1acf c1bc e2d4 50bd
00000380: ba4f 473d 9363 c73b 86aa c9bc b456 823d
00000390: 1116 873d 226f 363d f8a1 773d 6a5c 7bbd
000003a0: f07b 6cbc 4352 a0bc 4854 3cbd 0dc9 c63a
000003b0: d0be 563d bfc8 c3bc a911 22bd c1cd 3abd
000003c0: 6b1c 0c3d 1b57 773d 76b4 693d 3765 913d
000003d0: 0f30 063d 8802 803d 884a d13b 2353 173d
000003e0: f67a 23bd c176 03bd 173d 2a3d 9cde a9bc
000003f0: 5923 4ebd ab9a 7d3d 9f74 89bd 03ef 32bd
-0.021426795 0.033232514 0.043726422 -0.009001572 -0.01586397 -0.06408545 0.031621214 0.014163191
-0.049722526 0.066303626 0.028292324 0.07461632 -0.04742275 0.0041354294 0.056560207 0.05808506
0.01694089 0.05628833 0.034351654 -0.056659598 -0.07550631 0.04553352 -0.02669453 0.021881348
-0.014975432 0.034371637 -0.054441467 -0.0030391093 0.031089732 0.022537548 -0.055887908 0.016015911
0.04731694 0.023298863 0.06927096 -0.062740564 0.05749928 0.044163194 0.064982235 0.05960404
0.010646962 -0.041289512 -0.061089043 0.028909503 -0.055744734 -0.049327884 0.072568186 0.0699515
0.07258913 -0.043156914 0.046947114 -0.050521772 -0.050512478 -0.05443312 0.0013500818 0.043221638
-0.06560914 -0.04536181 -0.015981715 0.0029003695 -0.058777023 0.047693133 -0.00879996 0.0311549
0.03203515 -0.06262177 -0.0068804626 0.008026766 0.020742157 -0.06650491 0.00861318 -0.06356807
0.066469796 -0.07217069 0.046073508 0.0061236527 -0.060499497 -0.028448287 0.053805668 0.021573119
-0.048621085 0.031039534 -0.017266167 0.026987977 0.035453506 0.05681936 0.039089885 0.014513635
-0.052434407 0.002632772 -0.04472355 0.06108397 -0.048711993 -0.04500342 -0.041491304 -0.019545306
0.008808673 0.055470206 0.05130233 0.044215873 -0.007165543 -0.04195305 -0.020421842 0.014370588
0.04607928 0.060231928 -0.034865294 -0.0022819568 -0.058981255 -0.0057368316 0.06454357 -0.016193524
-0.06378608 0.020435805 0.059490673 0.009330902 0.04857493 0.029487524 -0.016249238 0.07255528
-0.03233806 -0.027037764 0.054039273 0.04495088 0.023627235 -0.033857774 0.046190828 -0.0030193531
-0.06701217 0.055367094 -0.066946715 0.028341673 0.070105314 0.0019509481 0.013484668 -0.031463925
-0.0044007497 -0.07417906 0.01576247 -0.013929126 -0.030440982 0.015254832 0.016562032 0.022292651
0.04772291 -0.047637336 -0.05743399 0.004088151 0.048149027 -0.01206821 -0.039386295 -0.0019046569
-0.0019345473 0.070228234 0.01048993 -0.037360445 0.051229164 -0.0032020079 0.03161016 -0.037689943
-0.011595061 -0.03807883 0.01317046 -0.055040084 -0.026628654 -0.064079374 -0.010857182 0.015098333
-0.05732714 0.0713303 0.05274485 -0.06030729 -0.0153080365 0.024053734 -0.056288946 0.060461544
0.011456496 -0.051355936 -0.024921488 -0.07200115 -0.009966494 0.017454127 -0.06621126 -0.029584887
0.053148136 -0.0019912734 -0.06930022 0.046750557 0.059650626 0.058530238 0.048855897 0.0056776577
0.0021814327 -0.0044609536 -0.020056292 0.061045848 0.01975631 -0.038602073 0.01794479 -0.055843163
0.044089332 0.033311643 -0.023346005 -0.060065452 0.024752492 0.069684595 0.028921543 -0.04689779
0.018564066 0.024601545 0.010745678 0.030502645 0.014212409 0.009335867 -0.0112553965 0.002325829
-0.04022994 -0.0066633285 0.056227595 -0.015881918 -0.04448771 0.069950595 -0.023658324 -0.05098427
0.048660018 0.006084868 -0.024617445 0.063641936 0.06596006 0.04453958 0.0604572 -0.06136743
-0.014433846 -0.019570475 -0.045978814 0.0015166119 0.052428067 -0.023899434 -0.039567623 -0.04560638
0.03420679 0.060385805 0.057056867 0.07099383 0.032760676 0.06250483 0.0063870586 0.03694452
-0.039912187 -0.032095674 0.041562166 -0.020736031 -0.05032668 0.06191508 -0.06711697 -0.04368497

fc1.bias f4 [128]
00000000: 6550 78bd 845e 72bd 7817 c5bc 470d 823d
00000010: 261e 243d 91c2 283d b9c3 8e3d eb77 0bbd
00000020: 8840 423d 6fb1 19bd 64fb f2bc 1734 0a3c
00000030: 755d 8ebd cdbb 70bd e692 0a3d 4b3e 9abc
00000040: 7e89 5b3d 6064 f83c e02d 50bd 99b9 0cbd
00000050: 5781 f9bc fe33 38bd b3e9 b13c ece6 febb
00000060: b242 21bd 7900 8b3d e126 bdbc d643 01bd
00000070: 6e33 813c 2d26 9fbc 1fde e8bb e480 6fbd
00000080: ea78 313d 4b3e 93bd c13a 00bd a6d8 90bc
00000090: d89e 00bd f739 be3c a0ca 863d 4a42 58bc
000000a0: a61e 66bd 5504 d5bc cbd2 753c 2135 41bb
000000b0: 3634 6a3d d810 573c b62c 843b 601e 5fbd
000000c0: 5ba3 8cbc 94bc 57bb ad3c 76bd 7f16 32bc
000000d0: 1532 083d 9e8b 48bd f25b 2bbd 77f1 f53c
000000e0: e5f3 143d d78c 83bd 8284 83bc 2bff 5cbd
000000f0: 4445 943d 9b0c 373d c520 6abd 6b63 6c3d
00000100: 89aa 6bbd fc0e 7abd ea5d febc b15d 80bd
00000110: a73b 743a 5cca 233d 82d3 813d 9b24 e9bc
00000120: 40c9 d23a 61b1 e93c f45e 79bd 05ad 12bc
00000130: 3245 5f3d b7ad e83c 41cb 1dbd 7157 52bc
00000140: b470 20bd 4f13 5f3d 51d5 fbbc 48b5 5d3d
00000150: d0f3 39bd 44ca 11bd 0ee3 4dbb 2703 653d
00000160: f453 d63c 561e 12bd 16d5 01bd 0192 6cbd
00000170: d077 60bd e4c3 043d 66ce dcbc ef39 5c3d
00000180: 1214 913d ea69 8e3c b4cf 36bd f210 603d
00000190: 6c43 023d 5c2e 5bbd f0f0 1abc 7391 a13c
000001a0: a736 75bd 4b65 813d 2284 41bd c0c4 8d3c
000001b0: b5ec abbc 9197 e63c 1f7b 953d 2803 27bd
000001c0: 1add 1bbd e10f 9d3c 7aeb b43c 21a1 fcbc
000001d0: 8847 b03c 05bb 853d 89a3 393b 8218 6d3d
000001e0: e803 373c 539f c33a 5405 653d ed57 2f3d
000001f0: 330e 4abd 5880 693c 7181 cb3c 266c 0e3d
-0.060623545 -0.05917217 -0.024059042 0.06350189 0.040067814 0.041201178 0.06970925 -0.03404991
0.047424823 -0.03752273 -0.029660888 0.008435271 -0.06951419 -0.05877285 0.0338315 -0.018828532
0.05359792 0.0303213 -0.050825 -0.034356687 -0.030457182 -0.04497146 0.021717882 -0.007778993
-0.039370246 0.067871995 -0.023089828 -0.031558834 0.015771594 -0.019427383 -0.007106557 -0.05847253
0.043328203 -0.07189616 -0.031306032 -0.017681431 -0.031401485 0.023221 0.065816164 -0.013199398
-0.056181572 -0.026003042 0.01500387 -0.002948113 0.0571787 0.013126574 0.0040336503 -0.054472327
-0.017167738 -0.0032918798 -0.06011646 -0.010869621 0.033250887 -0.048961274 -0.041835733 0.030022366
0.03636541 -0.064233474 -0.016054396 -0.053954285 0.07239774 0.044689756 -0.057160158 0.057712
-0.057535682 -0.061049446 -0.031050641 -0.0626787 0.000931675 0.039987907 0.0633917 -0.028459838
0.0016081706 0.028526964 -0.06088157 -0.008952384 0.05450935 0.028403146 -0.038523916 -0.0128382305
-0.039169982 0.054461773 -0.030741366 0.05412796 -0.045398533 -0.035593286 -0.0031415853 0.05591121
0.026163079 -0.03567346 -0.031697355 -0.057756428 -0.054801762 0.03241338 -0.026953887 0.053766187
0.07083906 0.017384488 -0.044631675 0.05470366 0.03180258 -0.05351101 -0.009456858 0.019722676
-0.059866574 0.06318148 -0.047245152 0.017305732 -0.020986894 0.028148444 0.07298874 -0.040774494
-0.038052656 0.01917261 0.02208494 -0.030838551 0.021518484 0.06529812 0.0028326234 0.0578847
0.011170365 0.0014924802 0.055913284 0.042808462 -0.049329948 0.014251791 0.024841996 0.034771107

fc2.weight f4 [64, 128]
00000000: f4e2 c73c 1c69 b33c ca76 523d ca37 333d
00000010: 2072 e93c 4805 373c 806e ad3a a8a0 25bc
00000020: 20db 7fbc b0b7 aabd 8e8a 66bd ccbc b3bd
00000030: d047 9cbb 0156 ac3d 38a5 0c3c a2a4 9abd
00000040: 9234 003d b526 b2bd 20f3 9cbb 3cd6 833c
00000050: 7c0a 83bd aa4c 313d 3cf7 e53c 20ba 443c
00000060: dc2d 29bd d0e6 c0bb 8fca 8fbd d3fe 3dbd
00000070: c08d b93b 7f99 a63d fc0a b03c a09d 8fbd
00000080: 7d69 b33d 96f8 063d 2aff 74bd 406e 99bd
00000090: d0b0 623c 6e70 6b3d 9651 483d 40ef f3bb
000000a0: 08ab 3bbc 76b0 12bd b286 1c3d 044e 67bd
000000b0: 007a 753c 9423 8f3c 5c32 be3c 9c31 b4bc
000000c0: 59fa afbd 4a11 7c3d 0050 dbb7 380f 553c
000000d0: 0d48 9bbd 810c 57bd 949d d23c 07d8 4fbd
000000e0: 98c0 e03c c019 c83a 4499 053d c366 a73d
000000f0: c9a7 afbd 8c53 1cbd 0c33 e23c a897 313c
00000100: 80ff 383c 54f3 6fbd de7a 393d b8fb 80bd
00000110: 425d 0f3d 58ba 78bd c78b 8c3d 2cc7 0fbd
00000120: 59a2 9c3d 6074 583c 496e 68bd 144f 99bd
00000130: cb8e 99bd 9181 8dbd b83a 243c c0e9 95bc
00000140: 60cf 07bb e0d2 95bb 4e97 34bd b448 e7bc
00000150: b3b1 8e3d 2ee6 393d 10b4 e23b 6269 5c3d
00000160: 1872 c5bc b5b9 983d 08f3 80bd 3759 ab3d
00000170: a454 8abd 40bb 7abc 9d2e 9cbd b0f2 a93b
00000180: b68c 6c3d b846 afbd 219c a53d 22a8 14bd
00000190: 801d 98bb e2c0 9bbd 16c3 61bd 49e2 b03d
000001a0: 00f3 75bc 0caf a0bc 6d1f 67bd e85c 8dbc
000001b0: 4cf0 aebc e10c a23d 74d7 8bbc 8264 473d
000001c0: e691 253d 8048 703c e035 a5bd 067a 5f3d
000001d0: c876 d43c 8f46 9d3d 59d8 0abd 4d61 a23d
000001e0: 00a0 39b7 05e1 953d d452 1abd 8872 0d3c
000001f0: cb4a ac3d 48b8 49bc 579b 1ebd 67b9 863d
00000200: d07e bcbd dd8e 6c3d 46bd 393d a995 a4bc
00000210: 5403 eabc 6a0b 97bd 8682 1c3d fc79 90bd
00000220: 4ebb b63d c5cb 68bd 773c 82bd 3728 253c
00000230: ddba 11bc 2814 a3bd abc2 bbbc da30 ac3c
00000240: bbd7 a73d 2342 98bd 2e9b 9dbd 50c1 693d
00000250: 20d3 2cbd ceb0 36bb d43b 043d 45b9 b43d
00000260: 0389 b3bd 85f7 613d 3c09 aebc 438b 89bd
00000270: 9fa6 b1bd 7bde ab3c 6847 9ebd 199a ad3d
00000280: f620 f53c 75c3 68bd a86f a3bc 2698 863d
00000290: 609b f53c 382a 5b3d fbf5 01bd af98 8e3d
000002a0: e00a 283d 8574 7a3d 5667 46bd 684c a9bb
000002b0: 7cfb d13c 67fc 70bd affd 2f3d d410 a3bb
000002c0: 0575 debc 8a3f b73d 2ac0 91bd 64c8 7dbd
000002d0: 9f8a 6bbd d5a1 913d 7769 f13b 68cc 6ebd
000002e0: 5c43 8abd 9d65 d93c 8a3c 483d 20a8 7cbd
000002f0: 7183 793d c953 ec3c 9066 7cbd 8fa3 96bb
00000300: a3c1 b83b f4a1 283d 0cc6 883d ad17 b0bd
00000310: f0fa 623d e0b9 42bd 52f8 e9bb 8d3a 8ebd
00000320: 52a8 233d 830a 2abd e398 6bbd f9f0 94bc
00000330: f3e8 96bd e6a1 a83d 52f4 d03c 3aaf a13d
00000340: caf0 343d a591 28bd 1a63 2f3d c681 513d
00000350: cc8e 983d 1df0 ac3d c0f3 6a3d 2706 663c
00000360: a0aa 9c3c e46b 1e3d 6372 a63d e4dc 1cbd
00000370: 1593 afbd 5fff a8bd 85d9 fc3c 80da 8abd
00000380: 995e a7bd 4330 c4bc 97e0 21bd bdb6 9ebc
00000390: 938f 26bd c093 0bbc 54cc b73c 5ca0 b5bd
000003a0: c6c6 f03c bfd8 ad3d 9b49 63bd 2af9 473d
000003b0: c67f 33bc f4af b63d 3a90 8e3d 502d 723c
000003c0: 6eb4 93bd 3884 533b 32fb 9ebc b153 513c
000003d0: abd4 12bd e415 b03b 19d6 373d 519e 7d3d
000003e0: 6087 a33b b2ab c1bc 43af 803d ea96 593d
000003f0: 2628 75bd d622 a33c b2b7 dcbc d1fe 9b3d
0.024400212 0.021900706 0.051382817 0.043754376 0.028496802 0.011170693 0.0013231784 -0.010109104
-0.015616208 -0.08335817 -0.05628448 -0.087762445 -0.004769303 0.084148414 0.008584313 -0.075509325
0.031300135 -0.08698789 -0.004789725 0.016093366 -0.06398484 0.043286003 0.028071992 0.012007266
-0.0413035 -0.00588689 -0.07021057 -0.046385597 0.00566265 0.08134746 0.021489613 -0.070124865
0.08760355 0.032951914 -0.059813656 -0.07491732 0.013836101 0.05748027 0.04890593 -0.0074442923
-0.011454351 -0.035812818 0.038214393 -0.056470886 0.0149827 0.01747302 0.023217373 -0.021996312
-0.08592672 0.061539926 -2.6144087e-05 0.013004117 -0.07582102 -0.05250216 0.025709905 -0.05074313
0.027435586 0.0015266463 0.03261687 0.08173897 -0.08576924 -0.038165614 0.027612232 0.01083938
0.011291385 -0.058581665 0.04528319 -0.062980115 0.035001047 -0.060724586 0.06862598 -0.035102054
0.07648153 0.01321134 -0.0567458 -0.07485786 -0.07497939 -0.069094785 0.010023765 -0.018299937
-0.002072297 -0.0045722574 -0.044089608 -0.02823291 0.06967487 0.045385532 0.006918438 0.05381144
-0.024102256 0.07457296 -0.062963545 0.08366626 -0.06754425 -0.015303433 -0.07626078 0.0051864013
0.05775138 -0.085584104 0.0808642 -0.036293156 -0.0046421885 -0.07605149 -0.05511769 0.086369105
-0.015011549 -0.019614719 -0.056426454 -0.017256215 -0.021354817 0.07912613 -0.01707051 0.048679836
0.040422343 0.014665723 -0.080669165 0.05455973 0.025935546 0.076794736 -0.03389773 0.07928715
-1.1064112e-05 0.0731831 -0.037676647 0.008633263 0.08412703 -0.0123120025 -0.038722362 0.065783314
-0.09203875 0.057753433 0.04534652 -0.020090895 -0.02856604 -0.07375224 0.038210414 -0.07054517
0.08922444 -0.056834955 -0.06359189 0.010080389 -0.008894649 -0.07962829 -0.022919973 0.021019388
0.08195444 -0.074344896 -0.07695614 0.057069123 -0.042193532 -0.002787638 0.03228362 0.088244
-0.08766367 0.055167694 -0.021244638 -0.06716015 -0.086743586 0.02098011 -0.077284634 0.084766574
0.029922944 -0.056827027 -0.019950703 0.06571989 0.029981315 0.05350706 -0.031728726 0.06962716
0.041025996 0.061146278 -0.048438393 -0.005166579 0.025632612 -0.05883446 0.04296654 -0.0049763713
-0.027155409 0.08947666 -0.071167305 -0.061958686 -0.057505246 0.07110945 0.0073673087 -0.058300406
-0.06751129 0.02653771 0.04888586 -0.061683774 0.060916368 0.028848546 -0.06162125 -0.0045971344
0.0056383177 0.041170076 0.066783994 -0.08598266 0.055415094 -0.047540545 -0.007140198 -0.069447614
0.039955445 -0.04151393 -0.05751885 -0.018181311 -0.0736865 0.08234005 0.025507126 0.0789475
0.044174947 -0.041154522 0.04281912 0.051149152 0.07449111 0.084442355 0.057361364 0.014039553
0.01912433 0.03867711 0.08127286 -0.038296595 -0.085729755 -0.08251833 0.03086544 -0.06779957
-0.0817234 -0.023948794 -0.039520826 -0.019374246 -0.040664267 -0.008519113 0.022436298 -0.08868477
0.029391658 0.08488607 -0.055490118 0.048821606 -0.0109557565 0.08920279 0.06961103 0.014781311
-0.072121486 0.0032274853 -0.019406889 0.012776301 -0.035847347 0.0053737033 0.044881914 0.06191856
0.004990503 -0.023641441 0.062834285 0.05312244 -0.05985274 0.019914072 -0.026943062 0.07616962

fc2.bias f4 [64]
00000000: d462 86bd 04a4 8dbd 92ed c93c 50d0 2bbd
00000010: decd 36bc 6d2c fc3c c50f 65bd e55f 823d
00000020: dc32 92bd 090d 84bd 6cd6 6fbd 36d2 39bd
00000030: 94c1 8ebd be59 d5bc 32c1 a2bd ac07 60bd
00000040: 32af 2d3d 4024 f23c 5903 a63c 365a 323d
00000050: b885 843d 066a 973d 5d93 3cbb d4ec 78bd
00000060: 87df f63c fb65 973d 99f4 6fbc 4070 493d
00000070: 83db 29bd 3728 983d 1f12 a6bd 61e0 29bd
00000080: 6548 69bd c821 553d d346 90bd 9581 07bd
00000090: da2f 4ebd 5c5a 1cbc 5065 adbc 896a 983c
000000a0: 1c84 bbbc 60ca a43d f0a9 8fbd 58ef 70bc
000000b0: 6367 1abc 08fd 5c3c 5d8f ea3c d3f7 19bd
000000c0: e316 643d bdef 833d 514a 4a3c a2e1 35bd
000000d0: f6ce f13c eb8b 8b3d b338 75bd 40e8 5ebc
000000e0: 7c3c 1d3d 6228 7fbc b3ce a03d cf76 853d
000000f0: 897a b5bd 758e 033d f7fd 66ba 7d58 1cbd
-0.06561819 -0.06916049 0.024649415 -0.04194671 -0.011157481 0.030782903 -0.055923242 0.06365947
-0.07138607 -0.06447799 -0.058554098 -0.04536649 -0.06970516 -0.026043769 -0.07947005 -0.054694816
0.042403407 0.029558301 0.020265268 0.043543063 0.06470817 0.07393269 -0.0028774359 -0.060772732
0.030135883 0.07392498 -0.014645719 0.049179316 -0.04146911 0.074295454 -0.08108925 -0.04147375
-0.056953806 0.05203417 -0.07044759 -0.033082563 -0.050338604 -0.009543028 -0.021166474 0.018605487
-0.022890143 0.080464125 -0.07014835 -0.0147055015 -0.009424063 0.013488062 0.028632814 -0.03758986
0.05568589 0.06442211 0.01234682 -0.044404633 0.029517632 0.068137966 -0.059868526 -0.013605177
0.03838776 -0.015573593 0.07851925 0.065168016 -0.08861262 0.03211828 -0.00088116474 -0.038170327

fc3.weight f4 [2, 64]
00000000: 0060 bdbc ce53 f23d 2d72 f83c e2c8 6dbc
00000010: 38c3 67bd e36d 903d 6160 4d3c 21d5 d13d
00000020: 5e95 d8bd 681e a63d ffa8 c6bc d684 99bd
00000030: 64ea 033e 3093 b13c e38b bbbd 007d b43a
00000040: 49be e5bd 8377 aabd 94d6 00be 7a4f ac3d
00000050: 742b e5bd fc09 c23a f3d2 45bc f689 86bc
00000060: a8c8 e2bd 4ccb 223d 1f48 71bd 2a2f 6b3d
00000070: 40d3 fa3d 9313 493c 563d a9bd 52a4 cb3d
00000080: 0ee9 ebbd b810 a0bc 1595 cabd 0067 8abd
00000090: 58e0 e1bc ac6d ce3d bc9c 71bd 593e 173c
000000a0: 6719 ba3b 5aef cebc c8d7 0e3d c2f9 fc3d
000000b0: 0bf3 713d 640d adbd 4875 aabd b61b 97bd
000000c0: aef6 563b e608 203d aeb2 ac3d 7b24 16bd
000000d0: dd95 d93d 5d95 d2bd c856 c73d 1d59 05be
000000e0: 3efc 243d c6f6 e1bb 3e54 7bbc ef66 eebd
000000f0: ac47 693d 5a18 c03d 840b 0bbd df75 863d
00000100: 00d0 6a3b ac9e a5bd c575 a7bc c8ac d23d
00000110: aadc 93bd 856f 873d b427 4fbd e6a7 51bc
00000120: 0cfc f3bd 3414 9c3d f96a e03d c0e6 25bc
00000130: fbb6 8bbc 9654 ff3d d16e bebc 5831 dfbd
00000140: c942 45bd 85a9 193d 281e 623d b06c d33d
00000150: f235 c9bd 02e6 193d e1cd 40bd b531 7bbd
00000160: 107b b23d 9801 77bd b561 853d d475 753a
00000170: 4ec9 00be f33c 9e3d dc90 8ebd 405c cc3d
00000180: 2f45 63bb c0bd af3d d78f f73d 4c7d 013d
00000190: 4081 dc3c b41e c3bd c244 823d 71cb a1bd
000001a0: 0982 f8bd 0263 df3c 24c5 32bd 9099 cbbd
000001b0: 5f17 50bd 9e90 98bd 26a1 f73d c557 e43c
000001c0: 4275 8e3d 2006 fe3d 1207 963d ed4a 54bd
000001d0: 1fbe 9abd 3ac7 96bc c664 a3bd d461 2cbd
000001e0: 7587 3d3c 8152 b43b 5010 883d 0de6 93bd
000001f0: ba1f a23d 91bc 893c 8ce3 f7bd 4e5a 47bd
-0.023117065 0.11832391 0.03032788 -0.014513226 -0.05658266 0.07052209 0.012535186 0.10245729
-0.105753645 0.08111268 -0.024250505 -0.074960396 0.12882382 0.02167663 -0.09157541 0.0013770163
-0.11217935 -0.08323576 -0.12581855 0.084135965 -0.11189929 0.0014804001 -0.01207422 -0.016423207
-0.110734284 0.03974466 -0.05890667 0.057418026 0.12247324 0.012272733 -0.08263652 0.09943451
-0.11519061 -0.019539222 -0.098917164 -0.06757927 -0.027572796 0.10079512 -0.058987364 0.009231173
0.0056792977 -0.025260616 0.034873754 0.12352325 0.059069674 -0.0844982 -0.08323151 -0.07378332
0.003280084 0.039070986 0.08432518 -0.036655884 0.10624287 -0.10282395 0.09733349 -0.13022275
0.04027962 -0.0068958728 -0.015339909 -0.11640727 0.056953117 0.09379645 -0.03394653 0.06565451
0.0035829544 -0.08086905 -0.0204419 0.10286862 -0.07219823 0.066130675 -0.050574973 -0.012796378
-0.119133085 0.07621041 0.109579034 -0.010125816 -0.017055025 0.12467305 -0.0232462 -0.108980834
-0.048159394 0.037515182 0.05520454 0.10323465 -0.098247424 0.03757287 -0.04707134 -0.0613267
0.087148786 -0.060304254 0.06512777 0.0009363566 -0.12576792 0.07726469 -0.069612235 0.09978533
-0.0034678688 0.08581114 0.12087982 0.031613633 0.0269171 -0.095273405 0.06360771 -0.079001315
-0.12134177 0.02726889 -0.04364504 -0.09941399 -0.05080354 -0.074494585 0.120912835 0.027873883
0.06955959 0.12403512 0.07325567 -0.051829267 -0.07555794 -0.018405546 -0.079782054 -0.042085484
0.01156794 0.0055029993 0.06643736 -0.07221613 0.079162076 0.016813548 -0.12103948 -0.048670106

fc3.bias f4 [2]
00000000: b05b efbd 5b93 5fbc
-0.1168741 -0.013645972
