model_to_load/mod64_save5.pt (torch_old, 172265 bytes, 12 tensors)

conv1.weight f4 [18, 64]
000000 20 e0 66 3e 69 8e 48 bc 94 19 f6 bb 4f f7 6b be
       0.22546434 -0.0122409845 -0.0075103734 -0.2304356
000010 c0 9f 07 be bc 6c 49 3e 94 f2 53 3e c8 52 13 3e
       -0.13244534 0.19670385 0.20698005 0.14387047
000020 43 60 c0 bb 2d 01 d1 3d 4a 93 1f bb 70 8d 28 3e
       -0.0058708503 0.102053024 -0.0024349266 0.16460204
000030 45 b7 a8 ba c0 64 61 bc b2 0f 6a be e2 d7 bc bc
       -0.0012872001 -0.013756931 -0.2285755 -0.02305216
000040 93 e7 32 3e 87 13 c1 bd d8 d7 f6 3d b5 b1 5b be
       0.17471151 -0.09427553 0.12052888 -0.21454509
000050 48 67 39 bd 9a 65 b2 bd 8c 75 6b be e0 e6 ff 3d
       -0.045264512 -0.08710785 -0.2299406 0.12495208
000060 b0 1b d7 bd 46 55 6c bc b2 44 11 be b4 70 fe bd
       -0.10503328 -0.014424628 -0.14186361 -0.1242384
000070 94 25 5a 3e 43 f8 e4 bd f4 70 36 be 66 37 04 bb
       0.21303397 -0.11180165 -0.17816526 -0.0020174622
000080 0f 09 8b be 30 2f b6 bd 24 bd 70 3e fd 89 80 bc
       -0.2715535 -0.08895719 0.23509651 -0.015690798
000090 0a e0 d6 3c b0 13 8a be 67 bb e5 3d 5d de 43 3e
       0.026229877 -0.26968145 0.11217385 0.19127794
0000a0 54 2a d4 3d a0 d0 c2 bd bd e6 a1 3d 51 fb 5f 3e
       0.10359636 -0.09512448 0.07905338 0.21873213
0000b0 1e 8c 45 3e 1d 8b c0 bd fb 27 1b 3e c4 84 52 3e
       0.19291732 -0.09401534 0.1515197 0.20558459
0000c0 33 61 84 bd c3 b7 99 3d 66 2b 28 3e 8a cc 62 3d
       -0.06463852 0.07505753 0.16422805 0.055370845
0000d0 f8 3b 57 3e 4a af d2 3d 79 7f cf 3d 55 15 cd 3d
       0.2101897 0.1028734 0.10131735 0.100138344
0000e0 d3 4c 57 be 3e 71 b8 bd 13 15 27 be 59 00 26 bd
       -0.210254 -0.09005974 -0.16316633 -0.040527675
0000f0 52 f9 86 3d 6c b9 3f 3e 76 fa 89 3d 70 32 ad bc
       0.06590523 0.18723077 0.06737225 -0.021142215
000100 0e 18 7d bd cf 7d 4f 3e 6e c4 b9 bd bf dc 8c 3d
       -0.06179052 0.20262836 -0.09070669 0.068780415
000110 2a b3 25 3e 16 ee 31 be 02 ea b5 3d a8 0e 71 be
       0.16181627 -0.17375979 0.08882524 -0.23540747
000120 62 fd 06 3e 7a 88 29 be d0 24 5e be 3d 7b 38 3e
       0.13182595 -0.16555968 -0.2169373 0.18015762
000130 31 03 fa bd af f4 32 be 70 4d 21 be a8 dc 0a be
       -0.1220764 -0.17476152 -0.15752196 -0.13560736
000140 7b 33 42 3e 2f 48 3a be fe 1b 66 be b8 25 13 bc
       0.1896495 -0.18191598 -0.22471616 -0.008981161
000150 a6 8f 38 3e 98 b2 4e be ff e7 9c 3d 04 c6 21 be
       0.18023548 -0.20185316 0.07661437 -0.15798193
000160 0a e4 28 be ad 3f a4 3d e4 b7 24 3e 74 53 4e be
       -0.1649324 0.08019958 0.16085774 -0.20149022
000170 b1 70 44 3e 19 ea 01 bc a5 db 70 be 1e 9e 18 be
       0.19183613 -0.007929348 -0.23521288 -0.14904067
000180 5e 34 12 3e 74 ba 8a bb c4 53 50 3e cb 22 14 3d
       0.14277789 -0.0042336527 0.20344454 0.036165994
000190 e0 55 4a 3e 27 fb 75 be e6 f9 8b 3e 58 fa 10 3e
       0.19759321 -0.24021588 0.27339095 0.14157999
0001a0 13 d6 e8 bb a0 09 7d be 27 31 19 bd 2f 22 5d 3d
       -0.0071055978 -0.24710703 -0.03740039 0.05398768
0001b0 a9 ed 0d bd 4e 7b 42 be 85 13 7c 3d d1 09 07 3d
       -0.03465048 -0.1899235 0.061542053 0.032968346
0001c0 79 85 34 bd d4 15 96 bd f4 5a 4d 3d f1 16 5e be
       -0.044072602 -0.07328382 0.050135568 -0.21688439
0001d0 5a 56 4f bd a7 cd 21 be 66 eb ee 3c 09 83 74 3e
       -0.05061946 -0.15801106 0.029164981 0.23878111
0001e0 76 8e d4 bc 6b ed 8f bd 37 f6 3d bd 65 80 09 be
       -0.025946837 -0.07027706 -0.046377387 -0.13427885
0001f0 4e 83 32 3d b9 19 28 3e 3b 71 79 3e cb cb 83 be
       0.043582253 0.16416062 0.243596 -0.2574142
000200 e6 a4 35 be 60 db 29 3e 55 85 88 be 98 08 9e 3d
       -0.17738685 0.16587591 -0.26664224 0.07716483
000210 a7 fc 89 3d 4f a3 7f 3d 69 52 53 3e 76 61 cf 3d
       0.06737643 0.062411603 0.20636906 0.10126011
000220 6e 3c 40 bd 4d 21 5d be de 4c a5 bd c3 38 8e bd
       -0.04693263 -0.21594734 -0.08071302 -0.0694442
000230 ce 04 0e 3d 5d 4c 85 3e 07 b7 ea 3d 5c 99 77 3d
       0.03467255 0.26034823 0.11460691 0.06044899
000240 eb 92 8b 3e f0 24 1c be cd 9a b4 bd 3d 7c c7 3d
       0.27260527 -0.15248466 -0.088185884 0.097404934
000250 8a 5d 59 be 28 c3 8f bd 0a 84 b5 bd 7c b1 4d 3e
       -0.21227089 -0.07019645 -0.08863075 0.20087236
000260 37 62 81 be 7a 7f 5b 3e dc 32 4d be c3 46 6e 3e
       -0.25270244 0.21435347 -0.20038933 0.23269181
000270 48 2c 04 3e 61 7e 1e be 89 f3 41 bd 36 24 8c bc
       0.12907517 -0.15477897 -0.047351394 -0.01710711
000280 35 d6 4c be 1c 6e 41 3d 12 de 68 be 6b ff 12 be
       -0.20003588 0.04722415 -0.22740963 -0.14355247
000290 94 4e 6b 3e e5 5c 29 3e e8 af 44 be 5f a0 31 3e
       0.22979194 0.16539343 -0.19207728 0.17346333
0002a0 8d c7 87 bd 40 1f 2a bd ca 7a 10 be 3c e4 56 be
       -0.06629858 -0.04153371 -0.1410934 -0.20985502
0002b0 b2 ed f3 bb 65 2c 7d be 4b dd e5 bc bb f6 74 be
       -0.007444107 -0.24723966 -0.028059622 -0.23922245
0002c0 bd c4 7d be 26 0a a0 bd 99 59 3d be 3c c4 c7 37
       -0.24782081 -0.07814436 -0.1849121 2.3814027e-05
0002d0 b4 38 52 3d 9a 00 5d bd fc 35 3d be 31 64 90 bd
       0.051323608 -0.05395565 -0.18477625 -0.0705036
0002e0 47 12 af 3d 25 a7 10 bd e8 6e 6e 3e 66 9c e7 3d
       0.08548408 -0.03531565 0.23284495 0.113091275
0002f0 b0 9a 81 be 1d 14 71 be fd c6 5f be ce 65 05 3e
       -0.2531333 -0.23542829 -0.21853252 0.13027117
000300 71 a6 67 3e 78 72 c7 bc 2a 1a 78 3e aa d4 98 3d
       0.22622086 -0.024346575 0.24228731 0.074624375
000310 87 93 ec bc 20 3f 83 3e e2 0e 34 3e a7 91 b6 bc
       -0.02887894 0.25634098 0.17583802 -0.02228625
000320 7e 9f f7 bd b7 5f 60 3e 02 4f 1e 3e 6e 73 c8 3d
       -0.120909676 0.21911512 0.15459827 0.097876415
000330 56 54 81 bd b1 c2 16 be 40 68 cc bd 8b a4 8c bd
       -0.06314914 -0.14722706 -0.099808216 -0.068673216
000340 b2 18 04 bd 5c ed 09 3e 3e eb 6b be b3 52 67 be
       -0.032250114 0.13469452 -0.23038957 -0.22590141
000350 c1 67 21 3d 1b 4f dd 3d 44 89 4d be 07 b4 47 3d
       0.039405588 0.10806104 -0.20071894 0.04875567
000360 c6 59 36 3e 83 44 11 bd 6d 43 24 3e 76 6d 9f 3d
       0.17807683 -0.03546573 0.16041346 0.0778455
000370 43 61 30 bd 2e 14 99 3c b9 57 80 be 5a 9e 1b 3d
       -0.043061506 0.01868638 -0.25066927 0.037992813
000380 fb 05 52 bd 4a c1 9a 3d f3 05 03 3e 75 15 87 3e
       -0.051275235 0.07556398 0.12795238 0.26383558
000390 09 07 84 be 11 55 81 be b6 13 01 be 00 62 20 3d
       -0.25786617 -0.25260213 -0.12605175 0.03915596
0003a0 e3 85 2a 3d 8f ad b8 bd 86 c8 0b 3c bb 54 4a be
       0.04163159 -0.09017479 0.008531695 -0.19758885
0003b0 96 43 84 3e 3a 72 29 3b 52 90 41 3e 14 04 38 3d
       0.25832814 0.0025855438 0.1890271 0.044925764
0003c0 32 fb f4 bd 60 7d 87 3e 29 b6 97 bd 2b fb 55 be
       -0.11961974 0.2646284 -0.07407791 -0.20896594
0003d0 6c c2 77 3d 5d fc 26 3d 17 a9 71 be ca 1b 0e 3e
       0.06048815 0.040768016 -0.23599659 0.13877788
0003e0 02 b4 6f be 7d 1f 9a 3c a0 3e 7b be 1b a6 6b 3e
       -0.23408511 0.018813843 -0.24535608 0.23012583
0003f0 4f 41 35 3e 66 b8 26 be 22 11 4d 3e b2 6f 48 3e
       0.17700695 -0.1628128 0.20026067 0.19573858

conv1.bias f4 [64]
000000 b6 69 8c 3a 2c 36 84 3a c8 c3 0f 3a 3a 22 95 bb
       0.0010712657 0.0010086945 0.0005484191 -0.0045511993
000010 67 d7 d1 3a 59 94 6d 3b a3 41 7a 39 86 8d dc b9
       0.001600963 0.0036251752 0.0002386631 -0.00042067113
000020 79 67 2c 3b 86 c5 4b 3a cf 2d fb 3b d3 41 20 3b
       0.0026306792 0.0007773269 0.007665373 0.0024453297
000030 d2 03 d1 3a 0b f3 dc 3a bc 8f e0 3a 80 78 e4 b9
       0.0015946573 0.00168571 0.001713268 -0.00043577328
000040 06 28 58 3b 2f ea 0d 3b 73 70 bd ba 89 eb 6c 3b
       0.003298284 0.0021654477 -0.0014453068 0.0036151132
000050 06 23 d6 ba ec f9 91 ba 4d ff a0 b9 c2 d8 5e 3b
       -0.0016337342 -0.0011137105 -0.00030707792 0.003400371
000060 79 68 e6 ba 69 b3 2a bb bb 1a c3 3b ae a2 97 3a
       -0.0017578743 -0.0026046878 0.0059541143 0.0011568868
000070 7f 37 3d 3b c6 45 2f bb 07 31 d1 38 3b 9a e9 ba
       0.002887219 -0.002674447 9.975029e-05 -0.0017822454
000080 46 61 fa 3a 1f d8 94 b9 f8 3f 97 ba 37 18 11 ba
       0.0019102476 -0.00028389783 -0.001153945 -0.00055349193
000090 bc c9 68 b9 ce 32 68 ba 54 e4 d8 3b c0 47 f1 3a
       -0.00022200396 -0.0008857668 0.0066190157 0.0018408224
0000a0 5e 90 4f bb 14 80 24 3c ed 1e 31 3b 85 f8 ac bb
       -0.0031671743 0.010040302 0.002702649 -0.0052786493
0000b0 65 05 ce 3a 4a 08 86 bb b0 ce ab 3a a2 cb 5f 3b
       0.001571816 -0.0040903436 0.0013107862 0.0034148474
0000c0 55 5e 1b b8 99 d7 d6 3a f9 e7 c8 3b 61 40 5c b8
       -3.7042733e-05 0.0016391157 0.006131169 -5.2512045e-05
0000d0 c8 60 9e 3b 9a b6 ca ba 44 dd b9 bb e7 20 44 3b
       0.0048333146 -0.0015465796 -0.005672129 0.0029926838
0000e0 dc 1f 97 3a ba b1 92 3a cd 05 1f bb 0a 0f 61 3b
       0.001152988 0.0011191883 -0.0024264932 0.003434124
0000f0 0f ab aa ba 24 a1 01 3c c1 0b 5b 3b f9 d4 ad ba
       -0.001302095 0.007911954 0.0033423754 -0.0013262323

conv2.weight f4 [64, 64]
000000 a8 55 ff bc f6 0f a4 3d ea 59 da bd 83 23 4b 3e
       -0.031168774 0.08010857 -0.10661681 0.19837765
000010 a1 3b bf bd 32 e0 ab 3c 20 77 f3 bb 9a b3 08 be
       -0.09337545 0.020980928 -0.0074299723 -0.13349763
000020 31 94 b3 3d 65 06 40 3e d1 cc 52 be aa ba 4c 3e
       0.087685 0.1875244 -0.20585944 0.19993082
000030 36 43 2a bd df f3 ee 3d b6 9f a0 3d 5d 22 d5 bc
       -0.041568004 0.116676085 0.078429624 -0.026017362
000040 23 70 9d 3d e1 52 33 be 57 14 c3 bd 15 f4 e6 3d
       0.07687404 -0.17512085 -0.09525364 0.11277024
000050 bd 07 82 3d 0e fc 3d 3e b9 62 59 3c 0f b8 e8 3d
       0.06349132 0.18553182 0.013268166 0.113632314
000060 6b a9 dc 3d 87 4d e7 3d 0b f7 87 bc ba c6 a9 3d
       0.107745014 0.11294084 -0.016597291 0.08289857
000070 77 2c e1 bd c5 35 53 be 14 33 e0 bd c5 f8 d5 3d
       -0.10994809 -0.2062598 -0.109472424 0.1044784
000080 2a a1 66 bd 7e 68 b0 bd 51 ad 1a bd 49 ac b0 bd
       -0.05630604 -0.0861368 -0.037762944 -0.08626611
000090 64 89 4f 3e 24 0e 38 3e 28 44 8d 3d 0f 13 45 bc
       0.20267254 0.17974144 0.068977654 -0.01202847
0000a0 f9 17 fe bd d0 99 56 bd 03 fe 2c 3d e0 44 23 be
       -0.12406916 -0.05239278 0.042234432 -0.15944242
0000b0 4a b1 b2 bc 55 9e 58 be 80 7d 28 be 21 d0 b3 bd
       -0.021813054 -0.21154149 -0.16454124 -0.08779932
0000c0 0a 63 40 be b9 f0 1d be d6 c1 5f 3d 18 a3 4c 3e
       -0.1878778 -0.1542386 0.054628216 0.1998409
0000d0 88 d1 27 be 7d db 5c 3e aa 27 44 3e 4f f7 da 3c
       -0.16388524 0.21568103 0.19155756 0.026729254
0000e0 a0 b0 1e bd 37 b1 b4 bd 2c c9 5c 3d e9 59 2a 3e
       -0.03874266 -0.088228635 0.05390279 0.1663586
0000f0 de 13 e8 bd a6 3e f7 3d e7 82 1b 3e d9 21 5b 3b
       -0.11331914 0.12072496 0.15186654 0.0033436923
000100 c2 7b 92 3a 9e 39 41 3e 84 b2 00 be 0e b6 3d be
       0.0011175799 0.18869635 -0.12568098 -0.1852648
000110 ff 7a 41 be 9f 78 fc 3d 24 5b 61 3d 90 42 f2 3d
       -0.18894576 0.12327694 0.05501856 0.11829102
000120 52 a8 91 3d ea ef 3e be 48 30 0b be 1d b6 16 bd
       0.07112183 -0.18646207 -0.13592637 -0.03679477
000130 17 b7 42 3e 9f 77 f6 bd 1f 9f 2b be ca 10 09 3e
       0.19015156 -0.12034535 -0.16759919 0.13385311
000140 f7 1b 41 3e 34 4e 39 3c 4a 20 0f 3d 51 4a 16 be
       0.18858324 0.011310149 0.034942903 -0.14676787
000150 ea fb 6e bd a0 ba c6 bd 93 93 06 be 42 38 71 3c
       -0.058345713 -0.09703565 -0.13142233 0.014722886
000160 57 3d 25 3e 78 d2 3e 3e 5f ab 23 be a2 d2 2d 3a
       0.1613668 0.18634975 -0.15983342 0.0006630813
000170 09 d6 de bd 13 ca 3a bd ee 5e 15 3e 9c 72 53 3e
       -0.10880668 -0.04560287 0.14586994 0.20649189
000180 04 4d 3c 3e 92 d3 9d bd f5 db 20 be 91 a3 87 bd
       0.18388754 -0.077063695 -0.15708907 -0.06622995
000190 c6 bf 29 be 4d 81 da bd e6 b1 18 be 37 cd df bd
       -0.16577062 -0.106691934 -0.14911613 -0.109278135
0001a0 46 1a 25 3e fd 09 19 3e 22 64 38 3e 77 ac 25 3e
       0.16123304 0.14945216 0.18006948 0.16179071
0001b0 15 b6 2f 3e 08 b8 ac bd 20 ab 23 be b1 a1 4c be
       0.17159303 -0.08433539 -0.15983248 -0.19983555
0001c0 e5 6c f4 3c 4b d7 1d be 28 fd a6 bd 20 b0 7f 3d
       0.029837081 -0.15414159 -0.081537545 0.062423825
0001d0 da f7 2d be 5b 8b 55 be f8 3f 21 3d f2 28 e0 3d
       -0.16989079 -0.20853941 0.039367646 0.1094531
0001e0 6c 8a db 3c cb 0a 04 3d a1 6b 0f 3e 0c d8 05 be
       0.026799403 0.032236855 0.14005901 -0.13070697
0001f0 08 15 87 bc 8d d9 9f bd 70 b8 8d bc ac 56 01 be
       -0.01648952 -0.078051664 -0.01729986 -0.12630719
000200 1c 3a f2 bd f6 a7 59 be ff f4 c3 bd dc ff 3b 3e
       -0.1182749 -0.21255478 -0.09568214 0.18359321
000210 f8 49 00 3e 26 07 95 3d bd eb d9 3d 63 cb 1d 3e
       0.12528217 0.07276754 0.10640667 0.15409617
000220 18 8a 0f 3e ce 2e bc bd fa f8 4c be e9 b7 1b 3e
       0.14017522 -0.09188615 -0.20016852 0.15206875
000230 a6 36 51 3e 2d ba 3f be 85 d9 c8 3d f9 11 bd 3c
       0.20431003 -0.18723364 0.098071136 0.02307986
000240 85 c1 e3 bd 4f d1 56 3e db 4a 81 3d ee 0b bc 3d
       -0.11120895 0.20978282 0.06313106 0.09181963
000250 b5 11 4d 3e 7c 73 3d be ef e2 de bd a1 87 15 be
       0.20026286 -0.18501085 -0.10883128 -0.1460252
000260 24 a9 4e be 85 0b 6c bc 20 34 d4 bd 56 7f 2e be
       -0.2018171 -0.014407043 -0.103615046 -0.17040762
000270 5e e6 18 3d df 40 4a 3e b9 01 e0 bd 06 53 34 3e
       0.03732907 0.19751309 -0.109378286 0.17609796
000280 07 58 fc bd 11 6f 01 bc 2b bf 4c 3e ce 46 02 3e
       -0.123214774 -0.007900015 0.199948 0.12722322
000290 d2 a5 55 3e 24 25 21 bd 57 19 3d be 20 fe 21 be
       0.20864037 -0.03934206 -0.18466698 -0.15819597
0002a0 49 8a 35 3c 5a 2b 89 3d 87 9d 19 3e bf d9 4c bb
       0.011080333 0.06697722 0.15001498 -0.0031257716
0002b0 30 dc dd 3d 18 fc b4 bc a6 4f cd 3c c4 a1 20 3e
       0.10833013 -0.022092864 0.025062393 0.15686709
0002c0 b9 1a 1b be 57 d6 4f bd a6 38 2b 3d da 7a b7 bd
       -0.15146913 -0.05074152 0.04180207 -0.08958979
0002d0 c0 98 38 be c8 a9 53 3d 74 c7 e2 bd 18 af eb bd
       -0.1802702 0.051675588 -0.11073199 -0.11508006
0002e0 ee 8d fd bd aa c7 e1 bd 63 1c 98 bd 27 1a a2 ba
       -0.123805866 -0.11024411 -0.07427289 -0.0012367413
0002f0 3a fa 40 be 62 5a 7a 3d 5e 70 b3 bb d0 e3 38 be
       -0.18845454 0.061121352 -0.0054760417 -0.18055654
000300 1f 5d 73 bc 1c 93 4f 3e 1b c8 88 3d 04 d0 e3 bd
       -0.014853745 0.20270962 0.06678792 -0.1112366
000310 31 de 2d be a4 8d ea bc ef 24 95 3d ea 90 f1 3d
       -0.1697929 -0.028631993 0.07282435 0.11795218
000320 d8 79 04 3e 50 21 f7 bc 0f 7d 2d be da 72 98 3d
       0.12937105 -0.030167252 -0.16942237 0.07443781
000330 c8 04 fe 3c de 49 25 be 4e 5b 98 bc 88 1b 8f bd
       0.03100814 -0.1614146 -0.018598225 -0.06987673
000340 8e d9 e4 3d 74 a7 39 be c0 ff 88 3d 0a 67 a9 bd
       0.11174308 -0.18130285 0.066894054 -0.08271606
000350 c2 01 42 3e 3e cc 4a 3d 6d 60 4f 3e 4a bb 14 be
       0.18945983 0.049511187 0.20251627 -0.1452457
000360 28 ce 5b 3e 58 c5 d2 3d 46 75 ec bd 60 49 20 3e
       0.21465361 0.102915466 -0.11545806 0.1565299
000370 b0 b7 1c 3e 50 86 e3 bd d3 7d 46 bc b6 f3 47 be
       0.15304446 -0.111096025 -0.01211496 -0.19526562
000380 4a 9e 48 be 14 b6 50 3e e3 8a 29 bd 7c d9 2c be
       -0.19591632 0.20381957 -0.04139222 -0.16879839
000390 c5 8e 2b 3d 20 3b 1b 3e 53 b2 01 3e b3 af 5c be
       0.041884203 0.15159273 0.12665682 -0.21551399
0003a0 59 e9 6a 3c 32 de 0c 3e 5e 2a a2 bd 21 54 3f be
       0.014337861 0.13756636 -0.07918237 -0.18684436
0003b0 bd ed 51 3e 5f 5e 78 3d 4f a0 0f 3d db 5c 98 3d
       0.20500846 0.060636874 0.03506499 0.07439586
0003c0 a5 8c 27 3e 20 88 20 be ab b9 22 bd 42 b0 0d be
       0.16362245 -0.15676928 -0.039727848 -0.13836768
0003d0 e4 64 16 3d 91 8d a7 bd 46 ee f5 bd ee 20 22 3e
       0.03671731 -0.081812985 -0.12008338 0.15832874
0003e0 4c 35 f3 3d 6a b1 2d 3e 12 05 05 3e 99 77 70 3d
       0.118754 0.1696221 0.12990215 0.058707807
0003f0 c6 80 57 be 69 81 25 3e 83 80 95 bd 0b 4a ff bd
       -0.21045217 0.16162647 -0.07299902 -0.124652945

conv2.bias f4 [64]
000000 69 f3 60 3b a3 da 7c 3b ba 71 07 3b 91 87 03 3b
       0.0034324771 0.0038582466 0.0020667152 0.0020069818
000010 a8 a7 16 3b e6 23 04 bb ea 21 15 3b 6e 81 32 3b
       0.0022988115 -0.0020162999 0.002275581 0.002723779
000020 b0 05 aa 3a af ae a6 ba 5e 1c 8f ba 37 65 b1 b9
       0.0012971666 -0.0012716855 -0.0010918488 -0.00033835482
000030 38 9b 45 b7 3f 13 9b 3b 9a d7 41 3b cc 9e c5 3a
       -1.1778255e-05 0.004732519 0.0029577971 0.0015077232
000040 95 86 1d 3a 4e 76 1d 3b 53 f2 d3 ba c6 8e 1f 3b
       0.0006009129 0.0024026814 -0.0016170241 0.0024346574
000050 9e 20 ed 3b ec dd f2 3b 6b 9e c6 ba 75 41 6f 3a
       0.0072365543 0.007411709 -0.0015153413 0.00091268803
000060 13 ff 12 bb 56 77 c6 ba 8a 47 4a b8 76 4a 75 3a
       -0.0022429868 -0.0015141766 -4.822718e-05 0.0009357104
000070 c3 dc d4 3b 8e 74 8d ba b8 85 6e bb 49 cc 16 3a
       0.0064960434 -0.0010792182 -0.003639562 0.0005752487
000080 30 4d 02 3a 44 23 dc ba 98 a1 38 3b e8 7b d3 3b
       0.0004970608 -0.0016795178 0.002817249 0.0064539798
000090 88 36 39 3a 24 18 9b ba e7 65 a6 ba 25 fa 7d 3b
       0.0007065316 -0.0011832756 -0.0012695164 0.0038753834
0000a0 41 7c e2 ba 2f fb 52 3a 6a 94 11 3b 62 29 dd ba
       -0.0017279462 0.00080482935 0.0022213706 -0.0016873295
0000b0 22 ed d0 ba 8e 6d bc 3a b0 44 93 3b 69 eb 67 b9
       -0.0015939812 0.0014375912 0.004494272 -0.00022117574
0000c0 dc 3b 04 39 0a 08 1d b9 01 9f 43 ba bd c7 bd b8
       0.000126108 -0.00014975682 -0.0007462353 -9.0494264e-05
0000d0 2e 02 63 3a 2e 88 c5 3b 5e 1d 00 b9 9c ee 31 3b
       0.00086596876 0.006028197 -0.00012217971 0.002715028
0000e0 57 55 93 3a 58 8e 33 3a 10 14 36 3b be d2 1a bb
       0.0011240643 0.0006849519 0.0027782954 -0.0023624147
0000f0 ec ae 0b 3b a4 6a ae bb f0 60 84 38 8e f1 34 3b
       0.0021313978 -0.005322771 6.3123065e-05 0.0027609798

conv3.weight f4 [64, 64]
000000 2a 06 ef bd 65 bf 95 3d 9c 41 5b 3e ec 24 e6 3d
       -0.116710976 0.07311896 0.21411747 0.11237511
000010 96 26 44 be 97 3c 1d 3e 88 75 80 bd fc dc 2d 3e
       -0.19155344 0.15355144 -0.06272417 0.1697883
000020 66 51 36 bd 5d e0 31 be c7 ea 29 be 85 0d 44 3e
       -0.04451122 -0.17370744 -0.16593467 0.19145782
000030 a9 67 21 bc ea d0 37 be 15 3c de 3d 90 cf ca 3d
       -0.009851375 -0.17950788 0.108513035 0.09902871
000040 bc 63 f9 bd c4 02 27 bd 84 5b 4c 3e 06 41 4c 3e
       -0.12177226 -0.040774122 0.19956785 0.1994668
000050 8b 02 c5 bd 1e 66 31 3e 52 75 1b 3e 2a 33 fe bd
       -0.09619626 0.17324111 0.15181473 -0.124121025
000060 76 cf e9 3d d3 f1 c8 bd db 56 57 3e 47 ec 0d 3e
       0.11416523 -0.09811749 0.21029226 0.13859664
000070 74 e2 a7 3d e3 5f 12 be 3b 70 1a bd 42 e5 4d 3d
       0.081974894 -0.1429439 -0.037704688 0.050267465
000080 82 06 bb bd c0 7c 4b 3d 48 37 db 3d 59 ea 23 3e
       -0.09132101 0.049679518 0.107039034 0.16007365
000090 6f da d2 3d a6 56 ba bb 3a 60 26 3d 3d 9b 3c bb
       0.10295569 -0.005686599 0.040619113 -0.0028779053
0000a0 66 f4 cc bc c4 5f 0e be 11 2b 5a bd ac d8 42 bc
       -0.025018882 -0.13903719 -0.053263728 -0.011892479
0000b0 8e c3 30 be 3e 0f 5e be ad 39 f6 3d 6e c5 95 bd
       -0.17262098 -0.21685502 0.120227195 -0.07313047
0000c0 5f ec 94 bb d4 b0 f0 3d d1 d6 78 3d ba 49 0b bd
       -0.004544779 0.11752477 0.06075174 -0.034005858
0000d0 8a 55 78 3d 6a b8 08 3e 58 21 4a bd 37 66 2e 3e
       0.06062845 0.13351598 -0.049348205 0.1703118
0000e0 a6 0c 04 bd bc 69 50 3e 6e 57 f9 bd fd 84 3d be
       -0.032238625 0.20352834 -0.12174879 -0.18507762
0000f0 fa 96 f4 3d 07 63 f8 bd ef 15 5c be 1c 7a fb 3d
       0.11942859 -0.12128263 -0.21492742 0.1227915
000100 d6 6a f3 3d ed 02 dc bb 0e 42 19 be 62 bf b4 bc
       0.11885612 -0.006714216 -0.14966604 -0.022063915
000110 7c 97 b9 3c e0 6f 91 bd 3a fb f0 bd f8 80 70 3d
       0.022655241 -0.071014166 -0.11766668 0.058716744
000120 8b 86 d9 bd 93 64 1b be 38 4f 17 be 83 2b 46 bc
       -0.10621365 -0.15175085 -0.14776313 -0.012095335
000130 c9 e2 3c be 71 25 f1 3d 8c ef 06 3e b6 f2 28 be
       -0.18445887 0.117747195 0.13177317 -0.16498837
000140 3a e8 df bb f9 5f 13 3e 0a 83 41 3e 1e b7 2d 3e
       -0.0068331035 0.1439208 0.18897644 0.16964385
000150 94 8c c7 bd b8 1a 12 be c0 9f 17 bc b4 ca 0f bd
       -0.0974361 -0.14268005 -0.009254396 -0.035105422
000160 59 1e 8a 3b e5 38 68 bd 40 8e 2f bd d6 4a 92 bc
       0.0042150435 -0.056694884 -0.04286027 -0.01785795
000170 d7 51 bf bd 88 cd 58 3e 65 fd ac bd 6c 7a 33 3e
       -0.093417816 0.21172154 -0.08446769 0.17527169
000180 a1 3b 52 3e 23 57 be bd b7 e1 12 3d e6 40 2c 3e
       0.20530559 -0.09293964 0.03585979 0.16821632
000190 3e f8 3b bb 0b 00 fb bd 3b 75 23 be fa a0 30 3e
       -0.00286819 -0.122558676 -0.15962689 0.17248908
0001a0 08 7a 41 3e 1a b6 89 bd f4 7e 89 3d 6e 4b 59 be
       0.18894207 -0.06724186 0.067136675 -0.2122018
0001b0 49 36 5c 3e fc fe 8e bd 90 50 81 bd 8b 67 51 be
       0.21505083 -0.06982228 -0.06314194 -0.20449655
0001c0 5e 9a b0 bd 0a e1 4f be 17 fe 0d 3e f7 76 5b bc
       -0.08623193 -0.2030069 0.13866459 -0.013395063
0001d0 35 ca 60 3d 64 a5 db bd 25 1d 17 be d9 8b 4a 3e
       0.05488034 -0.10724905 -0.14757212 0.1977991
0001e0 57 7f d0 3d 85 a3 22 be 2c 0f 9b 3d 2d 71 ac bc
       0.10180538 -0.1588269 0.07571253 -0.02105006
0001f0 6c 37 ec bd 4e f2 cd bc b3 04 cc bd 96 f1 24 3d
       -0.115340084 -0.025139954 -0.09961834 0.040269457
000200 15 a4 d9 3d 47 3d e9 3d 47 9f 4d 3d 3d d8 c0 bd
       0.10626999 0.11388641 0.050200727 -0.09416244
000210 0b 09 b8 3b 9e c8 ec bd 83 4b 7b 3d 1c 88 0f bd
       0.0056163124 -0.11561702 0.06135131 -0.035041913
000220 3c d2 d0 bd d5 16 e1 bd 73 ff fe bd 1d 0b b4 3d
       -0.10196349 -0.10990683 -0.12451067 0.08791182
000230 eb 66 c0 bd c2 c1 3b be 5b 56 09 bc ce 20 5a be
       -0.0939463 -0.18335631 -0.008382405 -0.21301576
000240 18 f7 15 be b5 02 0c bd 3b 1e ed 3c 18 7c 00 be
       -0.1464504 -0.03418227 0.02894508 -0.12547338
000250 28 88 09 be 4a 38 de 3d 58 83 e3 bd ae 07 52 3e
       -0.13430846 0.1085058 -0.11109036 0.20510742
000260 ee 35 0f be 73 f0 9a bd 08 9f b2 bd 44 24 1d 3e
       -0.13985416 -0.07565393 -0.08721739 0.15345865
000270 19 b4 a8 bd c9 87 13 3e 58 8d 0d be 44 9d ee 3b
       -0.08237476 0.14407267 -0.1382345 0.007281931
000280 57 ca 8c 3d 00 16 c8 bd 07 ed ca 3d 96 98 17 3d
       0.06874531 -0.09769821 0.09908491 0.03701075
000290 e5 a5 47 be a6 48 cd bd 42 35 4b 3e fc c9 1e be
       -0.19496877 -0.10023622 0.19844535 -0.15506738
0002a0 0f d1 2a be a4 7d 05 be 62 2b 43 be ef 90 ee bd
       -0.16681312 -0.1303621 -0.19059518 -0.11648738
0002b0 9c 19 8b bd 84 dc 01 3e b0 51 06 be df 47 96 3c
       -0.06791994 0.12681776 -0.13117099 0.018344818
0002c0 4c 27 43 3b a0 35 d5 bc 07 2f ba bd 9a 4e 5b 3d
       0.0029778061 -0.026026547 -0.09091001 0.053541757
0002d0 af 5d 15 3d 01 4e 08 3d 4e 1a 41 3e f7 18 0a be
       0.036466297 0.033277515 0.1885769 -0.13486086
0002e0 07 01 32 3e ce c3 2a 3e dc 04 bc 3d 78 47 1a 3e
       0.17383204 0.16676256 0.09180614 0.15066326
0002f0 86 46 eb bd 31 82 47 be 2b 4f 19 be 73 87 81 3c
       -0.11488061 -0.19483258 -0.14971606 0.015811658
000300 69 c9 97 3d fd 9a 31 3e 46 35 5d 3d 98 f6 4d 3e
       0.07411463 0.1734428 0.054005884 0.201136
000310 12 09 a2 bd a8 cf 34 be 2a 5b 24 bd 2c ba 04 be
       -0.07911886 -0.1765734 -0.040126003 -0.12961644
000320 cd c9 fa bc 7f dc 27 bd ca e5 ee 3d aa 6a 44 be
       -0.030613804 -0.040981766 0.116649225 -0.19181314
000330 b3 be 32 be fe 20 10 3e a8 ac 54 3e ad 7c 46 be
       -0.17455558 0.14075086 0.20768988 -0.19383498
000340 42 3d 1d be 58 41 7d bd 0d b3 53 be 00 aa 2a bc
       -0.15355399 -0.061829895 -0.20673771 -0.010416508
000350 1b 56 43 3e 4d 4a 19 be 38 7b 01 be ff dd 2c be
       0.19075815 -0.1496975 -0.1264466 -0.1688156
000360 00 8f fb bd 6b ed 9b bd 3d 51 bd bd d6 fb 58 3e
       -0.122831345 -0.07613643 -0.092440106 0.21189818
000370 1c 35 47 3e f4 09 4e 3d 4f 90 0c bd b0 89 34 3e
       0.19453853 0.05030246 -0.03431731 0.17630649
000380 57 1d 04 3e e5 72 88 3d e6 0e da 3d 88 75 45 3d
       0.12901817 0.066625394 0.10647373 0.04820779
000390 92 99 3c be 4b aa c8 3d c8 4b 34 be 49 d5 6b 3c
       -0.18417957 0.09798106 -0.17607033 0.014394113
0003a0 88 75 cc 3d 13 e4 5e be d8 8c 3e 3d 70 2c 1c 3e
       0.09983355 -0.21766691 0.046521038 0.15251327
0003b0 e3 ea 4e bc d5 f5 8f bb 97 d5 a8 bd f9 fb 67 3d
       -0.012629244 -0.004393319 -0.08243864 0.056636784
0003c0 34 78 1e bd fb 71 53 bd 02 e0 9b bd 45 1f 93 bc
       -0.038688853 -0.051622372 -0.076110855 -0.017959246
0003d0 16 ed 23 bd 77 d0 52 be 5b e3 40 be 05 6f 0b be
       -0.040021025 -0.20587336 -0.18836729 -0.1361657
0003e0 3a c3 c6 bd 82 7d ab 3d a9 e2 a3 bd 39 2d 5e 3e
       -0.09705205 0.08373548 -0.08002216 0.21696939
0003f0 8d fd 74 3d f8 2f a9 3d 36 af a2 3d cf 26 50 be
       0.059812117 0.082611024 0.07943575 -0.20327304

conv3.bias f4 [64]
000000 f6 0a 3c 3a 01 ca 8f b9 49 21 d4 3b a4 df 89 ba
       0.0007173264 -0.0002742559 0.0064736945 -0.0010518921
000010 b5 15 73 3a f4 11 15 bb ba a2 6d 3b e7 ee 80 3b
       0.0009272949 -0.0022746297 0.0036260323 0.0039347294
000020 74 c9 14 bb f6 1f 06 3a ca 49 39 3a d1 8a 09 bb
       -0.0022703083 0.0005116457 0.00070681854 -0.0020987282
000030 1d 4e 78 3a 7a 38 76 3b 03 39 23 3b 53 7b 18 3b
       0.0009472089 0.0037570284 0.0024905808 0.0023266866
000040 44 eb 91 3b c0 b1 50 bb b1 ed 21 bb f1 e6 17 39
       0.0044530947 -0.0031844229 -0.0024708326 0.00014486515
000050 d8 e0 cc ba 8a 52 92 ba 0d b3 cd 3a 6f 9b 4d ba
       -0.0015630974 -0.0011163515 0.001569362 -0.0007843291
000060 4d 60 89 39 97 bd 8f 3a 62 0c 0e 3c 5e d9 9b 3b
       0.00026202426 0.0010966536 0.0086699445 0.004756137
000070 35 fd da ba 13 9f 74 3a 4e f2 6a bb 46 24 1c bb
       -0.0016707542 0.0009331565 -0.0035849991 -0.0023825332
000080 a2 a0 c1 3a cf ca 7d 3a fa b4 de 3a 74 2d 5f 3b
       0.0014772604 0.0009681405 0.0016991191 0.0034054192
000090 e6 c3 8e 3b b5 47 b9 ba ef 45 0d 3b 86 ae 41 3b
       0.004356849 -0.001413575 0.0021556576 0.0029553487
0000a0 08 54 dd b9 5c ca 49 bb 2a 94 3f b9 e1 c4 0f 3a
       -0.00042215013 -0.0030790782 -0.00018270375 0.00054843543
0000b0 93 66 f4 3a f3 3e e5 b9 91 a7 83 3b b8 65 c0 ba
       0.0018646292 -0.00043725185 0.004017778 -0.0014678752
0000c0 34 d1 98 3a 76 f6 32 ba b8 e3 af 3a 27 0a 9d 3a
       0.0011659027 -0.00068268867 0.0013419306 0.0011981175
0000d0 77 29 3a bb c0 59 65 bb 28 98 ea ba d8 23 8a bb
       -0.0028406063 -0.0034996122 -0.0017898129 -0.0042156987
0000e0 24 49 26 3b e1 81 c3 3a 3a cf 6d 3a 05 58 e2 3a
       0.0025373185 0.0014916026 0.00090717117 0.0017268664
0000f0 dc 03 14 bb a1 c0 1f bb 26 43 68 ba de 1b 42 ba
       -0.0022585308 -0.002437629 -0.00088601036 -0.0007404665

fc1.weight f4 [128, 192]
000000 04 0b f9 3c 04 a9 86 bd e0 af 70 bb f4 74 c8 3c
       0.03040076 -0.06575206 -0.0036725923 0.02446983
000010 ac 3d e4 bc f0 8a 91 3b 72 3e 8b 3d 80 74 fc 3b
       -0.027861439 0.0044416115 0.0679902 0.0077043176
000020 c4 b8 85 bd ac 16 70 bd 62 27 86 bd 76 89 3c 3d
       -0.06529382 -0.05861537 -0.065504804 0.04602953
000030 b0 8e ca 3b 30 6d 75 bd 93 f5 74 bd 1c ed 79 bd
       0.0061815605 -0.059918582 -0.05980451 -0.06101714
000040 50 ab 82 3c d0 82 b6 bc 98 dd 16 3d b0 29 96 bb
       0.015950829 -0.022279173 0.036832422 -0.0045826063
000050 cc ed b8 3c 20 a8 69 3c d2 16 92 bc 50 d3 10 bd
       0.022574328 0.0142612755 -0.017833147 -0.035357773
000060 75 af 84 bd 5c e5 89 bd 18 89 3a bd a2 04 ae bc
       -0.06478778 -0.067332 -0.0455409 -0.021242443
000070 38 f1 09 3c 1f 47 15 bd 04 0a 37 bd 70 96 c4 bb
       0.008419327 -0.03644478 -0.044687286 -0.005999379
000080 a0 58 c0 bb 54 60 4d 3d 34 04 b6 3c 18 7a 63 3d
       -0.00586994 0.050140694 0.022218801 0.05553636
000090 99 f7 5e bd 56 15 c3 bc 6c 7f 64 3d e0 2b 51 bd
       -0.054435346 -0.023813885 0.05578558 -0.051067233
0000a0 5a b2 1e bd 8c 3d 42 bd 22 96 67 bd e0 72 37 bb
       -0.038744308 -0.047421977 -0.056539662 -0.0027992055
0000b0 80 db 20 3a f0 e4 b9 3b 70 ad 43 bc 3a 2b 94 bc
       0.00061362237 0.0056730434 -0.011943206 -0.018087018
0000c0 20 00 9c 3c d0 e9 70 bc 34 22 69 3d d5 8d 00 bd
       0.019043028 -0.014704183 0.056917384 -0.03138526
0000d0 49 fa 36 bd f8 8e 91 3c 78 03 6f 3d 88 01 48 bd
       -0.044672284 0.017768368 0.058352917 -0.048829585
0000e0 63 6d 78 bd 0c 58 7d bd 18 a0 0d bc 5d e7 7b bd
       -0.060651194 -0.061851546 -0.008644126 -0.061499942
0000f0 74 22 a8 bc e0 14 f6 3c 00 f6 42 39 2c a9 60 bd
       -0.020524241 0.03003925 0.00018592924 -0.054848835
000100 79 6c 90 bd 30 1f 22 3c 6c 33 4a 3d b0 8e 7e 3c
       -0.070519395 0.009895131 0.049365446 0.015536949
000110 80 79 4c 3c b0 be 82 bd 70 0e 89 bc 1a 99 00 3d
       0.01248014 -0.06384027 -0.016730517 0.03139601
000120 00 f7 bc 3b b6 7b 82 3d d8 83 06 bc 88 64 86 bd
       0.0057667494 0.06371252 -0.008210145 -0.065621436
000130 c6 71 84 3d 08 a2 dd bc 84 5d c9 3c 70 40 5c 3c
       0.06467013 -0.027054802 0.024580725 0.0134430975
000140 18 fa 52 3c 0e a2 3e bd 2d 02 67 bd a8 a0 60 bc
       0.01287701 -0.046541266 -0.05639856 -0.013710178
000150 80 53 74 3c 22 6a 51 3d 68 d4 8f 3d 70 b6 9e 3b
       0.014912486 0.051126607 0.07022935 0.0048435256
000160 d0 25 89 3d 44 75 36 3d 04 48 e2 3c a6 eb b3 bc
       0.06696665 0.044545427 0.02762223 -0.021962952
000170 ac 32 6a 3d 08 01 ab 3c 70 39 28 3d 88 ab 88 3d
       0.05717723 0.020874515 0.0410704 0.06673342
000180 11 3b 6b bd 90 15 70 bc 5c a6 e1 3c 25 60 54 bd
       -0.057429377 -0.014653578 0.027545147 -0.051849503
000190 7a d4 42 3d 94 4a 28 3d f4 c0 79 3d b0 d0 68 3c
       0.047565915 0.04108675 0.06097503 0.014209911
0001a0 28 b0 6b 3c b0 68 7f 3d 47 de 23 bd 1e 4f 81 bc
       0.014385261 0.062355697 -0.040006902 -0.015784796
0001b0 f3 b1 2f bd 5c 16 bd 3c fe 73 46 3d f2 eb 39 3d
       -0.042894315 0.02308195 0.048450463 0.04539103
0001c0 90 fb cd 3b 50 35 e2 3b 20 04 6e 3b 00 36 a2 bb
       0.006286092 0.006903328 0.0036318377 -0.004950285
0001d0 44 c8 55 3d 02 d5 4d bd a8 64 56 bd a0 ff b1 3c
       0.05219294 -0.05025197 -0.052342087 0.021728337
0001e0 9e 7f ef bc f0 8f de bc e2 15 2f 3d cd b8 06 bd
       -0.029235657 -0.027168244 0.04274548 -0.032891084
0001f0 7e c3 10 bd 48 8f 89 bd c0 4d a1 3b d4 d2 5a 3d
       -0.035342686 -0.06716782 0.0049225986 0.053423718
000200 66 20 8f 3d 00 e0 5a b7 1b 1f 01 bd c4 17 b7 3c
       0.069886014 -1.3045967e-05 -0.031523805 0.0223502
000210 62 2b 2e bd 90 c0 9c 3b 30 c5 74 3d da d0 83 3d
       -0.04252184 0.0047836974 0.059758365 0.0643632
000220 e6 3c 9e bc 52 1a 44 3d 70 ae f2 bb 42 c8 92 bd
       -0.019316148 0.047876664 -0.0074060485 -0.071671024
000230 64 1a f0 3c d0 81 0c bd 78 6b 3e bd 58 28 af 3c
       0.029309459 -0.034303486 -0.04648921 0.021381542
000240 b4 0c 6f 3d a0 c1 75 bb 98 96 af 3c ec 27 1c bd
       0.058361724 -0.0037499443 0.021434113 -0.03812401
000250 94 cb de 3c 84 6e a0 bc 98 8f 21 bd 5c f9 ae bc
       0.027196683 -0.019583948 -0.039443582 -0.021359138
000260 98 a3 da 3c 10 be 3b bd b9 47 90 bd ec a1 f4 bc
       0.026689336 -0.045835555 -0.0704493 -0.029862367
000270 14 43 4a bc e0 0f 53 bb c4 64 52 3d 18 5b 22 3d
       -0.012345094 -0.0032205507 0.05136563 0.039637655
000280 f4 62 61 bd c0 87 fa ba 50 e4 c5 3b ef 83 83 bd
       -0.05502601 -0.0019113943 0.00603918 -0.06421649
000290 b4 71 15 3d c0 8f 2b bc a4 0a 64 3d 02 0e 0d 3d
       0.03648539 -0.010471284 0.05567421 0.034437187
0002a0 d9 f3 8f bd 0a 11 16 3d d0 2a 8c 3c 07 39 38 bd
       -0.07028932 0.036637343 0.017110258 -0.04497626
0002b0 f8 7c 49 3d cf 31 1c bd ba ff 91 3d 3e 22 8d 3d
       0.049191445 -0.03813344 0.07128854 0.06891297
0002c0 34 81 a0 3c c8 d7 fa 3c 3f 0c 8a bd b4 15 81 bc
       0.019592859 0.03062047 -0.06740617 -0.01575742
0002d0 b6 93 49 bd fe 7c 34 3d ec e4 5b 3d e5 f5 3a bd
       -0.049213134 0.044064514 0.053685114 -0.04564466
0002e0 0c 13 f7 3c ac b5 ee bc e6 15 f7 bc 48 63 11 bc
       0.03016045 -0.029139362 -0.03016181 -0.008873768
0002f0 7a a0 8f 3d 8c d7 e4 3c 50 7a 5f 3d 80 d1 ed 3c
       0.0701303 0.027934812 0.054560006 0.029030561
000300 c1 d8 8e bc 90 0c fb bc 9e 24 c4 3c 76 7f 7e 3d
       -0.01743734 -0.030645639 0.023943242 0.062133275
000310 d7 65 1c 3c fb 71 ab bc 23 f9 1d 3c 38 70 4f 3d
       0.009545765 -0.020928374 0.009641918 0.05064413
000320 79 2f d8 3b 50 1e 09 3d 85 41 33 bd 6b 76 91 bd
       0.006597456 0.033476174 -0.043763656 -0.071026646
000330 f1 b7 14 bd a8 5d 5f 3d 95 01 1c bd 8b 96 3d 3d
       -0.036308233 0.054532677 -0.038087446 0.046286147
000340 d4 2f 2c 3d b0 35 8f 3d e8 c8 70 3d 21 ad a4 3c
       0.0420378 0.06992662 0.05878535 0.020102086
000350 26 b8 c8 3c 3f 65 17 3c 03 38 46 3a 51 8b 5d 3d
       0.024501871 0.009240448 0.0007561447 0.05408794
000360 3d 16 74 3d f4 48 2e 3c 5a cb 97 3d 72 37 13 bd
       0.05959152 0.010637511 0.07411833 -0.03594155
000370 d7 23 3f 3d f7 0b 9b 3c 99 be 46 bd f8 48 1a bd
       0.04666504 0.018926604 -0.04852161 -0.037667245
000380 bf 86 5b 3d 6f ef 98 bc ea 4b f1 bb 94 92 07 bd
       0.0535953 -0.018668858 -0.007363786 -0.033098772
000390 94 7a 85 3d e6 14 1a bd 16 8d 54 bd 83 e8 72 3b
       0.065175205 -0.037617587 -0.051892363 0.0037064857
0003a0 3e d7 cf 3a dd a5 59 3d 2b f6 44 bd 09 c1 00 3d
       0.0015856994 0.053136695 -0.048086327 0.031434093
0003b0 ac 30 66 3c e5 0f 38 3d 23 1f 16 bd b0 9b 75 3d
       0.01404969 0.044937033 -0.036650788 0.05996293
0003c0 64 40 25 bd cd c0 a6 bc 8a 03 3c 3d 33 d2 04 3c
       -0.04034461 -0.020355606 0.045901813 0.008106756
0003d0 70 49 8f 3c 4c ee 87 bd 6b 8e 82 bd 2c 17 32 bc
       0.017491072 -0.066372484 -0.0637482 -0.010869782
0003e0 82 b6 40 3d dc e3 10 3d e2 e3 43 bd fa 4c 45 3d
       0.047049053 0.035373554 -0.047824748 0.048169114
0003f0 26 a4 32 3d 66 22 84 bd cd a3 1f 3d 84 83 69 3c
       0.043613575 -0.064518735 0.038974572 0.014252547

fc1.bias f4 [128]
000000 2a c1 8d bd a6 82 42 bd ae 3d 66 3c 1c bf 8a 3d
       -0.06921609 -0.047487877 0.0140527915 0.067747325
000010 17 b8 54 3c 5c da 5f bb e0 ae 44 bb 6c 9b 96 bd
       0.012983344 -0.0034157252 -0.003001146 -0.07353863
000020 80 09 06 bd 6c 72 7d bc 78 e8 04 bc 51 6e 79 bd
       -0.032723904 -0.015469175 -0.0081120655 -0.06089622
000030 8b 11 b2 3c 69 56 73 bd 81 cd 86 3c b6 d0 8e 3d
       0.02173688 -0.05940858 0.016455414 0.06973402
000040 f8 b2 30 bd 0b 4c b5 3c 52 c8 eb bc 0a 78 89 bc
       -0.043139428 0.022130987 -0.028782044 -0.016780872
000050 cb a7 2a 3d 26 db 5e 3d 13 43 8f 3c e8 b5 e9 bc
       0.041663926 0.054408215 0.017488038 -0.028529122
000060 a5 2c d1 bc b9 a0 d8 3c d4 0c 5d 3b 39 03 bf 3c
       -0.025533983 0.026443826 0.003372957 0.023316966
000070 cf 05 64 3d d6 12 8d bd 42 d9 3c 3d 36 aa 7a 3c
       0.055669602 -0.06888358 0.04610563 0.0152993705
000080 97 67 f6 3c 09 25 1a 3d b2 16 6d 3d 8a b0 97 3d
       0.030078692 0.037632976 0.057882972 0.07406719
000090 d1 35 6a bc 20 a4 90 3d f9 1b 82 3d cc b3 8d bd
       -0.014295057 0.07062554 0.063529916 -0.06919059
0000a0 0e e8 3e 3d 80 2e e6 3b 15 f1 2f 3d 96 e8 5f bd
       0.046608023 0.007024586 0.042954523 -0.05466517
0000b0 ff 2e 61 ba 3a 93 05 bd 13 3b 86 bd ba 8e 38 bd
       -0.0008590072 -0.03261111 -0.06554236 -0.04505799
0000c0 c9 e0 f4 3c 90 b9 07 bd 2a 8d 61 3d 8b 73 19 bd
       0.029892342 -0.03313595 0.055066265 -0.037463706
0000d0 15 c0 8d bd 28 19 6a 3d 55 22 89 3d 66 f4 98 3d
       -0.06921402 0.057152897 0.066960014 0.0746849
0000e0 57 a4 72 3d b6 f4 12 bd 78 f0 96 3d e2 b5 d2 3c
       0.059238758 -0.035877906 0.073700845 0.025721494
0000f0 14 0e 86 3c be 08 14 bc 71 58 15 3d 3b 79 60 3d
       0.016364135 -0.009035287 0.036461297 0.054803114
000100 a9 bc 7e bd 24 5b 35 bd 9b 6c 0a 3d 82 dd 6c bd
       -0.06219164 -0.04427637 0.03379498 -0.057828434
000110 b2 d9 c8 3b 26 62 01 bc d2 49 4f 3d 69 5f 6c 3c
       0.006129467 -0.007896936 0.05060751 0.014427044
000120 20 53 b5 3c 04 e9 27 bd c8 95 3d 3d f9 21 9f bd
       0.022134364 -0.040993705 0.04628542 -0.07770152
000130 25 96 63 bd 19 25 6c 3d 8e 46 93 bd 44 e6 74 bd
       -0.05556311 0.057652567 -0.071911916 -0.05978991
000140 27 5f 48 bd 12 b3 7f 3d 8d da 2e 3d 5a 24 af 3c
       -0.04891887 0.062426634 0.042688895 0.021379638
000150 a5 c4 58 3d 0d 79 5b 3d 25 d1 6d 3c a6 95 87 bd
       0.05292191 0.05358224 0.014515196 -0.0662034
000160 8d 66 44 3d 81 70 66 bd a8 01 23 bc 33 aa 5a bd
       0.047949363 -0.056259636 -0.009949125 -0.05338497
000170 45 e8 50 3d d3 64 15 3c 9b e1 15 bd 22 be 06 bd
       0.05100276 0.009118277 -0.036592107 -0.03289617
000180 26 fb 55 3d e8 6e d6 3c 5a 78 db bc 65 1d 0d 3d
       0.052241467 0.026175931 -0.026790787 0.03445186
000190 1d b6 8d 3d b8 0e 62 3d 73 68 9e bc 85 bb 78 3d
       0.06919501 0.05518982 -0.019336915 0.060725708
0001a0 02 0e 88 3d 2e fd 08 bd 0f 20 d5 bc a8 12 07 bc
       0.06643297 -0.033444576 -0.026016263 -0.008244194
0001b0 f7 ef c0 bb 9d 4a 2e bd e5 d6 87 bd 86 45 04 bd
       -0.005887981 -0.042551626 -0.06632785 -0.032292865
0001c0 94 a2 72 bc 9d fb 57 bd f2 d3 86 3d 75 96 d3 3c
       -0.014809269 -0.05273019 0.06583394 0.02582858
0001d0 33 40 5b 3d ed 55 7f bc f5 3d 6c 3a 74 5b 3e bc
       0.053528022 -0.015584451 0.0009011918 -0.011618484
0001e0 06 e7 24 3d 14 f5 21 bd 37 93 cd bb 65 56 ba bc
       0.040259384 -0.039540365 -0.006273653 -0.022746274
0001f0 32 70 08 bc 71 e3 12 bd 85 73 99 3d f4 ea 37 3d
       -0.008327531 -0.035861436 0.07492737 0.044901803

fc2.weight f4 [64, 128]
000000 20 45 21 bc f2 49 2a 3d a3 8d 1d bd 38 be 23 bc
       -0.009843141 0.041574426 -0.038465153 -0.009994082
000010 80 b3 00 3a 18 a9 42 bd da c7 91 bd 74 63 9e bd
       0.000490956 -0.04752454 -0.07118197 -0.07733813
000020 62 a3 1b 3d 60 d2 7d 3c d7 b3 9d 3d db ae 63 bd
       0.03799761 0.015492052 0.07700317 -0.055586677
000030 50 3f 81 3b 9a 1c 2a 3d 30 43 0e bc 80 95 b9 ba
       0.003944315 0.041531183 -0.008683011 -0.0014158934
000040 98 e8 16 3c a1 19 9e 3d f1 09 14 bd d1 4a a2 bd
       0.009210728 0.07719732 -0.036142293 -0.07924426
000050 b0 c1 05 3c 80 9a 12 3a ea 67 7e 3d 82 95 a4 bd
       0.0081638545 0.00055924803 0.06211082 -0.08036329
000060 a0 69 9f bc 5b e2 90 3d 78 0c 4f bd b0 e0 2e 3c
       -0.019459546 0.07074424 -0.050549 0.010673687
000070 58 ba 5b bd c0 83 c0 3c ca cc 82 bd 85 99 a5 bd
       -0.053644508 0.023500323 -0.06386717 -0.08085922
000080 7b 92 2f bd 7c 80 04 bd 10 bd c5 bc f2 ba 66 3d
       -0.042864304 -0.032349095 -0.024138004 0.05633063
000090 d3 98 22 bd e0 bc 57 bb 54 61 a3 bd 40 35 ba ba
       -0.039696526 -0.0032918975 -0.07977548 -0.0014206544
0000a0 78 46 f8 bc c4 81 94 3c 40 df cc bb 40 c4 eb ba
       -0.03030704 0.018128283 -0.0062521994 -0.0017987564
0000b0 b2 ef 67 3d 00 8e 45 bd 28 59 44 bc 3d 84 91 3d
       0.056625076 -0.048231125 -0.011984147 0.071053006
0000c0 ce 26 59 3d 03 41 4e bd 38 cf 3c bc a8 56 13 bc
       0.053015523 -0.05035497 -0.011524014 -0.008992828
0000d0 07 22 90 3d f1 a1 ac bd 92 39 21 3d 4e e9 99 bd
       0.0703774 -0.08429325 0.039361544 -0.075152025
0000e0 a0 ab 2b 3b 65 cd 56 bd c2 5c 5e 3d d1 94 b0 bd
       0.0026194826 -0.052441973 0.05428768 -0.086221345
0000f0 36 b4 37 3d 18 3f 86 bc 7c d2 83 bd f6 a8 2b bd
       0.044849597 -0.016387507 -0.06436631 -0.04190918
000100 55 41 87 3d c1 75 ae 3d d4 fa 0f 3d 62 ff 05 bd
       0.06604258 0.085185535 0.035151318 -0.032714255
000110 d5 bf 87 3d 8e c8 48 3d a4 25 95 bd af 2c 47 bd
       0.06628386 0.04901939 -0.0728257 -0.048626598
000120 d7 d8 22 bd a6 07 06 3d 2a 2a 32 bd 4e 27 7b 3d
       -0.039757576 0.032722138 -0.043497242 0.06131678
000130 0e 09 6e 3d e0 5d 82 bb 0c f5 80 bc 38 e6 a1 bd
       0.058114104 -0.003978476 -0.015741847 -0.07905239
000140 0b d1 95 3d e4 a7 7b bd a5 3e a5 bd 2b fd 90 bd
       0.073152624 -0.06143941 -0.08068589 -0.07079538
000150 04 34 da 3c 19 ec 06 bd ba b8 75 3d 4e 52 50 3d
       0.026636131 -0.032940004 0.059990622 0.050859742
000160 d0 83 e8 bb 69 ed 26 bd cf f6 88 3d 50 96 85 bb
       -0.0070957914 -0.040753756 0.066877 -0.0040767565
000170 4b f7 8f 3d 63 ec 8e 3d 50 18 9c bc 52 a3 ab bd
       0.07029589 0.06978681 -0.019054562 -0.0838076
000180 1c e5 a8 bc 8d 18 ae 3d 5c 7f 2e bd ed ed 85 3d
       -0.02061706 0.085007764 -0.042601928 0.06539521
000190 f8 09 05 3c 19 54 ae bd 1a 12 21 3d b3 c3 03 bd
       0.0081200525 -0.08512134 0.039323904 -0.032169055
0001a0 30 fa 85 bc 74 84 8d bc 12 0c 05 3d f4 9b 0c 3d
       -0.01635465 -0.017275073 0.032482214 0.034328416
0001b0 39 44 87 3d 3b ac ae 3d cc 5e 22 bd 00 07 2f bb
       0.06604809 0.08528944 -0.039641187 -0.0026707053
0001c0 58 e7 74 bc 9d 90 a3 3d 7f 4b 91 3d 95 0b 65 bd
       -0.014947735 0.07986567 0.07094478 -0.05591925
0001d0 0a 55 9f bd cd 84 ad bd 3d be 9e bd bc c9 c4 3c
       -0.07779892 -0.08472595 -0.07751129 0.024021976
0001e0 f8 e9 b9 bc 5c 65 f0 bc 25 28 91 3d 5c 25 75 bd
       -0.022694573 -0.029345207 0.07087735 -0.05985008
0001f0 57 5e 99 bd 60 57 20 3c f1 6f 90 3d 4a 02 1e 3d
       -0.07488697 0.009786457 0.07052601 0.0385764
000200 06 ce 87 bd b3 96 cb 3a ab 39 84 bc 75 f0 3b bd
       -0.06631093 0.0015532583 -0.01614078 -0.045883615
000210 2e f2 8a 3d 01 21 c3 3d b2 4d f3 bc 0d 76 0d bd
       0.06784473 0.09527779 -0.029700134 -0.03453641
000220 db 3d 01 3d f6 13 cf 3c c0 ba 75 bd 0a 81 09 3d
       0.03155313 0.025278073 -0.05999255 0.033570327
000230 0b 6b 1b 3b 00 3c c9 3b e3 59 a4 3c 9e d1 c2 bc
       0.0023714926 0.0061411858 0.020062393 -0.023781594
000240 28 73 8a 3d 9b 7b 2c bd d6 02 84 3d 90 13 ac bd
       0.067602456 -0.042110067 0.064458534 -0.08402169
000250 fa 8d 3a 3c 8c 43 7d 3d 71 19 27 3d 84 50 8d bc
       0.011386389 0.061831996 0.040795747 -0.017250307
000260 b7 e1 a8 3d 7d 2b 6b 3c a3 65 44 bc 30 60 e4 bb
       0.08246177 0.01435363 -0.011987123 -0.0069694743
000270 a7 32 87 3d 3c 34 86 bd 6c 50 e3 3c 2c 7a 95 3d
       0.06601458 -0.06552932 0.02774831 0.07298693
000280 f9 6e b6 3d f7 d9 b5 bd 25 01 2c 3b be 62 be bc
       0.08907885 -0.08879464 0.00262458 -0.023240443
000290 e9 83 9f 3d b3 ab 5d ba b9 b5 f4 bb 4e fc 1a 3d
       0.07788832 -0.0008456066 -0.007467952 0.037838273
0002a0 bc a7 f8 3c 68 5c b4 bd 27 4f f7 3c 8c a2 15 bd
       0.03035342 -0.088066876 0.03018911 -0.03653197
0002b0 8c 0e c2 bc 67 8a b2 ba 21 aa 3f 3d 65 60 3c bd
       -0.023688577 -0.0013621569 0.046793107 -0.045990366
0002c0 99 45 ce bc 34 d7 6a bd a8 16 89 bd 46 73 7c bc
       -0.025179671 -0.05733414 -0.066937745 -0.015408343
0002d0 bb d1 97 3d 79 3c bc 3c a6 fc 58 3d 9a 8f 1c 3d
       0.0741305 0.022978054 0.05297532 0.038222887
0002e0 a0 3d d9 bc 35 d0 71 bc 06 8d 5e 3d e7 6f 30 3c
       -0.026518643 -0.014759113 0.05433371 0.010768867
0002f0 fe 12 1a bc d1 9b 87 bd c2 93 a5 3a b5 b5 94 3d
       -0.009403942 -0.066215165 0.0012632536 0.0726122
000300 eb 97 95 bd a0 78 a2 bb 60 e5 39 bd 1c f2 9d 3d
       -0.07304367 -0.0049582273 -0.045384765 0.07712194
000310 9b 13 15 3d f3 0f 75 3c 00 29 07 3c 96 e7 ac bd
       0.03639565 0.014957416 0.008249521 -0.08442609
000320 28 6b ad 3d 93 89 53 bd 1b ea ac 3d e9 7a 12 3d
       0.08467704 -0.051644873 0.084430896 0.035761748
000330 6a 70 1f bc d7 c0 88 3b a6 47 5e 3d 04 5c d1 bc
       -0.009731391 0.004173379 0.054267548 -0.025556572
000340 c9 80 94 bd 15 4e 23 bb dc be 94 3d dc 78 45 3d
       -0.07251126 -0.0024918367 0.07262966 0.048210964
000350 56 10 b3 bc 7f 89 c8 3c 10 7e 54 3d 4c c1 8b bd
       -0.021858376 0.024479626 0.051878035 -0.06823978
000360 c3 04 a9 bc b4 00 df b8 73 05 14 3d fe d9 52 bd
       -0.020632153 -0.000106335996 0.03613801 -0.051477425
000370 66 13 25 3a 62 4d 36 3d 7c 65 b1 bd d5 88 8c bd
       0.0006297141 0.04450739 -0.08661935 -0.06862036
000380 d6 24 e0 bc 66 61 32 bd 28 ca 57 bd 61 32 64 3d
       -0.027361315 -0.043549918 -0.052683026 0.055712108
000390 01 db c7 bc e0 ba 5e bc f1 d0 67 3c 18 5a a9 bc
       -0.024396421 -0.013594359 0.014148937 -0.020672843
0003a0 6b 99 3c 3d d4 00 77 3d 1d de 07 bd 4b 00 0f 3d
       0.04604475 0.060303524 -0.033170808 0.03491239
0003b0 5b ec e6 bc 34 f7 35 bd 04 d4 61 bd 3e 67 da 3c
       -0.028188875 -0.044425204 -0.055133834 0.026660558
0003c0 73 65 58 bd 2e 3f 5f 3c 8e 04 c0 3c 02 aa 96 3a
       -0.052831125 0.013625903 0.023439672 0.0011494758
0003d0 89 e6 b0 bc 38 86 de bc 24 91 79 3d 8c d9 0d bd
       -0.021594303 -0.02716361 0.060929433 -0.034631297
0003e0 e4 84 0b 3d 8a 3c be 3c 3d 36 83 3d ad fa 00 bd
       0.03406228 0.023222227 0.064068295 -0.031489063
0003f0 b1 b4 66 bc 51 8a 8f bc 1f a3 65 bd fc 75 aa bd
       -0.014081166 -0.01752201 -0.056063768 -0.08323285

fc2.bias f4 [64]
000000 90 29 7b bc 48 91 b5 3b be a7 b7 bc d9 b8 aa 3d
       -0.0153297335 0.0055410005 -0.022418853 0.08336038
000010 b4 0d 24 bc 50 f6 7c bc 9f 66 8a bb 34 06 30 3d
       -0.010013033 -0.015439585 -0.004223659 0.042974666
000020 f0 96 9d bd c4 a8 a1 bd 3e 99 cd 3a 0e c4 ba 3d
       -0.07694805 -0.078935176 0.0015685929 0.09119426
000030 30 42 ce 3c d2 b4 c6 ba af e1 e0 bb 6b fa 83 bc
       0.025178045 -0.001516009 -0.006862841 -0.01611062
000040 1a 5e d2 bb ba cb 3e bd c9 61 6e bd 4d 71 82 3c
       -0.006419909 -0.046581008 -0.058198724 0.015923167
000050 3c f1 05 3d df 00 93 bd c5 97 b7 3c 81 42 ae 3d
       0.032700762 -0.071779005 0.022411237 0.08508778
000060 00 3d 75 bc 77 37 55 bd cc f0 5e 3d fb f9 c6 bb
       -0.014968157 -0.05205485 0.05442886 -0.0060722805
000070 2b d8 23 bd a8 3c 5c bc 7f 77 a3 bd d7 4b d0 3c
       -0.040001076 -0.013442196 -0.079817764 0.025426788
000080 2d bf a8 bd b1 b8 9a 3c a8 be 31 bd 13 80 80 3b
       -0.08239589 0.018886896 -0.043394715 0.0039215176
000090 4b 92 a4 bd 93 55 a5 bd 16 ac 80 bb 8e 5c a3 3d
       -0.08035716 -0.080729626 -0.0039267642 0.07976638
0000a0 12 8a 18 3d 0b 61 7d 3d 9f 94 73 3d c1 20 ff 3c
       0.03724105 0.061860126 0.059467908 0.031143548
0000b0 5f 31 ae 3d 8c cc 90 bc 04 1a b3 3d 3e 8c d0 bc
       0.085055105 -0.01767566 0.087451965 -0.025457498
0000c0 bc c6 30 bd af 2f 96 bc 7a 4e 42 bd 39 1c 9b bd
       -0.043158278 -0.018333284 -0.047438122 -0.075737424
0000d0 6c 9e 7a 3d b1 16 9f bc 0c b8 a6 bd d2 ba 14 3c
       0.06118624 -0.01942 -0.08140573 0.009077745
0000e0 fe 41 bc bc 45 3e 92 3d c0 80 22 3d 0e fa 0d bd
       -0.022980686 0.07140783 0.039673567 -0.0346623
0000f0 bf 3d 0c bd bf 02 b7 3b 45 73 e3 3c a8 24 96 3c
       -0.034238573 0.005585044 0.027764926 0.018328026

fc3.weight f4 [2, 64]
000000 a0 12 13 bd 1f 5d c2 3c 41 a4 5c 3d 6c 5c e6 ba
       -0.035906434 0.023726044 0.053867582 -0.0017575151
000010 09 22 40 bd fd c5 af 3d ad 65 1c bd c1 1c 13 bc
       -0.04690746 0.08582685 -0.038182903 -0.008979023
000020 7a 2f ea bd e9 9c 2a 3d 46 92 ae bc 4c 3b 7e 3b
       -0.11434837 0.041653547 -0.021309983 0.0038792668
000030 e9 01 9c 3c 42 ff b3 3d a3 63 74 3d 8f b2 98 bc
       0.01904388 0.08788921 0.059665333 -0.01863983
000040 25 f5 fa 3d b5 a5 fe 3c 8d e9 4b 3d 27 06 32 bd
       0.12253789 0.031084875 0.04978328 -0.0434629
000050 9c 81 06 3d bf c4 ef 3d 32 03 fa 3d c4 73 84 bb
       0.03283845 0.11707448 0.12207641 -0.0040421207
000060 5a 12 b9 3c f5 1e ec 3d 66 a2 a6 bd 3f d2 a6 bc
       0.022591759 0.11529342 -0.08136444 -0.020363925
000070 1f df aa bd 2c 73 05 3e 8d d3 bb 3d 0b fa c7 bc
       -0.08343338 0.13032216 0.091712095 -0.024411222
000080 0e 69 84 bd 5b 94 a0 bd 7a 30 93 bd 57 7c 62 3d
       -0.0646535 -0.078407966 -0.071869805 0.05529436
000090 d0 2c cc 3c ca 8f 32 bd 5d 32 94 bc fa d0 13 bc
       0.024923712 -0.04359416 -0.018090421 -0.009021992
0000a0 fb 40 49 bc 35 4e 91 bb a3 ab a6 3d 39 fa 88 3d
       -0.012283559 -0.004434372 0.08138206 0.06688351
0000b0 0d 7d 07 bd ff 8e 11 bd 49 e7 46 3c ea d0 fe 3c
       -0.033078242 -0.035536762 0.012140104 0.031105477
0000c0 d5 f9 d6 3d e0 28 fc 3d 5c 08 a1 bd b0 b1 4d bc
       0.104968704 0.12312484 -0.078629225 -0.012554571
0000d0 01 18 06 bd fe 61 78 3d c6 c2 b3 bd d7 66 dd bd
       -0.032737736 0.060640328 -0.087773845 -0.10810631
0000e0 fc 24 ba bd e0 99 de 3b b7 89 bc bd 0b 80 35 bd
       -0.090890855 0.0067932457 -0.092059545 -0.044311564
0000f0 48 80 4d bd c6 1f 96 bc 22 de f3 bd b0 c7 bb bd
       -0.050171167 -0.018325698 -0.11907603 -0.09168947
000100 9e 01 a5 bd 8f 38 f0 3d d8 8b b0 3c d6 0b 94 3d
       -0.08056949 0.11729538 0.021551058 0.0722882
000110 5d 4d 4d 3d b1 05 1c 3d e4 49 88 3d d8 f3 ee bd
       0.050122607 0.038091365 0.066547185 -0.11667603
000120 80 bf ca 3b 5b 88 ae 3c 03 90 8b 3d 73 cf 84 3d
       0.0061873794 0.021305254 0.068145774 0.0648488
000130 c2 c5 ee 3d 84 2b d8 3d e6 18 69 3d ad b5 ee 3d
       0.11658813 0.10555175 0.05690851 0.11655746
000140 78 79 05 bd a8 7a fb 3d 6c 61 f6 3c 4c d1 c0 bd
       -0.032586545 0.12279254 0.030075751 -0.0941492
000150 c0 98 e6 bb 45 ca b9 3d 93 a2 1b ba 8c 56 c5 3a
       -0.007037252 0.09071783 -0.0005937006 0.00150557
000160 da df 91 bd 8b cc fd bd 94 32 8d bd 7b b3 ae 3d
       -0.071227744 -0.12392529 -0.06894413 0.08530327
000170 31 49 33 b9 99 92 2b bd 65 d4 91 3d 23 0a e7 3d
       -0.00017098036 -0.041887853 0.07120589 0.1128123
000180 be f5 b6 bd 86 43 2c 3d 9c b6 f2 3d b8 8d d9 3c
       -0.0893359 0.042056583 0.11851236 0.026556835
000190 52 e0 c9 bd fb 75 dc bd 2d b3 b4 3c 8b cc 94 bc
       -0.09857239 -0.107646905 0.022058094 -0.01816394
0001a0 35 64 6f 3d 8a 5b 8c bd e8 83 a8 3c ba 95 57 3d
       0.058445174 -0.06853397 0.02057071 0.052633025
0001b0 4a 1c d5 bd 4b e1 db 3c 77 61 e1 bd 9a 4a da 3c
       -0.10405786 0.026840826 -0.11004918 0.0266469
0001c0 fc 07 71 3d e6 4e cd bd b4 55 d0 3d 50 1b 31 3c
       0.058845505 -0.10024814 0.101725966 0.010809734
0001d0 ce 03 61 3c d3 e6 6b bd 16 59 9c bd 8f 77 d1 bd
       0.013733817 -0.057593178 -0.07634179 -0.10227882
0001e0 b0 7d 80 bd cc 5e b2 bd 25 92 c8 3c bf 59 b5 bd
       -0.06273973 -0.08709487 0.02448375 -0.08855008
0001f0 76 48 f7 bd 48 e8 a8 bd b2 3d de 3d 62 f1 8f 3d
       -0.12074368 -0.08247429 0.10851611 0.07028462

fc3.bias f4 [2]
000000 b5 6d b2 bc 75 19 b4 bd
       -0.021780828 -0.08793918
