model_to_load/mod64_save7.pt (torch_old, 172265 bytes, 12 tensors)

conv1.weight f4 [18, 64]
00000000: 8475 31bd 5505 093d b62d 883e ef88 46be
00000010: 9b19 14bd 3f2a 3b3e 5788 8dbd 09dc 5f3e
00000020: 9394 25bd 40c1 613e 3439 193e 5cc6 273e
00000030: 7863 a03d 2786 bbbd e1bd 70be ff19 1bbe
00000040: 068c 853e c940 023e e008 7f3d 759f bebd
00000050: e204 27be 2831 323e ce67 bebd 5a43 3b3e
00000060: 4645 013c 535f 263e ccc0 36be 1b5c 2bbd
00000070: e8f5 f43d 0125 52be b0b0 c33d 6901 7f3e
00000080: f59d 73be daa6 3fbe 594c 48be 5559 4cbd
00000090: 43b7 5b3e 826b 2cbe 57bf 0d3d b51d 56be
000000a0: 3179 55be e323 163e f081 9dbd 11b2 4a3e
000000b0: ff58 2abe 41ff 253e 48b0 25be 7955 6b3e
000000c0: 3212 a93b 7c74 323e dfa0 383e 899e 26be
000000d0: fe99 193e fa4e 333e 5b02 3dbd ed38 413e
000000e0: 302d 5c3e 5274 0ebc 2114 843d dcaf b8bd
000000f0: bdd8 6f3e b86d 7a3e 1251 143e e4ff 8fbd
00000100: e615 22be ccb2 46be 2ea6 743e 53d6 833e
00000110: 2a5a 04be 86b6 78be 6d95 fb3c e577 19be
00000120: 2865 4b3e f1a3 89bd 7447 86be 79c5 efbd
00000130: f80a 80bd 39b1 89bd 5ed7 d1bd 1839 2b3e
00000140: a799 c839 cb6a 5fbd 7e03 0b3c 1349 d33c
00000150: 03e9 313e 2ae4 643e 7c61 2f3e d984 2b3e
00000160: 2f3f 77be 27b3 01bd 3672 523e a47e b5bd
00000170: bc7d 2b3e 63cb 17bd ebbf 56be 0155 383e
00000180: 4a21 1a3e 1dbc ff3d a797 57bd f58f e8bc
00000190: 966c 043e eadd d93d d4de 4bbe a9b8 39be
000001a0: 189c 91bd 5e8d 303e 58a0 a83d 5b7e a93c
000001b0: 78b4 653d bc13 a53d 2c27 3e3c 1f4a f23d
000001c0: 0ccd 443e 8e26 943d 5a29 e5bd a2f6 95bd
000001d0: c623 293e 23e6 c7bc 7ff0 d33d 21e3 80be
000001e0: 2da7 b83d f990 71be 2802 2e3e ac9f 48be
000001f0: 03f5 c8bd 2def 373e 7da5 93bd a750 1bbe
00000200: 9e6c 75be 231e 87bd 87de d13d 8ecc bbbd
00000210: ca32 613d 0f22 6ebe 90f2 003e 7ae7 78be
00000220: 4568 5dbe dc97 2e3e 8184 73be 057d efbc
00000230: 3845 273e be11 663e 1925 fb3d 6200 8abe
00000240: 3566 b43c 9f7a df3d 56ae ab3d 7b3e 693d
00000250: b0dc 20be 8696 453d 5224 233e 4f2f 543e
00000260: ffe2 10be 2000 f5bd 4cea 5b3e 5e77 0f3e
00000270: 1325 06be 4208 31be a33c 893e af1e 0a3d
00000280: 8436 07bd 4390 60be 60d9 b23d 2711 2cbe
00000290: bdc2 04be 1251 4b3e a61a 8cbb 157f b63d
000002a0: 73d0 223e 9b3a 3d3e 73c9 de3d 98b4 84be
000002b0: 9b1f 913d ec19 ed3d 61f1 35bd 2a3d 12be
000002c0: 18e3 4b3e 8abe 083e 4067 59be 9026 3ebe
000002d0: d065 3fbe 5fea 323e f85c 8b3e e02a 9dbd
000002e0: 5875 84be 6c35 2b3e ed98 633d 35b3 28be
000002f0: 03c8 7fbe 5170 d8bd 1ad1 2c3d 061d 623d
00000300: 9f6e 2dbb d150 233d 8df6 5b3e 0971 743e
00000310: 1675 253e d503 073c 2b15 febd 07df 363e
00000320: b71e 523e df7a 973d 6baf bbbc a461 1cbd
00000330: 6e84 5cbe 7ca4 fa3d a882 80bd 12cc 5e3e
00000340: e81b 3fbe d7af 60be e1c7 85be 2663 70be
00000350: e1d9 12bc c7f2 3ebd 2cc5 813e e097 be3b
00000360: d8a6 573e e6f0 453e 28d6 b9bc a01c 83be
00000370: 7073 a9bc 8f04 a13d 840d 38be 0209 9fbd
00000380: 642e 1d3e 9bec 3a3e 7ba0 4abd d6cf db3c
00000390: ed12 883e 6313 953c 9c0a 6b3e 59d6 8f3d
000003a0: 6995 84be a575 87be 2632 6fbe 0c85 833e
000003b0: 9803 42be 6d09 c9bd 666f 1d3d a929 46be
000003c0: 9152 67be 72e0 3abe 6642 cc3c e99b 403e
000003d0: e5e3 173e 0a7a 3abe e444 633d 4dff 443e
000003e0: eabe 99bd d957 4cbe 0f5a c7bd 6fbf 253d
000003f0: 4261 ce3c 561f 243e 6fdb 153e ce6c c83c
-0.043324962 0.03345235 0.26597375 -0.19388174 -0.03615723 0.18277834 -0.069107704 0.2186128
-0.040424895 0.22046375 0.14963228 0.16384262 0.07831472 -0.09156447 -0.23509933 -0.15146635
0.26083392 0.12720026 0.062264323 -0.09307758 -0.16310456 0.17401564 -0.09297143 0.18287411
0.007890051 0.16247301 -0.17846984 -0.041835885 0.119609654 -0.20521928 0.09555185 0.24902882
-0.23790725 -0.18715993 -0.19560374 -0.04988988 0.21456628 -0.16837886 0.034606304 -0.2090977
-0.20847012 0.14662127 -0.07690799 0.1979449 -0.16635512 0.16210653 -0.16180527 0.22981824
0.0051596398 0.17427248 0.18030117 -0.16271414 0.1500015 0.17510596 -0.046144824 0.18869372
0.21501613 -0.008694725 0.06449152 -0.090179175 0.23422523 0.24455917 0.14484051 -0.07031229
-0.15828666 -0.19404143 0.23891518 0.25749454 -0.1292502 -0.24288377 0.0307109 -0.14987142
0.19862807 -0.067207225 -0.2622639 -0.11707587 -0.06252092 -0.06723256 -0.10246156 0.16720998
0.00038261453 -0.054545205 0.008484719 0.02579168 0.17374043 0.22352663 0.17127031 0.16749896
-0.24145196 -0.031664994 0.2055138 -0.088620454 0.16747183 -0.0370592 -0.20971648 0.18001176
0.15051761 0.12487052 -0.05263486 -0.028388957 0.12932047 0.1063803 -0.19909221 -0.18136849
-0.07109851 0.17241427 0.08233708 0.020690134 0.05608031 0.08060405 0.011606019 0.11830544
0.19218844 0.07233916 -0.11189528 -0.07322432 0.16517553 -0.02440173 0.10348605 -0.25173286
0.09016261 -0.23590459 0.1699301 -0.1959216 -0.09812357 0.17962332 -0.07209299 -0.15167485
-0.23967215 -0.06597545 0.10247522 -0.09169875 0.054980077 -0.2325518 0.1259253 -0.24307051
-0.21621807 0.17050117 -0.23781015 -0.029234419 0.16334999 0.22467706 0.12262935 -0.26953417
0.022021392 0.1091206 0.08382861 0.05694435 -0.15709186 0.048239253 0.15931824 0.20721172
-0.14149092 -0.119629145 0.21476096 0.14010379 -0.1310008 -0.17288306 0.26804075 0.03372067
-0.033010975 -0.21930031 0.08732867 -0.16803418 -0.12964912 0.19855145 -0.0042756377 0.08910958
0.1589983 0.18479387 0.10878267 -0.25919032 0.070861064 0.1157721 -0.04441965 -0.14281145
0.19910848 0.13353935 -0.21230793 -0.18569398 -0.18691182 0.17472218 0.27219367 -0.076741934
-0.25870776 0.16719598 0.055565763 -0.16474612 -0.24978642 -0.10568298 0.042191602 0.05520346
-0.002646364 0.039871994 0.2148077 0.23871244 0.16157946 0.00824066 -0.12406381 0.17858516
0.2051953 0.07396483 -0.022910794 -0.038179055 -0.21534893 0.12238404 -0.06274921 0.21757534
-0.18662989 -0.21942078 -0.26129058 -0.23475322 -0.008963079 -0.04661825 0.25345743 0.0058164448
0.2105974 0.19330177 -0.022685125 -0.25607777 -0.020684928 0.078621976 -0.17973906 -0.0776539
0.15349728 0.1825432 -0.049469452 0.026832502 0.2657694 0.01819772 0.22953266 0.070233054
-0.2589524 -0.26456943 -0.23358974 0.25687444 -0.18946683 -0.09816251 0.038436316 -0.1935183
-0.2259009 -0.18249682 0.024934005 0.18809475 0.14833029 -0.18210617 0.05548562 0.19238015
-0.07507117 -0.19955386 -0.09733974 0.04046577 0.02519286 0.16027579 0.14634489 0.024465945

conv1.bias f4 [64]
00000000: 5710 be3a c04b d13a d294 a83a 4c8e d2ba
00000010: 72b8 003b a9d5 d33a 4d54 eaba fdb7 123b
00000020: 1512 6b3b ba02 013a 1db0 233b 6417 e33b
00000030: b86f 253b b0cc bf3b a15c 033a 81af 803b
00000040: c5e0 263a 38e8 043b 47be 90ba 2e6f 14b9
00000050: 0a9f fc38 0c8e 47ba 5096 273b 34fc 21bb
00000060: c8b3 78bb 1889 50ba 67f2 a13a 8114 443b
00000070: 4d37 3bb9 b340 17bc 0004 29bb 8b4f 013b
00000080: 368e b7bb 5cc4 a6ba 0cec 9bbb 0790 23bb
00000090: f54b 4b3b 8b1d 873b ab28 ff3b ea1f 8339
000000a0: eb2c a93a 43ce 273b 07e3 b4bb a45e c739
000000b0: 29a0 d639 f043 0e3b baf4 4c3a 9017 6c3b
000000c0: 14c9 783a 7b55 f43a 2929 023b 7993 8238
000000d0: d810 ef3b ea5c c3b9 7179 433b f1dc 95bb
000000e0: 2574 533b a2bc 45bb f94d a3ba 813c 663a
000000f0: fae3 b23b 789e 613b 5fa0 193b 936e 313a
0.0014500719 0.001596801 0.0012861735 -0.0016064136 0.0019641188 0.0016161698 -0.0017877907 0.0022387498
0.0035868932 0.0004921366 0.0024976798 0.0069302786 0.0025243592 0.005853258 0.0005011056 0.0039271717
0.0006365891 0.0020280015 -0.0011043035 -0.00014155798 0.0001204592 -0.0007612414 0.002557177 -0.0024716975
-0.0037948955 -0.0007954999 0.0012355567 0.0029919448 -0.00017854311 -0.009231734 -0.0025789738 0.001973125
-0.0056016697 -0.0012723315 -0.0047583636 -0.0024957673 0.0031020616 0.004123395 0.0077868304 0.00025010045
0.0012907063 0.002560512 -0.005520228 0.0003802675 0.0004093659 0.0021707974 0.00078184495 0.0036024787
0.0009490412 0.0018641198 0.001986096 6.226352e-05 0.007295709 -0.00037262525 0.0029827023 -0.0045734574
0.0032265272 -0.0030172248 -0.0012459151 0.00087828195 0.005459306 0.003442673 0.0023441536 0.0006768491

conv2.weight f4 [64, 64]
00000000: a7e3 f13d e0b8 a8bd 13a1 09bd 38ad 093e
00000010: 8e3e 5bbe 54a3 4cbe bb8e 103c 2d29 173d
00000020: 4e16 053e 8317 31be 41d7 25bd 6342 13bd
00000030: 9224 cf3d a855 383e 540c 29be c32f 51be
00000040: 0322 e9bd 38f7 94bd 2226 f1bd 52fc bcbd
00000050: fcbb dc3d d94f 533e 136b b8bd 7680 56be
00000060: 4b4b a03d 21e9 5b3e 625d b6bd f2e1 7a3d
00000070: 0315 0f3e 6898 3ebe 2cce 243e b48f 24be
00000080: e30c be3d 8f4d 59be 9ebb 463e ae38 983d
00000090: ceb6 15be 0031 323e d7b1 363c f154 5cbe
000000a0: 3a2d 02be c627 a9bc 6670 23be 4a67 00be
000000b0: 282f 3fbe 739f 4dbe 5941 5ebd 380f 9c3c
000000c0: df8b 173d 465c 143e 9079 603d ff84 40be
000000d0: b452 24be e519 4dbd db07 da3d a194 26be
000000e0: e009 4fbc 85c5 993c 6630 39be 8e63 6abd
000000f0: d862 8c3d 66b3 403e a7b8 0fbd 78cb ccbc
00000100: 6bbe 27be 8525 8b3d 0c14 dcbc 36a3 82bd
00000110: 5488 e3bc bfa7 453d 2fb8 2e3e d434 1c3e
00000120: 936e 16bd e53b 083e 5457 b73d 2837 003e
00000130: 92b5 2b3e 90fd 0d3d ee96 0bbd 878b ddbd
00000140: 68d7 75bd 3fed 4dbe 5655 12be 6e5d 1bbe
00000150: 7172 343e c460 85bd 20fd bb3d c9a3 c03b
00000160: 97f9 503e ce4c 023e e3d4 99bd 0a26 ac3d
00000170: 9cb7 1dbe 38b6 2b3e 2e71 843c 3a39 093e
00000180: fef7 4cbe 8c42 08be d729 4b3e 306a 0f3e
00000190: b131 9d3d 9583 2a3e 3d8f b73d dfac 2bbe
000001a0: b92d 62be 354a 643d 8e32 7b3c 944c 423d
000001b0: c860 5c3e 2fcd 5f3d 32dc b4bd 4e5b c43d
000001c0: ae1b c03d 29cd 4ebd b42d 643d 3d91 13bb
000001d0: e48c 95bd e7fe a8bd 0bbf 34be 62ef 9d3d
000001e0: ddea 533e a938 c2bd d95b a1bd de19 713d
000001f0: d181 043d cd21 8ebd dbf8 b3bd 48e8 52bd
00000200: 2ef3 0d3d 0d9a 983d ab9a 523b 170d 3a3e
00000210: 6fd4 d83c 0899 14be 38f1 30be 787a 063e
00000220: ada6 483e 9f5d ba3c f437 df3d eff4 4b3e
00000230: 6569 483e 3384 5e3e e59c 81bb 2b61 9d3c
00000240: 0e64 8bbd 27a6 22be d942 223e 4217 1fbd
00000250: 12b3 18bb cbe2 3fbe 186d 20be 61fd 243e
00000260: 6857 fa3d 7bcb b8bd 9fb2 163e deb7 c33c
00000270: 0b6f f13d be37 8cbd 8e8c 0b3e b999 1dbe
00000280: e389 073e 464d 053e afbc b03d e072 933d
00000290: b926 5dbe 65d1 e2bd 2cbe e43c fa47 293e
000002a0: 9170 e4bd d613 a03d 9948 403d 379c 313e
000002b0: 90f9 41bd 8a14 753b 1693 afbd f08e b4bd
000002c0: 837e 293e d923 30be 9fab ce3c 53f1 4f3d
000002d0: f728 d23d 91f5 f03c 6892 0b3e bd0d 303e
000002e0: 9d52 eb3c b240 bbbc 94a8 133e fef4 28be
000002f0: 9ac7 c83d 64c2 2abe 473f b8bd cf21 00bd
00000300: 0d8e 5dbc c1f5 e13d 5718 0e3e 9724 ff3d
00000310: 1b32 903d 185e a8bc da5b 41be 880a 81bd
00000320: 079f 9b3d 5319 403e 82fa 7cbd 3b17 193e
00000330: 608a 3a3d 5531 7e3d 8c3a 4cbc 993d 95bd
00000340: ba88 0b3e f567 953d cb75 b2bd 6558 083e
00000350: 9569 79bd a14d 053e 8368 67bb 5130 cbbd
00000360: d93a 2c3d d8ce 40be dc06 0c3c 8018 dc3d
00000370: c349 3f3e 01d3 40be ccb5 4bbe 18db 2d3e
00000380: 0a2f 53bc 2e24 e5bd 35f0 a9bd 685a d93d
00000390: 3529 cd3c 2847 fa3d 77af c0bd df0a 253e
000003a0: b285 3f3e 4122 17bd a8d4 b63d 02c5 063c
000003b0: 4d0f 463e 11c4 1fbe d96e 1ebe 9940 5bbe
000003c0: 4c6c a6bc 7a4a 36be c7f2 523e 89c9 92bd
000003d0: b157 59be 2209 3b3d d9e6 85bd 0f17 cabd
000003e0: a80e d93d 4280 a33d bf96 ddbd c1e5 02be
000003f0: 89e2 55be c6c5 86bd 0f6e e43c 65b6 44bd
0.11810999 -0.08238387 -0.033600878 0.13444984 -0.21410581 -0.1998418 0.008823092 0.036904503
0.1299679 -0.17294125 -0.040488485 -0.035951983 0.10114397 0.18001425 -0.16508609 -0.20428376
-0.1138344 -0.07273716 -0.117748514 -0.09227814 0.10778043 0.20635928 -0.09004798 -0.20947441
0.07826861 0.2147565 -0.0890453 0.061250634 0.13972859 -0.18612826 0.16094273 -0.16070443
0.09279802 -0.21220993 0.19407508 0.07432686 -0.14620516 0.17401505 0.011150799 -0.21516778
-0.12712565 -0.020648848 -0.15960845 -0.12539402 -0.18670332 -0.20080356 -0.05426154 0.019050226
0.036998626 0.14488325 0.05480343 -0.18800734 -0.16047174 -0.050073523 0.106460296 -0.16267635
-0.012636632 0.018770942 -0.18084869 -0.05722385 0.068547904 0.18818435 -0.035088208 -0.024999365
-0.16381232 0.06794266 -0.026865028 -0.06378786 -0.027774967 0.04825568 0.17062448 0.15254527
-0.036726546 0.13304098 0.089522034 0.1252104 0.16768482 0.034665644 -0.034079485 -0.10817628
-0.06001988 -0.20110033 -0.14290366 -0.1517236 0.17621781 -0.06512597 0.09179139 0.0058788997
0.20407711 0.12724611 -0.07511308 0.08405693 -0.15402073 0.1676873 0.01616725 0.13400736
-0.20016477 -0.13306636 0.1984018 0.14005351 0.076754935 0.16651757 0.089628674 -0.16765164
-0.22087754 0.05573483 0.015331877 0.04743631 0.21521294 0.054639038 -0.088310614 0.095877275
0.093802795 -0.050488625 0.05570765 -0.0022516989 -0.073022634 -0.08251744 -0.17651002 0.07711674
0.20695062 -0.09483463 -0.07878847 0.05886256 0.032350365 -0.06940041 -0.087877 -0.051491052
0.034655742 0.07451258 0.0032135646 0.18169056 0.026468484 -0.14511502 -0.17279518 0.13132656
0.19594832 0.02274972 0.10899344 0.19917654 0.19571455 0.21730117 -0.003955471 0.019211372
-0.06806193 -0.15883695 0.15845813 -0.03884054 -0.0023300094 -0.18738858 -0.15666616 0.16112281
0.12223703 -0.09023186 0.14716576 0.023891386 0.11788758 -0.068465695 0.13627836 -0.15390672
0.13236193 0.13017759 0.086297385 0.07199645 -0.21596803 -0.11075095 0.027922712 0.16531363
-0.11154283 0.078162834 0.046944235 0.17344747 -0.047357142 0.0037396275 -0.08572976 -0.08816326
0.16552167 -0.17201175 0.02522832 0.050767254 0.1026172 0.02941397 0.13630068 0.1719274
0.028725917 -0.022857998 0.14419776 -0.16499707 0.09803696 -0.16675717 -0.08996444 -0.031282242
-0.013522637 0.11033202 0.13876472 0.12458151 0.07040807 -0.02055268 -0.18882695 -0.06300837
0.075986914 0.1875966 -0.06176234 0.14950268 0.04554212 0.062058765 -0.012465131 -0.072871394
0.13626376 0.07295219 -0.087138735 0.1331497 -0.060891706 0.13017894 -0.0035310097 -0.09921325
0.04204831 -0.18828905 0.008546557 0.107468605 0.18680482 -0.18830492 -0.19893569 0.16978109
-0.012889633 -0.11188541 -0.08297769 0.10612947 0.025044063 0.12220603 -0.09408467 0.16117428
0.18703344 -0.0368979 0.0892728 0.008225681 0.19341774 -0.15602137 -0.15471973 -0.21411361
-0.020315312 -0.17801848 0.20600425 -0.07167346 -0.21224858 0.045663007 -0.06538171 -0.09867679
0.105984986 0.079834476 -0.10819768 -0.12782957 -0.20887198 -0.06580691 0.027884511 -0.048025507

conv2.bias f4 [64]
00000000: 3adb e3ba 1a10 1d3b 6856 0cbb 73cd 0cbb
00000010: f092 09bb a3c9 90b9 d20a 9c3a a00a b23a
00000020: 718e 2a3b a7e1 9239 ed21 713a 26c3 29ba
00000030: 13df 103b ff5c f13a a9a5 a73b cde8 4dbb
00000040: 53f1 8eb9 438d af3a 5e79 ad39 cf07 cab9
00000050: a61c 09bb f0cd 09ba 84e9 de3a b5b2 19ba
00000060: 9294 8c3b 84be 553b fbfa c83a 4cc9 3239
00000070: e6a5 243b 146f ba3a 83df 0d3a 4156 d83a
00000080: 4eb0 97ba 75db 573a 5b1b beba bbeb 21bb
00000090: bb0a f4b9 8283 a739 7a29 a7bb 7fe9 273b
000000a0: 4aa7 313b 316c 153b 7595 363a c6fd 32bb
000000b0: a832 bcb9 f818 b438 af35 1f3a cb76 a8ba
000000c0: 0a57 86ba 83cf 0c3b 6394 88ba c017 143b
000000d0: c242 a83b cfa1 523a 3952 0eba 230c ca39
000000e0: 79bf c43a 770e 4bbb 951c 4dbb 79c9 41ba
000000f0: 514a 4d3b 59e3 3c3a 129f fdb9 dc1f afba
-0.001738406 0.0023965896 -0.0021413807 -0.0021484762 -0.0020992123 -0.0002761605 0.001190508 0.0013583489
0.0026024843 0.00028015414 0.0009198476 -0.0006475918 0.002210562 0.0018414556 0.005116184 -0.0031419278
-0.0002726415 0.001339354 0.00033087557 -0.0003853426 -0.0020921617 -0.00052568223 0.0017006849 -0.0005863116
0.004290172 0.0032614777 0.0015333587 0.00017050392 0.0025123297 0.0014223778 0.0005412029 0.0016505198
-0.0011572929 0.0008234301 -0.0014504002 -0.0024707157 -0.00046547301 0.00031950703 -0.00510138 0.0025621352
0.0027107769 0.0022800083 0.000696502 -0.0027311905 -0.00035895896 8.58772e-05 0.0006073368 -0.0012852786
-0.0010249328 0.0021485991 -0.0010420199 0.0022597164 0.0051349113 0.00080349756 -0.0005429122 0.00038537485
0.0015010677 -0.0030983964 -0.0031297554 -0.00073923875 0.0031324814 0.00072055083 -0.00048374437 -0.0013360935

conv3.weight f4 [64, 64]
00000000: 7d2b ce3d 23a8 2cbd 69b4 c0bd b7c9 19bc
00000010: f8c2 fc3c 628b 35be 7fcb 16bd ab99 9c3d
00000020: 9178 08be fe18 b63d ff12 dbbd b788 5fbe
00000030: 0a41 5dbd dd43 acbd 0522 5bbe 66f9 563e
00000040: ac2d b13c 2eec 083e ad0d 1e3e 423d 593e
00000050: 5229 22bc c1fc 14bc 3595 e33c 23ce 8fbd
00000060: c448 853c 1615 3b3d a060 afbc f3b5 14be
00000070: 4caa 04be 82b7 55be 88b1 903d c0ae 40bd
00000080: b2a0 393e da85 213d 1e35 153e 9499 603e
00000090: 7c57 5cbe 0ec6 3bbe f8a5 673c 6488 c8bc
000000a0: 6050 073e ad87 11be c579 2f3e b517 98bd
000000b0: dc39 07be b752 a53c 2ee4 153d 025e dcbd
000000c0: f0c9 5fbc 4229 0abe f064 483c 5da3 ae3b
000000d0: 86d3 373e 46f1 fa3c fc9d 9fbc 6bac 563d
000000e0: 0327 523e 8836 15be 38e0 f73d 4ef5 1dbd
000000f0: 8a1c 52bd 3d53 693d ba6e 2abe fa3d 843c
00000100: 4173 56be 80b5 7bbd 2fe6 473e 1b4e 46be
00000110: ef91 11bc 2fa5 883d 48c0 223e f7a9 213e
00000120: 197d 26be a16a 37be 25cc eebd 175c 443b
00000130: 186e 523e d9cb 2bbe c54b 483e 8fc0 003d
00000140: 9d54 ae3d 09db 123d a5fc 12be c596 e03d
00000150: e4a4 14be 5692 20be b6af 063d be5b 16bd
00000160: 747b 68bd f99e 093e 0c72 02be 6111 b03d
00000170: 7af4 6cbd c97d 78bd 3611 12be 9f12 273e
00000180: 37bf 3b3c e5d5 79bc a9d2 85bc 9237 6c3c
00000190: 2f4d 163e c618 953d 16d0 eb3c 99d8 c43b
000001a0: e04d c8bd 20bc 283d edb0 013c 4ab5 013d
000001b0: 5fab 4cbe 98f0 bebd 4e23 653c 3381 3ebe
000001c0: 1f48 a63c 1bf8 1b3b dc04 25bd 2fe4 d83c
000001d0: 76fe 29be b8ff 53bd 193e a53d 00ee edbd
000001e0: 0d2e 2b3e c66a 7c3c f86f 5abc 1a2c 90bd
000001f0: 68a8 c2bd 5d34 a03d 236e d9bd 74f4 563e
00000200: 7c8b 05be 273f 4fbe 625f f83d ca52 253e
00000210: cd6a 093d b747 10be ccf0 573e e8bb 1fbe
00000220: e056 67bc b22a f2bd 6202 0c3d a378 e13c
00000230: 7348 7f3d d0de 59be e5f0 2bbe d36e 2bbe
00000240: 23f5 14be 62cb a9bd 7b87 ce3d 9fda e9bd
00000250: b6ce 023e 0623 42bd 3c40 66bd 3442 dcbd
00000260: 097f 143e d6e5 30be adb1 c13d f85e 1f3e
00000270: e465 1fbc 101f b13d 7c3a 0e3e 6bfe 7fbd
00000280: 677e 2f3d 65bb 023d c1e5 4b3e 3c4b d33c
00000290: ac10 963d dd88 613e 3b22 2b3e 7da7 16bd
000002a0: 8970 933d d3ef 46be 5e80 593e bb9d 9fbd
000002b0: ce76 3abe 94ee 3a3d ff8c 26be 107b 9abd
000002c0: fbe7 93bd f94e 25be 30d1 2cbe de10 853d
000002d0: cf76 3ebe 7515 2cbe 22ca b5bd efe8 aa3d
000002e0: 39fb 0bbe 1296 9dbd 5e47 2d3e 4013 823d
000002f0: a802 81bd 5724 b13c 3912 cf3d 8651 403e
00000300: 4680 fdbd c6a8 98bd 8ad8 3fbd a30a 02be
00000310: 265c aa3d b8c3 213e 8e5a 0a3e faa7 2bbe
00000320: 3fb2 eebd 2b63 1a3c a965 0b3e 98d5 86bd
00000330: d31b 8e3d b4d4 a93d 4231 4dbe 9cd6 e33d
00000340: 568f 8e3c 159a 2f3e 7773 36be 6450 2fbe
00000350: 5c46 0e3e e9c6 cabd 0cbf 03be 6fee 5bbd
00000360: 0160 2b3d 1406 133e 5360 1c3c 2006 f23c
00000370: 379e 77bd 7351 00be 221a 563e 7b7e 483d
00000380: 85e5 04bd aed5 21bd e944 5ebe 6d13 a5bc
00000390: d96b 973d 51d5 243d de57 04bb 5250 13be
000003a0: 6370 e1bc 5e75 2cbe 95eb 0dbe 37be 33bc
000003b0: 9506 0dbd 581e 863a 5fd2 31be 9f05 12be
000003c0: 97a5 783d ba4c 87bd e54a ef3c 0710 fabd
000003d0: 0273 573e 3166 2d3e b6e1 ffbd 34a8 d43d
000003e0: 49fe 553e 6227 193e d75e f83c d8cc 133d
000003f0: 4848 943c c077 1a3e 6a9f 18bd 9013 7abd
0.100668885 -0.042152535 -0.094094105 -0.0093864715 0.030854687 -0.17728952 -0.036815163 0.07646497
-0.13327242 0.08891486 -0.106969826 -0.21829496 -0.054017104 -0.084113814 -0.21399696 0.20993575
0.021628223 0.13371345 0.15434904 0.21214774 -0.009897547 -0.009093464 0.027781108 -0.07021739
0.016270049 0.045674406 -0.02140838 -0.14522533 -0.12955588 -0.20870784 0.070651114 -0.047041655
0.18127707 0.03943429 0.14571044 0.21933585 -0.21517748 -0.1833727 0.014138691 -0.024479099
0.13214254 -0.14211912 0.17136295 -0.07426397 -0.13205665 0.020181043 0.036594562 -0.10760118
-0.0136589855 -0.13492301 0.012231097 0.005329533 0.17951784 0.030632626 -0.019484513 0.052410524
0.20522694 -0.14571583 0.12103313 -0.03856402 -0.05129675 0.056964148 -0.16643801 0.016142834
-0.20942403 -0.06145239 0.19521402 -0.19365732 -0.008884891 0.06672131 0.15893662 0.15787493
-0.16258658 -0.1791177 -0.11660031 0.0029962116 0.2054981 -0.1677698 0.19560154 0.03143364
0.085122325 0.03585342 -0.14354189 0.10966257 -0.14516026 -0.15680823 0.032882415 -0.036708586
-0.05675836 0.1343955 -0.12738818 0.08597065 -0.05785034 -0.060666833 -0.14264378 0.16315697
0.011459163 -0.01524875 -0.016335802 0.014417546 0.1467788 0.07280116 0.028785747 0.0060072658
-0.097804785 0.041195035 0.007915718 0.03166703 -0.19987248 -0.09323233 0.013985468 -0.18603973
0.020298062 0.0023799005 -0.040287837 0.026475994 -0.16600975 -0.051757544 0.08068485 -0.116176605
0.16716786 0.015406316 -0.0133323595 -0.07039662 -0.09504777 0.078224875 -0.1061671 0.20991689
-0.1304149 -0.20238934 0.12127568 0.16144863 0.03354912 -0.14089857 0.2108795 -0.15599024
-0.014119834 -0.1182455 0.03418196 0.027523344 0.062324952 -0.21276402 -0.16791113 -0.16741495
-0.14546637 -0.08290745 0.100844346 -0.11418652 0.12774166 -0.047396682 -0.056213602 -0.10754815
0.14501585 -0.17275175 0.09457717 0.15563571 -0.009728882 0.08648503 0.13889498 -0.06249849
0.042845156 0.031916995 0.19911863 0.02579271 0.07327399 0.22024865 0.16712277 -0.036780823
0.07199199 -0.19427423 0.21240374 -0.077937566 -0.18209383 0.045637682 -0.16264723 -0.075430036
-0.07221981 -0.16143407 -0.16876674 0.06497358 -0.1860001 -0.1680506 -0.088764444 0.0834521
-0.13670053 -0.07694639 0.16921756 0.06351328 -0.06299335 0.021623774 0.101108976 0.18781099
-0.12377982 -0.07454066 -0.046837367 -0.1269937 0.08318357 0.15797317 0.13511106 -0.16763297
-0.116550915 0.009423058 0.13612999 -0.065837085 0.06938901 0.08292523 -0.20038322 0.11124918
0.017402332 0.17148621 -0.17817484 -0.1712051 0.13894027 -0.0990122 -0.12865847 -0.053694185
0.041839603 0.14357787 0.00954445 0.029543936 -0.06045362 -0.1253107 0.20908406 0.048948746
-0.03244545 -0.03951042 -0.21705975 -0.020150864 0.07393617 0.040242497 -0.0020193974 -0.14386109
-0.02751941 -0.16841647 -0.13859399 -0.010970644 -0.034430105 0.0010232432 -0.17365406 -0.14259957
0.060704794 -0.06606431 0.029210517 -0.12210088 0.21039966 0.16933514 -0.12494223 0.10383645
0.20897783 0.1495643 0.03031866 0.036084026 0.018100873 0.15084743 -0.037261404 -0.061053813

conv3.bias f4 [64]
00000000: 2b6c 25ba ad56 ae3b 8174 18bb 67a2 8b3a
00000010: 8562 473a 4d03 8d3b 8cd1 bc39 8f12 173a
00000020: 3ad9 e13a a4fe cf3a 1482 44bb 3804 1739
00000030: d44a 243b 566b 89ba 7f39 4bbb 1cc7 14ba
00000040: 1402 053b 9e30 e83a e1d1 faba 60d4 633b
00000050: 49af 11ba 5a74 cf39 9592 443a 64d9 b23a
00000060: e5bf 9439 5bab f4ba 9859 3d3a 4d0b a6ba
00000070: ca77 103b fee0 f5ba 49c3 e43a 0cb7 4e3a
00000080: cdb0 f5ba 49fb e3ba 6b66 c33b 5c9a 2c3b
00000090: bc88 e739 11f9 9f38 059a 8aba 7e29 f938
000000a0: 7383 eb3a 5093 48ba 658d 9bba ff88 bdba
000000b0: e941 37ba d65f 6aba 47f2 9a3a 68c6 4638
000000c0: 06d5 d03a e3ae d0ba 5f10 4c3a 379f c43a
000000d0: 0eff a03b 9836 ad39 c7c0 cfba ece8 04bb
000000e0: 074a 943b f447 79b9 4b70 413a c84a 893b
000000f0: 75b8 d53a 3225 3c3a 7941 073b 9940 f4ba
-0.0006310369 0.005320391 -0.00232628 0.0010653258 0.0007605928 0.004303372 0.0003601428 0.00057629583
0.0017230876 0.0015868735 -0.002998476 0.00014402054 0.0025069015 -0.0010484259 -0.0031009612 -0.00056754216
0.0020295428 0.0017714684 -0.0019136035 0.0034764037 -0.00055574306 0.00039568805 0.0007498649 0.001364511
0.00028371732 -0.001866679 0.00072231283 -0.0012668163 0.0022044056 -0.001875907 0.0017453219 0.00078855525
-0.0018744707 -0.0017393614 0.005963137 0.0026337123 0.00044161628 7.628103e-05 -0.0010574466 0.00011880974
0.0017968252 -0.0007651346 -0.00118677 -0.0014460384 -0.00069907174 -0.0008940672 0.0011821472 4.739166e-05
0.0015932627 -0.0015921261 0.0007784422 0.0015001063 0.0049132174 0.00033037807 -0.0015850299 -0.0020280434
0.0045254263 -0.00023773295 0.00073790987 0.004189823 0.0016305583 0.00071771734 0.002063839 -0.0018634974

fc1.weight f4 [128, 192]
00000000: 8a0f 3abd 32ab c5bc 15e9 52bc b6fe 49bd
00000010: 5868 ab3c 5f64 363c 3d8f 6d3d 5e51 063d
00000020: 1146 953d f75d 9a3d 8c81 bf3a 655e 18bc
00000030: 41f2 6dbd b075 6ebd 066f 28bd 85c7 0bbc
00000040: e512 743d 7b4e 653c b394 9abc 3b82 673d
00000050: 352e 783d 0ecf c1bb 846f 2cbd 8e74 71bd
00000060: faec 2ebd 6994 2f3d ea67 f13c 9c18 b53c
00000070: 19c9 7bbd 397d 9d3c 362d 0fbd 04f5 22bc
00000080: 98c6 063d bdac 6a3d 739a 07bd d4dc 03bd
00000090: 29ab 14bd 1e08 49bd 3ead 4ebd 27b8 04bc
000000a0: 9760 ad3c 7f05 16bd 6630 8abc f321 783d
000000b0: 6d8a cc3c 0451 4c3d 8d21 fbbc 7037 1a3d
000000c0: 93c2 063d 769c 03bd c6bf 28bd 0884 65bd
000000d0: 4803 2cbd d83f 1a3d 0f4d 72bd 0596 243d
000000e0: 46af 0a3d ba6c cf3c 3ddd 823d 18ba 8c3d
000000f0: 60d2 273d 45fe 8bbc 4cfd 91bd 20c5 7f3d
00000100: 5a9a 143d 12e7 5dbd d739 713d 5832 9cbc
00000110: e8b9 1d3c 8144 3fbd 1373 9a3d 378e 27bd
00000120: 29cb 49bb 505d 9fbd 570e 023d e2f4 7f3d
00000130: 4385 0c3b 8b4f 1f3d 0dbf 073c 7b81 91bd
00000140: d669 cb3a dc88 293d 39d3 bdbb 47d3 ba3b
00000150: 396b 34bd 5002 833d de0d 96bc d45a 35bd
00000160: 1094 5cbc f349 3bbc 96e4 eebc 7e6a 3c3d
00000170: 5ce1 dd3c 53a4 953b 0d5e 8ebd f91c 8fbc
00000180: 9442 43bd 6532 d8bc 0e46 e0bb e65a e23c
00000190: f9b7 653d ed5f 22bd 54d4 1f3c 845e 8dbc
000001a0: 9020 493d 86fd 60bc bb52 47bd b11b 3fbb
000001b0: ec09 6c3d a4d1 793d 3908 ebbc 50e3 3dbd
000001c0: 3809 2bbc 11e2 283d 6005 b33c 0c90 99bb
000001d0: 0622 653d f2f3 f8b9 3219 86bd c7f3 823d
000001e0: f788 723d 6c08 6939 9ed0 363d caa1 593d
000001f0: 4854 88bc 7772 17bc 596c a3bc 3183 303d
00000200: 5da6 c9bc cdfe 88bd 154f cfbc 9aeb 693c
00000210: e027 f9ba f7a8 84bd 072d 79bd 7403 37bd
00000220: a082 78bd c8db 2ebd edcb 0f3c a796 88bd
00000230: 76c5 243c 68d3 8c3c 6c46 843d 48ce 6fbd
00000240: 6019 58bd 73ca 72bb f5d5 853c 9ada ae3c
00000250: a0f2 0e3d 2f7f 723d 435e 3bbd 8e74 bbbb
00000260: 626a ebbc 96df 3bbd 1154 dabc cc33 4ebd
00000270: 6952 29bd 25ed 563d 537d 67bd 341c fbbb
00000280: b94c 173d 4917 26bd ac1d 053d 065d 843d
00000290: 2e7a 543d dd75 82bd e3fd 81bc 305f 533d
000002a0: 6665 a8bc 54a3 3ebd 7bd0 ca3c 1b83 703d
000002b0: 46bf 823d 6ebc 4bbb 13ec ebbb 52cd 4dbd
000002c0: 9439 0ebb c4af 8b3d 75c0 fabc 0717 c83c
000002d0: 70c1 f6bc 5d0c 82bd adfb 0b3d 9342 17bd
000002e0: 26dc a43c 9666 80bd da58 36bd 4700 43bd
000002f0: 8da5 cb3b 2432 60bd b806 76bd 59f7 82bd
00000300: 8af8 ebbb 90ba a7bc 7337 79bd 99cf be3c
00000310: 0f58 673d e5d2 cb3c a3a8 1dbd be02 1f3d
00000320: feeb 463d 777e 7d3d bf3e 7abd 136e 3cbd
00000330: c792 79bd 0e95 dabc 0091 25bd 8a25 febc
00000340: 66af 263c 45bb 533d 6bef ca3c ea5a 833d
00000350: 5236 1f3d 9328 363d 7e49 a3bc 239e f13c
00000360: fd69 03bd 130e 653d f622 67bd 9abf 593d
00000370: 671b 3c3d fe14 8abb e8d9 b23c 0059 4538
00000380: 9b11 d7bb 2d5f 743d 0f0c 333c 2864 ed3c
00000390: 0d9a 07bd 29d7 843c e018 533d b72f 38bd
000003a0: 38f5 8cbd b0cf 7c3d aa95 36bd 7536 833c
000003b0: 41a4 103d b7fe c2bc a7c7 b3bc 5755 d3bc
000003c0: 0628 783c 0452 d63c b95c 25bd e378 323c
000003d0: 2a81 543d a1db e53c 76da 6abd f16d 44bc
000003e0: 8c96 06bd d126 71bd d738 173d e7e5 693d
000003f0: af99 38bd 3632 9dbc b303 a1bc 8180 5b3d
-0.045424975 -0.024129484 -0.012872954 -0.049315177 0.020923778 0.011132329 0.05799793 0.03279244
0.07288755 0.075374536 0.0014610752 -0.009299849 -0.05809236 -0.058217704 -0.041121505 -0.008531456
0.05958833 0.013995762 -0.018869733 0.05652068 0.06059094 -0.0059145754 -0.042098537 -0.058949046
-0.042706467 0.042866144 0.029468495 0.022106461 -0.06147108 0.01922475 -0.034955226 -0.009946112
0.032904238 0.057293642 -0.03310628 -0.03219302 -0.036296044 -0.049080007 -0.050458185 -0.008100546
0.021164222 -0.036626335 -0.016868781 0.06057925 0.02496835 0.04988195 -0.030655647 0.037650526
0.032900404 -0.032131635 -0.041198514 -0.056034118 -0.041995317 0.037658542 -0.05915552 0.040182132
0.03385856 0.0253204 0.06389854 0.06871432 0.040972114 -0.017089019 -0.07128391 0.062443852
0.036280014 -0.054175444 0.05889305 -0.019066975 0.009626843 -0.04669619 0.0754148 -0.04090711
-0.003079126 -0.0778147 0.031751957 0.062489398 0.0021441735 0.038894217 0.008285296 -0.071047746
0.0015519212 0.041390285 -0.005793002 0.0057014558 -0.044047568 0.063969254 -0.01831716 -0.044276074
-0.013463035 -0.011431205 -0.029161733 0.045999996 0.027084999 0.004566708 -0.069515325 -0.01746987
-0.047670916 -0.026391217 -0.0068442887 0.027631234 0.056083653 -0.039642263 0.009755213 -0.017256983
0.04910332 -0.01373232 -0.048662882 -0.0029160792 0.05762665 0.060990945 -0.028690444 -0.04635936
-0.01043921 0.04123122 0.021853149 -0.004686361 0.05594065 -0.00047484 -0.065477744 0.06394153
0.05921265 0.00022223749 0.044632547 0.05313281 -0.016641751 -0.009243599 -0.019949125 0.043093864
-0.024615461 -0.066892244 -0.025306264 0.014277363 -0.0019009076 -0.0647754 -0.060833957 -0.044681028
-0.06067145 -0.04269007 0.008776647 -0.0666936 0.010056844 0.01719065 0.064587444 -0.058546335
-0.052758574 -0.0037046939 0.016337374 0.021344472 0.034899354 0.059203323 -0.04574419 -0.0057206815
-0.02873725 -0.045867525 -0.026651414 -0.050342366 -0.041338358 0.052472252 -0.056516003 -0.007663274
0.036938403 -0.04054955 0.032499 0.06463055 0.051874332 -0.06370137 -0.015868133 0.05160445
-0.020556163 -0.04654248 0.024757614 0.058718782 0.06384139 -0.0031087655 -0.007199773 -0.050244637
-0.00217018 0.06820634 -0.030609349 0.024425043 -0.030121535 -0.06350014 0.034175564 -0.036928724
0.020124506 -0.06269567 -0.04451833 -0.047607686 0.0062148036 -0.054735318 -0.060065 -0.06394834
-0.007201259 -0.020474702 -0.060843896 0.02329235 0.056480464 0.024880836 -0.038490903 0.038820975
0.048564903 0.061888184 -0.061094996 -0.046003412 -0.060930993 -0.026682403 -0.040421486 -0.03102376
0.010173654 0.051692266 0.024772367 0.06413825 0.038870163 0.04447229 -0.019932505 0.02949435
-0.0320835 0.055921625 -0.056429826 0.05316124 0.04592457 -0.0042139282 0.021832421 4.7051348e-05
-0.006563378 0.05966108 0.010928168 0.028978422 -0.0331059 0.016215878 0.051537395 -0.04496738
-0.06882709 0.061721504 -0.044576325 0.016017178 0.035312895 -0.023803098 -0.021945788 -0.02579753
0.015146261 0.026162155 -0.04037163 0.010893079 0.051880993 0.028058829 -0.057337247 -0.011989103
-0.032858416 -0.05887491 0.03691944 0.057104018 -0.04506844 -0.019188982 -0.019655084 0.053589348

fc1.bias f4 [128]
00000000: 448d 8b3d d3b6 a03c c2da c33b 8478 f6bb
00000010: b892 143d 6647 103d db5e f0bc 6173 dcbc
00000020: 1ede ac3b 9232 b1bb 20b4 52bd 7d0f b13c
00000030: 1422 a43c e8e8 7abc 9642 05bd dc7c 6a3d
00000040: 5382 23bd 52a7 13bd 4cf8 e33c 0be6 8b3d
00000050: 6b07 48bd 785b 1c3c e4d9 f3bc 2000 3bbd
00000060: c4ff 013d 61d6 1ebd 4f63 893c 754e 8c3c
00000070: c51a 563d b414 8d3d e06f 8fbd 6d66 773d
00000080: 2a2f d4ba f64b 7ebd c269 3fbd 9ba0 9fbc
00000090: c529 60bd 23a6 36bd 526c 083d 45ed 08bc
000000a0: 35d8 8bbd 2d2c 953c 7fc2 5f3b 14d7 743c
000000b0: f678 7ebc da66 62bd a155 8a3d fc6a 15bc
000000c0: ba47 433c eff7 5e3d 16ca c6bc 7780 79bd
000000d0: e788 b4bc 0962 a43c 52da 193d 8b08 383d
000000e0: 8c7d 12bd dc87 35bd 74c7 8cbd 0b3f 773d
000000f0: 021f 06bd e698 4e3d fdc7 483d f68d 873d
00000100: 3c15 e9bc c55b 513d ad94 d1bc 0e96 aebc
00000110: 066e 9fbc a2d8 06bd a38a 8e3d e81f 90bd
00000120: 724d 263d 554c 2d39 5157 6b3d 37b3 2a3c
00000130: 9172 673c b6ed 91bd fc70 4e3d 0f66 15bd
00000140: b005 bc3b 5044 8dbd 5d09 cebb 8b7b b23a
00000150: 81bc a4bc f6f3 8b3d 05c1 92bd ba35 27bd
00000160: f104 e6bc db6a 38bc 9684 4f3d a358 8abd
00000170: 83d2 84bd 5408 0e3c a606 8c3d 0a37 323d
00000180: 47ae c63c bf89 00bb 00ff 793c d62c 5a3d
00000190: 3c0f 44bd 494a 643d 2fcd b73b cdee 49bd
000001a0: f9b6 053d eed1 793d fb7f 91bd c71f 8d3d
000001b0: d692 c2bc 8ec9 4c3d 1387 5fbd 0927 323d
000001c0: 1f9e e43c f085 bd3c 79a0 06bd f2bd 40bb
000001d0: b09c 7d3d 04d9 cabc 2085 c1bc ed84 523d
000001e0: b260 fb3c d3f6 cdb9 5208 58bd 9148 283d
000001f0: 8517 62bd 9c4f 973c 4f14 273d bf33 06bd
0.06814054 0.019618427 0.0059770057 -0.007521691 0.036272734 0.03522434 -0.029342106 -0.026910486
0.005275502 -0.00540764 -0.05144131 0.02161383 0.020035781 -0.015314318 -0.032534204 0.05724798
-0.03991921 -0.03604824 0.027828358 0.068309866 -0.0488352 0.009543292 -0.029766984 -0.045654416
0.031738058 -0.038778666 0.016770987 0.017127255 0.052271623 0.068887144 -0.0700376 0.060400415
-0.0016188372 -0.06208416 -0.046731718 -0.019485762 -0.054727335 -0.044592034 0.033306427 -0.008357351
-0.068283476 0.018209541 0.0034143028 0.014943857 -0.015531769 -0.05527387 0.06754614 -0.009119745
0.011918956 0.054435667 -0.024266284 -0.06091353 -0.022037936 0.020066278 0.037561722 0.044930022
-0.035764262 -0.04431902 -0.0687398 0.060362857 -0.032744415 0.050438784 0.04901885 0.06618874
-0.028452508 0.05111291 -0.02558359 -0.021311786 -0.019461643 -0.03292144 0.069600366 -0.07037336
0.0406012 0.00016527002 0.05745632 0.010418705 0.014126436 -0.07125418 0.05040072 -0.036474284
0.0057379827 -0.06897795 -0.0062877373 0.0013617141 -0.020109417 0.06833641 -0.07165722 -0.040822722
-0.028078528 -0.011255945 0.050663553 -0.06755187 -0.064854644 0.008668978 0.068372056 0.04350952
0.024253024 -0.0019613353 0.015258551 0.053265415 -0.04786609 0.055734906 0.0056091766 -0.049300004
0.0326452 0.06099122 -0.071044885 0.06890827 -0.023751657 0.049996905 -0.054572176 0.043494258
0.02790743 0.023135155 -0.032867882 -0.0029410091 0.061917007 -0.024761684 -0.02362305 0.0513963
0.030685756 -0.00039284545 -0.05274231 0.04108483 -0.05519821 0.018470578 0.040790852 -0.032764193

fc2.weight f4 [64, 128]
00000000: ce58 2abb 66d4 a93c 1d9c 75bd 567a 763d
00000010: 347b 963d 723c 3d3a 6b08 a73d b19f dfba
00000020: 8eed 29bd cab4 873d 7da3 723d ca94 b4bb
00000030: ab94 58bd be1c 843d c876 60bd 9a21 8d3d
00000040: 3223 0fbd cffc 03bd 658f a9bd 3d51 623d
00000050: f9c5 2b3d ebe5 863d 2735 56bd e24a fdbc
00000060: 0d67 a9bc 7199 88bc 6543 733d 1f73 eebc
00000070: 0e39 df3c 0faf 7fbd efc1 973d 96d2 31bc
00000080: 4734 82bd 0c96 65bd b955 333d 5c63 b13c
00000090: 2948 423c f8b2 97bd fa19 823c 267b b9bd
000000a0: b5dc 0c3d 5c7d a33c 9366 813d 1fee 8fbd
000000b0: 8732 80bd e915 963d 7c15 b2bd 86c2 913c
000000c0: 6bd3 1eba fece 53bd 0cbc 9dbb 4044 6d3d
000000d0: 0b56 8cbd e374 fc3c 310c 6ebd dc4b 23ba
000000e0: 8379 bc3d 1980 b3bb 601b 8ebd 6a02 0fbd
000000f0: bd50 983d 395b 183d 9355 a3bd ab87 3cbd
00000100: 9135 3f3d 28be 0ebc 2dd3 83bd 5f68 903d
00000110: fed9 513d eb46 88bc b616 8cbd 90e3 523c
00000120: 26de 273d 7a4b 5dbd 1bdf 18bd 0d02 bfbd
00000130: 5e9d 2bbd f8c6 17bd 470c bb3d 75aa 693d
00000140: 3033 13bd 1707 f13c d542 4abd 81ef b7bd
00000150: 07c3 b0bd 7f98 3abc d061 943c c194 1bbd
00000160: e013 893d 9040 97bd e5d3 953d 67d0 43bc
00000170: a404 843d 20bf a7bc 81d2 45bd f052 7bbd
00000180: 7bbb 2f3d 608c 533d 7804 d2bc 6710 72bb
00000190: f5a0 81bd d9ff 3fbd 78e1 fbbc 57dd 2fbd
000001a0: 6c40 45bd 7598 2cbd e537 813d 972d d23b
000001b0: b333 0cbd 6b43 afbb 8fc5 793d 8f7e 8f3d
000001c0: d8d4 6b3d 333b 093d 20bf 35bc 497b a2bd
000001d0: 55ab 843d 30cf a03d cdc1 113d 3a33 303c
000001e0: 2d44 5f3d a421 4fbc f944 aabd 9dd2 a13c
000001f0: 73f1 ab3d 0c00 dd3c cb12 813d 553d a6bc
00000200: e716 a8bd 2d04 bebc 071f 85bd 2f15 c73b
00000210: 742b a9bc ae6c 6c3d 182c afbd 9a79 7dbd
00000220: 4078 933d 77f9 85bd 6ef7 fe3c d425 a0bd
00000230: ca19 b0bc 6f7d bbbc b38a 8dbc fa2c aabc
00000240: 6b3f ca39 9093 883c dd32 9fbd 58e4 3d3b
00000250: 0bb7 29bd 72b9 433d 0af5 a0bc 9165 afbd
00000260: a02c 8fbd 11c2 473d 736b 1b3c 5039 35bd
00000270: 8374 a0bd fd05 96bd 7059 d93c 6c23 873d
00000280: 120b a43c 0b48 8bbc 76a8 4fbd 9483 f93c
00000290: 504e 373c f65f 153d 2d3b 9c3b 57c6 e33c
000002a0: e7f3 133d 8dae c7bc 934b 9f3c d91f e83c
000002b0: 490b 7c3c 98c0 d93c 2c44 46bd 531f 9cbd
000002c0: 6851 b0bd 210f 9d3d 4cd1 b8bd 81ce b43d
000002d0: 87be 793d f216 70bd f494 19bd 0681 23bb
000002e0: 73c9 32bd c9d5 86bb 9485 19bc 3574 2bbd
000002f0: a955 8539 f52e 863d 5e98 8abd a284 a53d
00000300: 8e9f fdbc b42e a13d 2a6d 93bd 3568 20bd
00000310: 237e d23c bbd1 933d ac27 2cbd b00d edbb
00000320: 8d4d 26bc 030b 893c 7ce1 f4bc bf7e 8e3d
00000330: 2e9f d6bb f70a 43bd 5cf5 1d3c 027b 983d
00000340: 3028 0b3d bd5a f33c 2846 8ebd 60cf 0ebb
00000350: ec0a c83c 6ec4 40bd a24b 4b3d ac9a 35bb
00000360: 20d3 6fbd ebea 8f3d 995b 0c3d 3a08 0bbd
00000370: df37 a6bd 2fd0 883d a158 a03d 298c a53c
00000380: d8bb f73c 51e4 933d 200b 0b3c 6f8d 863c
00000390: cdfe 6cbd 4c0a 903b d9cc 79bd 6f68 5a3d
000003a0: 4962 28bd 1a4e 8fbd b032 a5bc f532 d3bc
000003b0: 3d43 d13c a8f0 5bbd d900 5d3d ffc3 473d
000003c0: d9a5 373c e8e3 af3d 88f3 613b 5f79 ac3d
000003d0: eaba 933d f983 a2bd 5ac1 abbd 0d06 a63d
000003e0: 482b b8bb 416b 01bb c6df 60bd 94bb 7c3d
000003f0: 6d5e 87bb fc25 93bc 2227 25bd 99a3 abbd
-0.0025992873 0.020731162 -0.059963334 0.060175262 0.07347718 0.0007218785 0.081559025 -0.0017061142
-0.041486315 0.0662628 0.059237946 -0.005510901 -0.052876156 0.06450795 -0.05480078 0.068911746
-0.034945674 -0.03222352 -0.082793035 0.055253256 0.04193685 0.06586822 -0.052296784 -0.030919496
-0.020679021 -0.016674729 0.059390444 -0.029107628 0.027248885 -0.06242281 0.07410037 -0.01085343
-0.06357627 -0.0560513 0.043782923 0.021653824 0.011858025 -0.074071825 0.015881527 -0.09056692
0.03439017 0.019957237 0.063183926 -0.0702784 -0.06259637 0.07328398 -0.08695504 0.017792951
-0.00060587254 -0.051711075 -0.0048136767 0.057926416 -0.06852349 0.030817455 -0.058117095 -0.00062292605
0.09202864 -0.005477917 -0.06938815 -0.03491441 0.074372746 0.03719637 -0.07975306 -0.04602782
0.046681944 -0.008712329 -0.06436763 0.07051157 0.051233284 -0.016635379 -0.06840269 0.012871638
0.04098334 -0.05402706 -0.037322145 -0.09326563 -0.041898124 -0.037054986 0.09133201 0.057047326
-0.035937488 0.029422326 -0.049380142 -0.089812286 -0.086309485 -0.011388897 0.018113047 -0.03798366
0.06693244 -0.07385361 0.07315806 -0.011951542 0.06446198 -0.020476878 -0.048296455 -0.061358392
0.042903405 0.051647544 -0.025636896 -0.0036936046 -0.06329528 -0.046874855 -0.03074716 -0.042935695
-0.04815714 -0.04213758 0.06309489 0.006414126 -0.03422899 -0.005348613 0.060979422 0.07006561
0.05757603 0.033503722 -0.011092931 -0.07933671 0.064779915 0.07852018 0.035585213 0.010754401
0.054508377 -0.012642298 -0.08313937 0.019753749 0.08395662 0.026977561 0.063024126 -0.020292917
-0.08207493 -0.02319535 -0.065000586 0.0060755233 -0.020650603 0.057720833 -0.08553332 -0.061883546
0.0720067 -0.06541722 0.031123843 -0.07819715 -0.021496672 -0.02288696 -0.017278051 -0.0207734
0.00038575692 0.016671926 -0.07773373 0.0028975215 -0.04143433 0.047784276 -0.019648094 -0.08564294
-0.069909334 0.04876906 0.009486067 -0.04424411 -0.07834723 -0.07325361 0.026531905 0.06598553
0.02002481 -0.017002126 -0.050697766 0.03045825 0.011188105 0.03646847 0.0047677965 0.027804537
0.036121275 -0.024375224 0.019445216 0.028335499 0.01538355 0.026581094 -0.048404858 -0.07623162
-0.08609277 0.07668901 -0.09024295 0.0882845 0.060972717 -0.058615632 -0.03749557 -0.002494873
-0.04364915 -0.0041148406 -0.009370226 -0.04185887 0.0002543156 0.06551925 -0.06767343 0.08081938
-0.03095987 0.07870236 -0.07198556 -0.03916188 0.025694912 0.07217737 -0.04203002 -0.0072342977
-0.0101503255 0.016728884 -0.029892676 0.06957769 -0.0065497374 -0.04761788 0.009641018 0.07445337
0.033973873 0.029706353 -0.06946975 -0.0021791086 0.02441927 -0.04706233 0.049632676 -0.00277106
-0.058550954 0.07027229 0.03426704 -0.033943392 -0.08116125 0.06680333 0.078294046 0.020208435
0.030240938 0.07221282 0.008486539 0.016424863 -0.057860184 0.0043957587 -0.060986374 0.053322252
-0.041109357 -0.069973186 -0.020165771 -0.025781134 0.025544757 -0.053696305 0.053955887 0.0487709
0.011208975 0.085883915 0.0034477431 0.08421587 0.072133854 -0.07935328 -0.08386488 0.08106623
-0.005620394 -0.0019747766 -0.054900907 0.061702326 -0.0041311295 -0.017962448 -0.040320523 -0.08380813

fc2.bias f4 [64]
00000000: ebfe 8c3d b155 4d3d 3c26 763d 9373 1f3d
00000010: 78ad 74bd 4303 12bc 574e 603d 84a8 2d3d
00000020: 3483 e03c 007e c1b9 aecd 4cbd f186 8ebd
00000030: 59f2 b93c 5537 4f3d 9273 0d3d a238 04bd
00000040: 5392 95bd b656 873d 6e64 533d 9c43 393d
00000050: fc15 0cbd d977 55bc 6035 1b3b 1ab7 363d
00000060: ea9b 973d 1fcb bd3c f470 9dbd 6312 253d
00000070: b067 923c 0ea1 0ebd 3a3c a83a bf0b 593d
00000080: 09ee 8f3d 3dcc b83d 78e5 b43d 5435 1ebb
00000090: b2b8 a13d a7f4 27bd f77d c3bc ef68 0a3d
000000a0: f152 91bd cf87 e03b b044 33bc 971b 9c3c
000000b0: 9382 b93d 8d21 33bc 00e3 8f39 701a a23d
000000c0: e153 913c eeb3 f53c 635f 8fbc 26bd 213d
000000d0: 6c9d 02bd b82f b63d 9be0 b13b 4163 333a
000000e0: 482e 873d 26f7 a23c 7cdd a8bc 5659 a33d
000000f0: f9d5 023c 54b8 8abd 3863 80bc 06b2 96bd
0.06884559 0.05013055 0.060095057 0.03892858 -0.059735745 -0.0089119105 0.05476221 0.042397037
0.027406313 -0.00036905706 -0.05000084 -0.06959332 0.022698568 0.050589878 0.034534045 -0.03228057
-0.073033 0.06608336 0.05160945 0.045230493 -0.034200653 -0.013029062 0.0023682937 0.044608213
0.07402785 0.023168145 -0.0768756 0.040300738 0.017871708 -0.034821562 0.0012835332 0.052989718
0.070278235 0.0902333 0.0883283 -0.0024140673 0.07896556 -0.041004803 -0.023863776 0.03379148
-0.07095898 0.006852127 -0.010941669 0.019056125 0.09058108 -0.010933292 0.00027444214 0.07915199
0.017740192 0.029993024 -0.017501539 0.039487027 -0.03188841 0.088958204 0.0054283864 0.0006843098
0.06600624 0.01989324 -0.020613424 0.07976024 0.007985585 -0.06773439 -0.015672311 -0.07358174

fc3.weight f4 [2, 64]
00000000: feed f93d cd09 0fbc c88f a8ba 0c74 903d
00000010: 75da 13bc e35d febc 6838 eabd 8536 c33d
00000020: 9f35 c8bd 309d 37bc f73b 44bd 1af6 d6bd
00000030: b46d 323d 6736 c0bd 3fd6 8d3c b46d b83d
00000040: bc16 7e3d a727 633d 1811 e8bd f574 083d
00000050: afe4 e6bd 342e 6a3d 58de b4bd a6bf 1b3d
00000060: 1f06 e03d 8b98 093e a390 cd3d b22e 553d
00000070: 92e7 c0bd 2acf f03d 04f5 d23d 45f9 1bbd
00000080: e44c 533c fae5 f53d bbc1 183d c7f5 f5bd
00000090: 3df9 5ebc 52d9 f23d fcb2 003e 10e9 b7bd
000000a0: 66cf dfbd 7ede d9bd 4e8a a93d 1e3c 43bd
000000b0: 5974 7f3d c0dc 943c 7e14 77bc 243a 8fbd
000000c0: cd5e b73d e800 4e3d 9566 8fbd 3aa6 ef3d
000000d0: cca2 e8bd 8bc6 0bbd 5267 c6bd 2db7 bb3d
000000e0: 4090 ddbd c0ca 0dbc b375 dbbd bfa5 8c3d
000000f0: a2f7 c83d eec2 c5bd 76bb 59bd 9852 69bd
00000100: 360a 183c ee51 e63d 0792 883d 203e cc3d
00000110: d76b db3c 0967 da3d 9f6d 78bd e201 5f3d
00000120: 3d8b febb e03f 553d 2ad7 ed3c 100b 58bc
00000130: 6c06 943b 02b0 513d 7c98 a83d 48ff 1d3d
00000140: c7eb 97bd 6b1a 08bd bd70 0fbd 54cd 64bd
00000150: 59e5 b5bd 4e8d 0fbd cc09 583d a0df 00be
00000160: 8ad1 60bd f5dd 84bc 6507 c9bd 7f1d 32bd
00000170: 5a28 29bd 9e8f a93c 868e b93d 571a 54bd
00000180: 290c 453d 12f9 ddbd 1987 c9bd 08f0 9bbc
00000190: 3447 52bd ce00 bd3d e2a5 d73d 08b1 9c3d
000001a0: b23b 4d3d fdc8 293d 1875 42bd 728b fe3d
000001b0: 2d1f 15bd 8828 7f3b 8963 833d 77ee 11bc
000001c0: e36c f2bd c023 45bd aeda 093e 425e 69bd
000001d0: 10be 153c 38b3 613d f05a 2dbd 8cc5 83bc
000001e0: 6e4f a13d e12b febd c786 b2bc 251b af3d
000001f0: aeb2 5a3d f0af 80bd 7202 753d 26a9 853d
0.122035965 -0.008730364 -0.0012860233 0.07053384 -0.009024252 -0.031050628 -0.1143654 0.09531883
-0.097758524 -0.01120691 -0.04790875 -0.10496159 0.043561652 -0.093853764 0.017314075 0.09005299
0.0620334 0.055457737 -0.113313854 0.033314664 -0.11274087 0.05717297 -0.08831471 0.038024567
0.109386675 0.13437097 0.10037353 0.052046485 -0.094191685 0.117582634 0.10300639 -0.03807952
0.01289675 0.12006755 0.03729413 -0.12009769 -0.013609228 0.11857857 0.12568277 -0.0898
-0.1092823 -0.1063814 0.08278333 -0.047664754 0.062366817 0.018171668 -0.015080569 -0.06993511
0.08953629 0.050293833 -0.07001988 0.11701627 -0.11359176 -0.034124892 -0.096876755 0.091657974
-0.10818529 -0.008654296 -0.10715809 0.06867551 0.09812857 -0.096563205 -0.053157292 -0.056963533
0.009279778 0.112460956 0.066684775 0.09972787 0.02678482 0.10664184 -0.060651418 0.054445155
-0.0077680633 0.05206287 0.029033262 -0.013186231 0.004517367 0.051193245 0.08232209 0.038573533
-0.07418018 -0.03322832 -0.035019625 -0.05585988 -0.08881635 -0.035046868 0.052743718 -0.12585306
-0.054887332 -0.016219119 -0.098158635 -0.04348516 -0.041298248 0.020698365 0.09060387 -0.051782932
0.0481073 -0.10838522 -0.09840221 -0.019035354 -0.051337436 0.09228669 0.105296865 0.076509535
0.050105758 0.041451443 -0.04747495 0.12428941 -0.036406685 0.003893407 0.06415469 -0.008906952
-0.11837175 -0.048129797 0.13462326 -0.056974657 0.009139553 0.055102557 -0.042323053 -0.016085409
0.07876478 -0.12410713 -0.021792782 0.08550099 0.05339306 -0.062835574 0.059816785 0.06526403

fc3.bias f4 [2]
00000000: 9044 c3bd 0c58 403d
-0.09534562 0.046958968
