model_to_load/mod64_save1.pt (torch_old, 172265 bytes, 12 tensors)

conv1.weight f4 [18, 64]
-0.011354286 -0.24565333 0.06424203 0.09932494 0.18446067 0.14756472 0.25514764 -0.23860481
-0.09607781 -0.1058442 0.250574 0.12254783 -0.23623283 -0.26381382 -0.13358164 0.1842262
-0.22468174 0.025648033 0.25970584 0.23432222 0.116583906 -0.1458831 -0.19871789 0.0061622914
-0.07787779 -0.029217146 0.12573743 -0.058972713 -0.22372335 0.15216944 0.25469434 0.25108042
-0.2705521 -0.011914995 0.2488628 -0.004464794 0.24087879 -0.009442554 -0.20056345 0.034249436
-0.032183055 0.07662771 -0.16603673 -0.21741205 0.13957395 -0.1309075 -0.06714781 0.16229108
0.17858489 0.10101609 0.20068276 0.13979135 -0.13612568 -0.07207195 0.1041118 -0.18801585
0.15602049 -0.16315556 -0.090704 0.23335825 -0.09980119 -0.101344235 -0.10802892 -0.17737865
0.2284814 -0.14066778 0.25413814 0.19740792 -0.23756345 0.18023868 -0.047667418 0.19844986
0.2197474 0.16603102 0.26497465 0.22827974 0.1904085 0.054561052 -0.005934018 -0.012004573
0.16147223 -0.187322 -0.12583193 0.089424446 0.2183299 0.13272475 -0.21713348 0.16259532
-0.05985751 -0.20806867 0.17013866 -0.23748538 -0.11208586 -0.22351207 -0.042028308 0.13480826
0.113304816 0.22118114 0.26238874 0.06284597 0.14685643 0.15618654 -0.08954312 0.04987405
0.20456797 -0.11574755 -0.0062001487 -0.039814435 -0.24297594 -0.14004761 0.1232079 0.08414449
0.20979178 0.15857299 0.099038355 0.2371295 -0.22920057 -0.074333705 0.05135521 0.2194666
0.030396707 0.14099297 -0.24688755 -0.10295372 -0.14952229 -0.10870819 0.14057031 0.052451335
-0.17164564 0.24848114 -0.16728109 -0.17987862 -0.23213424 0.11937015 0.26583362 0.17823583
-0.18526773 0.115936376 0.20530678 0.10132005 0.10025357 0.26645115 0.1829907 0.12510179
0.09971663 0.23949827 -0.0473805 0.1573297 0.08812204 0.17658862 0.25466692 0.20537205
0.06926886 0.12512156 0.0796828 -0.22886065 -0.0155536495 -0.10306542 -0.25727016 0.15457691
-0.068515 -0.07682274 0.19969358 0.15501708 -0.033367816 0.08309082 0.025383174 -0.11235198
-0.120626114 0.102377385 0.009499019 0.06664837 0.14188321 -0.2389866 0.21916874 -0.21058282
0.0375669 -0.036836974 -0.0407848 0.2550405 -0.012614951 0.055864427 -0.20747529 0.1320868
0.10083624 -0.0760921 0.10033683 0.10526425 0.21205132 0.044054113 -0.22276862 0.11041875
0.13665777 0.24364835 0.24693309 0.18189004 0.1823006 0.19150834 0.060355578 -0.044816844
-0.009278675 -0.050276704 -0.01657146 0.20851684 -0.14129964 -0.060567215 0.025160275 0.061438486
0.26825738 -0.047306385 -0.25025326 -0.016227074 -0.013868575 0.03633832 -0.16979755 -0.09658568
0.03394031 0.070373155 -0.14662784 -0.0015884255 0.055255327 0.06609279 -0.008558802 0.14300926
-0.23922761 0.11178312 -0.059255898 0.14732923 0.22294095 0.17364764 -0.21913369 -0.123941354
-0.25657266 -0.08232054 -0.23837376 0.2483698 -0.119554855 0.07425383 -0.122266546 0.26538366
0.12602341 -0.16115077 0.17829095 0.21004827 0.1461788 -0.019607646 0.06299947 -0.045856416
-0.054985486 0.026445918 0.21948503 -0.20248836 0.26002374 -0.26821676 0.094783984 0.03163299
00000000: 5407 3abc 8c8c 7bbe 5391 833d e06a cb3d
00000010: 42e3 3c3e 351b 173e b6a2 823e d254 74be
00000020: 71c4 c4bd d8c4 d8bd 3c4b 803e 5bfa fa3d
00000030: 05e7 71be 9b12 87be a0c9 08be cba5 3c3e
00000040: f812 66be d31b d23c 2af8 843e 2af2 6f3e
00000050: 8bc3 ee3d 6162 15be b47c 4bbe 0ced c93b
00000060: 647e 9fbd cc58 efbc 50c1 003e 5f8d 71bd
00000070: bc17 65be 4ed2 1b3e 4c67 823e 9d8d 803e
00000080: ce85 8abe 1c37 43bc e4d5 7e3e 684d 92bb
00000090: eea8 763e f1b4 1abc 8160 4dbe 2349 0c3d
000000a0: 61d2 03bd fdee 9c3d 8805 2abe 44a1 5ebe
000000b0: 79ec 0e3e 9e0c 06be ca84 89bd a22f 263e
000000c0: f5de 363e 86e1 ce3d c87f 4d3e 7725 0f3e
000000d0: 8864 0bbe 759a 93bd 9138 d53d 3a87 40be
000000e0: d6c3 1f3e 4012 27be 05c3 b9bd 77f5 6e3e
000000f0: 9164 ccbd 918d cfbd 443e ddbd c0a2 35be
00000100: 07f7 693e 370b 10be 651e 823e 4d25 4a3e
00000110: d543 73be 7d90 383e e93e 43bd 7136 4b3e
00000120: 7605 613e 0904 2a3e c2aa 873e 2ac2 693e
00000130: 72fa 423e 697b 5f3d 2772 c2bb d4ae 44bc
00000140: fa58 253e 57d1 3fbe 16da 00be 2a24 b73d
00000150: e091 5f3e ffe8 073e 3d58 5ebe 637f 263e
00000160: 262d 75bd f40f 55be d438 2e3e 5e2f 73be
00000170: 458d e5bd 59e0 64be e025 2cbd 2d0b 0a3e
00000180: 5b0c e83d 4f7d 623e d157 863e 63b5 803d
00000190: 8861 163e 5def 1f3e 6262 b7bd bb48 4c3d
000001a0: 447a 513e 0d0d edbd 9e2a cbbb 7614 23bd
000001b0: afce 78be a468 0fbe 6c54 fc3d f253 ac3d
000001c0: a8d3 563e f560 223e 9fd4 ca3d 13d2 723e
000001d0: 8eb3 6abe 453c 98bd d759 523d dabb 603e
000001e0: 8402 f93c 7660 103e 17d0 7cbe 66d9 d2bd
000001f0: 5f1c 19be 66a2 debd aaf1 0f3e 36d7 563d
00000200: e0c3 2fbe d771 7e3e bc4b 2bbe 1a32 38be
00000210: 99b4 6dbe 5678 f43d 581b 883e 7483 363e
00000220: d3b6 3dbe 0d70 ed3d f13b 523e e380 cf3d
00000230: be51 cd3d 496c 883e ea61 3b3e af1a 003e
00000240: 3c38 cc3d 093f 753e 0e12 42bd 091b 213e
00000250: 5479 b43d a6d3 343e b463 823e 0d4d 523e
00000260: d5dc 8d3d de1f 003e bc30 a33d 725a 6abe
00000270: bcd4 7ebc f713 d3bd eab8 83be 6949 1e3e
00000280: 9851 8cbd 3e55 9dbd 797c 4c3e ccbc 1e3e
00000290: b1ac 08bd 852b aa3d 60f0 cf3c cb18 e6bd
000002a0: d30a f7bd 3cab d13d c6a1 1b3c f17e 883d
000002b0: d549 113e e7b8 74be c56d 603e 06a3 57be
000002c0: c0df 193d 5ee2 16bd f60d 27bd ab94 823e
000002d0: f0ae 4ebc 19d2 643d 6774 54be c341 073e
000002e0: 3b83 ce3d 2dd6 9bbd 657d cd3d c894 d73d
000002f0: fb23 593e 1672 343d 751d 64be 3a23 e23d
00000300: 04f0 0b3e f47e 793e 07dc 7c3e 6241 3a3e
00000310: 02ad 3a3e c31a 443e 6937 773d de91 37bd
00000320: 9505 18bc f2ee 4dbd dfc0 87bc 7085 553e
00000330: dab0 10be 5415 78bd ec1c ce3c eca6 7b3d
00000340: 0859 893e 57c4 41bd 3221 80be a4ee 84bc
00000350: 0539 63bc 7dd7 143d 69df 2dbe b7ce c5bd
00000360: ff04 0b3d cd1f 903d 9c25 16be b732 d0ba
00000370: 6953 623d a85b 873d 383a 0cbc 0571 123e
00000380: 15f8 74be 8cee e43d 50b6 72bd 79dd 163e
00000390: a24a 643e b0d0 313e 9564 60be f7d4 fdbd
000003a0: 7e5d 83be ac97 a8bd 4018 74be a754 7e3e
000003b0: 2dd9 f4bd 6412 983d e266 fabd 5ee0 873e
000003c0: 480c 013e b504 25be e791 363e e516 573e
000003d0: e5af 153e 37a0 a0bc de05 813d f0d3 3bbd
000003e0: 7638 61bd 1ca5 d83c afc0 603e 1c59 4fbe
000003f0: d521 853e b553 89be 1b1e c23d 9891 013d

conv1.bias f4 [64]
0.00089739857 -0.0027165916 0.0008106923 0.0013993075 0.0029527177 -0.0037207475 -0.002867194 0.0060137254
-0.00018730604 -0.0030474216 0.00056685286 0.009337502 -0.00028090013 0.0010943346 -0.00054055004 0.0016633066
0.004902535 7.4727623e-06 0.0045738393 0.0011986619 0.0012034833 0.0005578078 0.00028081622 -0.0009513154
-0.0021313466 0.0021775106 0.0027738207 -0.0007577369 0.00030496178 0.0014295416 -0.0024855037 0.0003736129
-0.0042171534 0.00096128706 -0.00056739507 -0.00050255394 0.0016700879 -0.0041052788 0.0008777405 0.0004072882
-0.00022355546 0.0011484122 0.0011967478 -0.00013976057 -0.0017085626 -0.0027731927 0.0013318893 0.0042428034
-0.0009078859 -0.001411312 0.0057186703 -0.00011040827 0.0016517609 -0.0016347962 -0.0008608548 0.00071322237
-0.0027617365 0.0019449525 0.002506959 -0.001233318 0.0020435485 0.0034915102 0.0017985278 0.004632867
00000000: 663f 6b3a d808 32bb a484 543a f868 b73a
00000010: 6282 413b c9d7 73bb 88e7 3bbb c90e c53b
00000020: 9567 44b9 40b7 47bb da98 143a 52fc 183c
00000030: c745 93b9 c76f 8f3a b3b3 0dba 4f03 da3a
00000040: 72a5 a03b 8abe fa36 25e0 953b 6b1c 9d3a
00000050: 33be 9d3a d939 123a 843a 9339 b261 79ba
00000060: 10ae 0bbb 91b4 0e3b fdc8 353b dda2 46ba
00000070: 47e3 9f39 755f bb3a d5e3 22bb 79e1 c339
00000080: 0c30 8abb e2fe 7b3a 3dbd 14ba d3bd 03ba
00000090: dae6 da3a 9385 86bb 2b18 663a 4c89 d539
000000a0: 366a 6ab9 5286 963a 31dc 9c3a b18c 12b9
000000b0: d9f1 dfba 74be 35bb ca92 ae3a 3707 8b3b
000000c0: 31ff 6dba c6fb b8ba af63 bb3b fd8a e7b8
000000d0: e67f d83a a846 d6ba fdaa 61ba 8bf7 3a3a
000000e0: 40fe 34bb c7ed fe3a cb4b 243b 49a7 a1ba
000000f0: 0eed 053b d2d1 643b 94bc eb3a 4ecf 973b

conv2.weight f4 [64, 64]
-0.09868396 -0.02434216 -0.06660281 0.13246983 -0.18832898 -0.0802056 -0.1904942 0.041447036
0.13306925 -0.20843136 0.1952039 0.117479526 -0.05034354 0.058999967 -0.14037883 0.13364743
-0.011836956 -0.11641846 0.017548451 0.1758412 0.19502226 -0.15297511 -0.0075190403 -0.08328101
0.07259988 -0.117505826 -0.16851637 -0.115610175 -0.17018452 -0.14924924 0.20673716 0.0872675
0.09045948 -0.06824545 0.13685077 -0.11049402 0.089386 -0.10693047 -0.15233429 -0.19629788
0.033537682 -0.030466497 -0.011241427 0.083122306 -0.19909805 -0.059399292 0.12877584 -0.041195244
0.0028773723 0.17276943 0.0038392227 -0.123330615 0.11980246 -0.16249049 -0.011380835 -0.13959204
-0.11371434 0.08464201 -0.19797279 -0.05147952 0.13428989 0.21051732 0.16558608 -0.086075194
0.097160004 -0.038072694 -0.15322044 0.057127792 -0.18350455 0.19703291 0.052135713 -0.05842149
0.06301855 -0.1875352 -0.05246898 0.004801255 0.17403741 -0.006376202 -0.17178644 -0.1992696
-0.16929759 0.057523012 -0.15647916 0.11019393 -0.15316296 0.21909826 -0.20670992 0.15451473
0.14694393 -0.08339105 0.13179827 -0.041682225 -0.04127041 -0.107584536 0.19528462 0.0077110296
0.21017258 -0.09821309 -0.06716953 -0.15514599 0.11627853 0.14506786 -0.20605719 -0.031920843
-0.037762888 -0.009955968 -0.15672147 0.08353782 0.096859485 -0.13938923 -0.20253316 0.21138258
0.14773369 -0.08039567 -0.123586446 -0.106178924 0.1673332 -0.19959693 -0.05914803 -0.052352674
-0.17116924 -0.15104246 -0.18128651 -0.18755826 -0.080306135 0.1317904 0.103435166 0.09448009
0.061789367 -0.08981166 0.047066126 -0.052009284 0.19347857 -0.18122548 -0.08289587 -0.21010253
-0.13290085 0.071311414 0.13348654 0.08156168 0.06956943 0.20394431 0.0028547721 -0.13501665
-0.121855415 -0.05909026 -0.16100664 -0.14817704 0.14258955 -0.01942426 -0.015076043 -0.03330337
0.13213412 -0.031983297 -0.0076965573 -0.10877018 -0.08645153 0.10294799 -0.03111855 -0.046170566
-0.1607223 -0.08196514 0.00287675 0.08058372 -0.06563656 0.09418795 -0.08661546 -0.13615884
-0.07961268 -0.024507888 0.17786162 -0.18761353 -0.038751617 0.089678265 0.15874194 -0.11258292
-0.14683783 0.15380533 -0.13256519 0.16243747 0.20525965 0.21327145 0.093392245 -0.14677455
-0.20734046 0.027064076 0.18007635 -0.108448155 -0.16942625 -0.041171648 -0.09253713 0.098193966
0.019694941 -0.060981385 0.013516708 -0.124417074 0.16417955 0.05040174 0.10280786 0.19255231
0.03062886 0.16704506 0.112202615 0.08448274 -0.090465374 0.21452346 -0.02477788 -0.121585175
-0.023805529 0.22412223 0.14027226 0.002044557 0.053354997 0.0136550935 0.0683047 -0.008744136
-0.103598915 0.029553238 0.093542084 -0.08131252 -0.16691455 0.17954251 0.09961388 -0.08879352
-0.1955367 -0.091504686 -0.05001692 -0.122749224 0.024940608 0.18614739 0.04756611 0.19892591
-0.035487708 -0.081371024 0.19256775 -0.1340663 -0.081541374 -0.15787993 0.16201784 -0.13243876
-0.06762567 0.08329718 0.1641125 -0.15435344 0.12735848 0.02464339 0.1644818 -0.16220225
0.0116746 0.20873861 0.1282531 -0.06685577 -0.07952905 -0.03512843 -0.21746184 -0.1233352
00000000: d11a cabd 3669 c7bc 0e67 88bd 2ca6 073e
00000010: 50d9 40be d542 a4bd e910 43be 5ec4 293d
00000020: 4e43 083e 086f 55be 88e3 473e 1b99 f03d
00000030: 0735 4ebd f3a9 713d 78bf 0fbe dfda 083e
00000040: cbef 41bc cd6c eebd c5c1 8f3c b70f 343e
00000050: eab3 473e 82a5 1cbe 4862 f6bb 3c8f aabd
00000060: 3faf 943d e5a6 f0bd 8e8f 2cbe 07c5 ecbd
00000070: da44 2ebe cbd4 18be e8b2 533e 4eb9 b23d
00000080: d242 b93d 45c4 8bbd 9c22 0c3e b04a e2bd
00000090: 0210 b73d 5dfe dabd 85fd 1bbe 5002 49be
000000a0: cf5e 093d e094 f9bc f62d 38bc 073c aa3d
000000b0: 5ce0 4bbe ac4c 73bd d0dd 033e 58bc 28bd
000000c0: 4c92 3c3b 78ea 303e 789b 7b3b c394 fcbd
000000d0: fe5a f53d e863 26be af76 3abc 37f1 0ebe
000000e0: 10e3 e8bd ca58 ad3d 61b9 4abe 30dc 52bd
000000f0: 4a83 093e da91 573e 668f 293e 3148 b0bd
00000100: d3fb c63d 1df2 1bbd d2e5 1cbe d5fe 693d
00000110: 9ee8 3bbe ffc2 493e 428c 553d 5f4b 6fbd
00000120: df0f 813d 3a09 40be b7e9 56bd d953 9d3b
00000130: dd36 323e 76ef d0bb c9e8 2fbe 540d 4cbe
00000140: 595c 2dbe 409d 6b3d 133c 20be 5bad e13d
00000150: c0d6 1cbe 4b5b 603e c4ab 53be 1c39 1e3e
00000160: 7878 163e edc8 aabd 20f6 063e fbba 2abd
00000170: 290b 29bd 4855 dcbd b1f8 473e ceac fc3b
00000180: 7b37 573e f223 c9bd 2e90 89bd 97de 1ebe
00000190: 7023 ee3d ab8c 143e a800 53be 6ebf 02bd
000001a0: 42ad 1abd 5b1e 23bc 987b 20be e015 ab3d
000001b0: 445e c63d 0dbc 0ebe da64 4fbe ad74 583e
000001c0: 8047 173e 7ca6 a4bd e41a fdbd 5674 d9bd
000001d0: 6559 2b3e 2363 4cbe 3445 72bd c26f 56bd
000001e0: fd46 2fbe e0aa 1abe 2ca3 39be 460f 40be
000001f0: 8b77 a4bd 10f4 063e d1d5 d33d c77e c13d
00000200: d916 7d3d 2def b7bd 69c8 403d b007 55bd
00000210: 3f1f 463e 2c93 39be 4fc5 a9bd 1e25 57be
00000220: 2917 08be b80b 923d b2b0 083e cf09 a73d
00000230: 6b7a 8e3d c7d6 503e 2117 3b3b ce41 0abe
00000240: 558f f9bd a108 72bd edde 24be b9bb 17be
00000250: ff02 123e a01f 9fbc 8201 77bc 1d69 08bd
00000260: 2b4e 073e eb00 03bd 6733 fcbb e6c2 debd
00000270: 800d b1bd 65d6 d23d 54ec febc 591d 3dbd
00000280: 6394 24be 57dd a7bd db87 3c3b 1409 a53d
00000290: 766c 86bd 9de5 c03d 7263 b1bd 396d 0bbe
000002a0: f90b a3bd c4c4 c8bc 5b21 363e c31d 40be
000002b0: 04ba 1ebd 3da9 b73d 3f8d 223e e091 e6bd
000002c0: a85c 16be 257f 1d3e 2bbf 07be 0256 263e
000002d0: 962f 523e d563 5a3e 6f44 bf3d 114c 16be
000002e0: 0f51 54be 7bb5 dd3c ef65 383e 111a debd
000002f0: 137e 2dbe 9aa3 28bd 1b84 bdbd eb19 c93d
00000300: 4957 a13c 9ec7 79bd 2f75 5d3c 61ce febd
00000310: af1e 283e 0e72 4e3d ed8c d23d 6f2c 453e
00000320: 60e9 fa3c dc0d 2b3e 7cca e53d 4905 ad3d
00000330: e945 b9bd 0aac 5b3e fbfa cabc a601 f9bd
00000340: d003 c3bc 4c80 653e 88a3 0f3e f9fd 053b
00000350: c58a 5a3d 9db9 5f3c 56e3 8b3d 9143 0fbc
00000360: ab2b d4bd a219 f23c fe92 bf3d 2e87 a6bd
00000370: a6eb 2abe fed9 373e 5d02 cc3d 61d9 b5bd
00000380: c63a 48be cf66 bbbd 8bde 4cbd f263 fbbd
00000390: 3f50 cc3c 6c9d 3e3e aed4 423d 3cb3 4b3e
000003a0: 8f5b 11bd daa5 a6bd 7b30 453e ad48 09be
000003b0: 2aff a6bd 47ab 21be 01e8 253e 079e 07be
000003c0: 547f 8abd b697 aa3d 1b0d 283e d40e 1ebe
000003d0: 436a 023e efe0 c93c eb6d 283e 5918 26be
000003e0: d246 3f3c 93bf 553e c854 033e aeeb 88bd
000003f0: 20e0 a2bd d4e2 0fbd 51ae 5ebe 2a97 fcbd

conv2.bias f4 [64]
-0.0014588907 -0.0006077683 0.0039632116 -0.0007432918 0.00441086 0.0015494851 0.0020996402 3.4420596e-06
0.0036455241 0.0073159463 0.0005731045 -0.0023451957 -0.00031045257 0.003899514 -0.0037908119 0.00014833333
-0.0022347106 0.010779598 -0.0017118214 0.0011298436 0.0004328221 0.0031091135 0.0027163455 2.2416529e-05
-0.004276192 0.0023711412 -0.00037314737 0.0010926964 -0.0008012783 0.0018357777 0.001294699 0.0034848475
-0.0004074426 0.0033722068 -0.0011468997 0.00116713 0.00880224 -0.00012635424 -0.00084158906 0.00070947944
0.0006608965 0.0005221453 0.0026232903 0.0020861472 0.0006234371 0.0022866218 -7.745492e-05 -0.00048420115
0.00250188 -0.0006870679 0.0011911354 0.00016771114 -0.0012827931 0.0058845794 0.0021294912 0.0017008345
0.0009528881 0.0022467154 0.0029951038 0.005156389 -0.0013451641 0.0043195914 -0.0019202475 -0.0010236884
00000000: 4038 bfba a452 1fba d4dd 813b 78d9 42ba
00000010: fa88 903b 1818 cb3a 1e9a 093b 22fe 6636
00000020: bfe9 6e3b 9bba ef3b 643c 163a dbb1 19bb
00000030: 3dc4 a2b9 fd8e 7f3b 456f 78bb ed89 1b39
00000040: 3974 12bb e99c 303c 325f e0ba 4317 943a
00000050: 66ec e239 45c2 4b3b b704 323b 210b bc37
00000060: 4c1f 8cbb 2665 1b3b fea2 c3b9 cf38 8f3a
00000070: e00c 52ba 7a9e f03a e4b2 a93a 0a62 643b
00000080: 059e d5b9 3e00 5d3b 9153 96ba 62fa 983a
00000090: 4537 103c f57d 04b9 169e 5cba 5cfc 393a
000000a0: 0340 2d3a 94e0 083a 82eb 2b3b beb7 083b
000000b0: 286e 233a 26db 153b 4b6f a2b8 61dc fdb9
000000c0: 95f6 233b 591c 34ba df1f 9c3a 9edb 2f39
000000d0: 6523 a8ba 6ed3 c03b ef8e 0b3b 89ee de3a
000000e0: 3dcb 793a a13d 133b 8149 443b edf6 a83b
000000f0: 3850 b0ba 5c8b 8d3b d0b0 fbba 482d 86ba

conv3.weight f4 [64, 64]
0.02589853 -0.09448875 -0.082082435 0.05007835 0.08589401 -0.048459776 0.012309094 -0.0033489352
0.07169063 0.1975389 0.20791708 -0.1947738 -0.041206453 0.013392463 -0.13566442 -0.19963689
0.14763868 -0.19649248 0.07893747 0.114561826 -0.14776452 -0.07952649 -0.08307786 0.20057836
0.11022326 -0.10463288 -0.058106735 0.07682111 0.08339441 0.19948374 0.13912284 -0.030816939
-0.020844731 0.008670635 -0.18978858 -0.105835 -0.07415255 0.0022696718 -0.110663384 -0.1801842
-0.078797914 0.15144297 -0.107473485 -0.118784085 0.031430762 0.21080822 0.012547228 -0.059673414
-0.13573983 0.16341466 -0.20839031 0.01972942 0.04797166 -0.16311243 -0.17985496 0.023372307
-0.14522786 0.120715775 -0.04109911 0.16278575 -0.09337119 -0.15919527 -0.1956594 -0.12509921
-0.11446173 0.05591274 -0.15775558 0.19182977 -0.0060147834 -0.120778956 -0.014563838 0.16641244
-0.05701235 -0.118761644 0.12814325 -0.026482051 0.16627084 -0.04849663 0.1352072 -0.1001652
0.12170729 -0.14410268 0.08841209 0.13252676 -0.010918044 -0.044631656 0.1896775 0.06376201
-0.12477279 -0.20262927 0.16109668 -0.106035635 -0.08402236 -0.14841184 -0.12618297 0.09655047
0.15942562 -0.035888728 0.04752966 -0.16405287 0.19955721 0.07219896 0.11265351 0.0056686285
-0.096349955 -0.09024231 -0.09835141 0.17574857 0.16711785 0.1050214 0.13836347 -0.14880337
0.18435843 0.10067258 -0.020938743 -0.15002047 0.13066462 0.12674683 -0.01526366 -0.11025142
0.1895383 -0.2144238 0.09535115 0.030505797 0.21114743 0.18161467 -0.20190674 -0.06325627
0.122187704 0.19298573 0.07616973 0.08062804 0.0991985 0.019671416 0.09812368 0.04720489
0.203825 -0.19361931 0.10916008 -0.06939896 -0.024367142 0.19860847 -0.062161073 0.004088756
0.009531536 -0.06061658 0.21898624 -0.10714827 -0.11067251 0.096703 -0.1191708 -0.075599074
0.19024484 0.11153839 -0.14307676 -0.2206504 0.099814594 0.15813544 0.049680658 -0.086195
0.13170592 0.1487606 0.18252657 -0.098325975 0.021049554 0.1527955 0.0255769 -0.003601289
0.066510074 0.17686859 0.030338788 -0.07923298 -0.18826589 0.20318773 0.11943887 0.05602501
0.11206417 -0.008900539 -0.19647813 0.14207824 0.11575246 0.029774174 -0.17042515 0.11006784
0.18723825 -0.18264855 0.060020924 -0.10144931 -0.06992774 -0.09610919 0.004190973 -0.15693021
-0.067753054 0.07918771 0.102174394 -0.16642398 -0.047444772 0.1529101 -0.18229128 -0.09372958
-0.005783685 -0.023936296 -0.06322554 -0.07828008 -0.16762699 -0.052253775 0.037389923 0.014441718
-0.17325646 0.059205823 -0.005194375 -0.16531835 -0.12449394 0.051377386 -0.1162367 -0.027791856
-0.19051993 0.17979738 -0.07588612 0.18098041 -0.090250954 -0.20243509 0.06975926 0.15695713
-0.0655007 -0.06420859 -0.0627618 -0.029292427 0.03426206 -0.07226393 -0.19966286 -0.18006974
0.034350947 -0.14880238 -0.16899818 -0.20488413 -0.048377793 0.15679318 -0.17302527 0.013406158
-0.08492362 0.06405904 -0.049878117 0.058956053 0.06034252 0.122974046 -0.028286638 0.0033239226
0.05120667 -0.022630418 0.19794142 0.14728454 0.10128712 -0.040897477 -0.039196774 0.17157824
00000000: 2729 d43c 5183 c1bd d61a a8bd f51e 4d3d
00000010: 33e9 af3d c27d 46bd 15ac 493c cf79 5bbb
00000020: 89d2 923d a347 4a3e 37e8 543e c872 47be
00000030: 19c8 28bd 106c 5b3c 9deb 0abe 9d6d 4cbe
00000040: 982e 173e 5335 49be f8a9 a13d 649f ea3d
00000050: 954f 17be c9de a2bd ba24 aabd 6a64 4d3e
00000060: bcbc e13d c349 d6bd 5401 6ebd 6354 9d3d
00000070: b0ca aa3d 7745 4c3e 3876 0e3e ce73 fcbc
00000080: 92c2 aabc 470f 0e3c f057 42be 05c0 d8bd
00000090: 4bdd 97bd c6be 143b 7ca3 e2bd 3582 38be
000000a0: cd60 a1bd de13 1b3e 0f1b dcbd 1245 f3bd
000000b0: 8bbd 003d 1cde 573e e392 4d3c 1c6c 74bd
000000c0: 62ff 0abe 2c56 273e 4564 55be 989f a13c
000000d0: ee7d 443d f206 27be e62b 38be 4877 bf3c
000000e0: 9db6 14be d539 f73d 8a57 28bd 4fb1 263e
000000f0: 6539 bfbd 1604 23be f05a 48be 021a 00be
00000100: e96a eabd c204 653d ae8a 21be 066f 443e
00000110: a917 c5bb f55a f7bd 2a9d 6ebc 0668 2a3e
00000120: c885 69bd 4e39 f3bd fc37 033e e3f0 d8bc
00000130: e742 2a3e 67a4 46bd c273 0a3e 6a23 cdbd
00000140: ac41 f93d a78f 13be 6611 b53d 18b5 073e
00000150: 98e1 32bc afcf 36bd d23a 423e a895 823d
00000160: e088 ffbd 0c7e 4fbe 87f6 243e 3629 d9bd
00000170: ea13 acbd 46f9 17be 1c36 01be 41bc c53d
00000180: 7840 233e 0f00 13bd 76ae 423d 7afd 27be
00000190: ba58 4c3e 0cdd 933d e2b6 e63d e7bf b93b
000001a0: 2053 c5bd f6d0 b8bd 776c c9bd 6ff7 333e
000001b0: f120 2b3e 7615 d73d 27af 0d3e e95f 18be
000001c0: 75c8 3c3e 6d2d ce3d ba87 abbc f79e 19be
000001d0: f2cc 053e ecc9 013e 6e14 7abc 7fcb e1bd
000001e0: 5416 423e ea91 5bbe 7747 c33d 4be7 f93c
000001f0: 0837 583e 32f9 393e a4c0 4ebe 818c 81bd
00000200: 8c3d fa3d 0d9e 453e e0fe 9b3d 5020 a53d
00000210: 9528 cb3d f325 a13c 11f5 c83d ea59 413d
00000220: 80b7 503e 2444 46be 528f df3d 0b21 8ebd
00000230: 9a9d c7bc 0560 4b3e 9c9c 7ebd f9fa 853b
00000240: 292a 1c3c 1749 78bd ee3d 603e 8d70 dbbd
00000250: 45a8 e2bd 390c c63d d20f f4bd b0d3 9abd
00000260: 8bcf 423e 3d6e e43d b782 12be 2ef2 61be
00000270: 986b cc3d 42ee 213e f27d 4b3d 0187 b0bd
00000280: ebdd 063e b354 183e 3fe8 3a3e 215f c9bd
00000290: 1d70 ac3c 6c76 1c3e a686 d13c 9a03 6cbb
000002a0: 6f36 883d 0a1d 353e 0d89 f83c e744 a2bd
000002b0: c6c8 40be 7210 503e 5e9c f43d 7b7a 653d
000002c0: e681 e53d 91d3 11bc 9031 49be f57c 113e
000002d0: a00f ed3d f8e8 f33c ee83 2ebe 3f6b e13d
000002e0: 62bb 3f3e 3908 3bbe 80d8 753d a8c4 cfbd
000002f0: 4636 8fbd e5d4 c4bd 6e54 893b 50b2 20be
00000300: 1dc2 8abd 2b2d a23d cf40 d13d 0c6b 2abe
00000310: 7355 42bd 7794 1c3e 91aa 3abe 4bf5 bfbd
00000320: 1185 bdbb 0d16 c4bc 647c 81bd 4e51 a0bd
00000330: 69a6 2bbe 0e08 56bd 2d26 193d f59c 6c3c
00000340: 246a 31be ce81 723d 9335 aabb 3749 29be
00000350: aef6 febd 1871 523d 820d eebd bfab e3bc
00000360: a817 43be ce1c 383e 2f6a 9bbd ee52 393e
00000370: 7ed5 b8bd 254b 4fbe f1dd 8e3d 5fb9 203e
00000380: 3b25 86bd cb7f 83bd 4289 80bd acf6 efbc
00000390: 6056 0c3d 1dff 93bd 6c74 4cbe 3464 38be
000003a0: 94b3 0c3d a75f 18be dc0d 2dbe 25cd 51be
000003b0: cb27 46bd 648e 203e 892d 31be 81a5 5b3c
000003c0: 6fec adbd 6331 833d ff4c 4cbd e77b 713d
000003d0: b829 773d d1d9 fb3d 61b9 e7bc 2bd6 593b
000003e0: 16be 513d 6d63 b9bc 28b1 4a3e c2d1 163e
000003f0: 9f6f cf3d 1d84 27bd cc8c 20bd 35b2 2f3e

conv3.bias f4 [64]
0.00945593 9.358951e-05 0.0015774108 0.0013569874 0.0016213388 -0.0005528615 0.0021289873 0.00037625956
0.00012089671 -0.0008684534 -8.881281e-05 -0.0007423312 -0.0017680285 0.0010779026 -0.0045548747 -0.0015419935
-0.0011332176 0.0034693882 -0.0016281704 -0.0009006586 -0.00073797134 -0.00023443658 -0.00075507304 -0.00012813172
0.0018865509 0.012600001 0.001066009 0.0011620581 -0.0021502532 0.0005256768 0.0041384613 0.00051292975
0.0042936513 0.0051210932 0.00087796926 0.0039190045 0.0012658731 0.0005545534 -0.00075790513 0.0016680603
-0.0009395327 -0.0008161665 0.007897132 0.00045341562 0.0016744934 -0.0042326855 0.0038650183 0.0019003083
0.00039957216 -0.00016762942 -0.0012309613 -0.0005782686 -1.7746252e-05 -0.0006552061 0.0037943933 0.0027508945
-0.00022402343 -0.0014563919 -0.0001761143 0.003246562 0.001416477 0.0127352895 -0.00043890462 -0.00036846608
00000000: 0ced 1a3c 7c45 c438 20c1 ce3a f1dc b13a
00000010: 1a83 d43a e8ed 10ba 7b86 0b3b b444 c539
00000020: ed89 fd38 eca8 63ba 0441 bab8 0199 42ba
00000030: 31bd e7ba 6948 8d3a 0f41 95bb b71c caba
00000040: 7988 94ba ad5e 633b 5568 d5ba 2d1a 6cba
00000050: 6b74 41ba 17d3 75b9 18f0 45ba 195b 06b9
00000060: 2546 f73a 3c70 4e3c 54b9 8b3a 3350 983a
00000070: 43eb 0cbb 93cd 093a ee9b 873b 2276 063a
00000080: c2b1 8c3b d8ce a73b 8527 663a fe6a 803b
00000090: a7eb a53a 735f 113a 27ae 46ba d1a2 da3a
000000a0: f94a 76ba 02f4 55ba f962 013c 6ab8 ed39
000000b0: ad7a db3a 57b2 8abb 3f4c 7d3b c413 f93a
000000c0: ab7d d139 aec5 2fb9 3558 a1ba f396 17ba
000000d0: c9dd 94b7 23c2 2bba 5bab 783b 5a48 343b
000000e0: d5e7 6ab9 67e4 beba 53ab 38b9 46c4 543b
000000f0: 15a9 b93a ada7 503c c81c e6b9 ae2e c1b9

fc1.weight f4 [128, 192]
-0.029074308 -0.007336802 -0.070447154 0.07417873 -0.046468645 0.03421792 -0.012482226 0.038003508
0.04010107 -0.050911445 0.04407146 0.06029682 0.048503254 -0.040548865 -0.028094655 0.029794771
-0.0028921654 -0.0058229584 0.020964218 -0.06847489 -0.047757935 0.036278374 -0.0042077336 -0.030979805
-0.0029772106 0.035915323 -0.02717374 -0.028122677 0.045573317 -0.04705651 0.015743108 0.022934744
0.03522731 0.02980484 -0.049784932 -0.04528555 -0.038144168 0.0033370873 -0.07062273 -0.026808599
0.048653327 -0.053083066 -0.00408808 -0.022864299 0.013955163 0.022990778 0.011605932 -0.009157009
-0.06171615 -0.062221896 -0.04537831 -0.072390646 -0.011140041 0.05580272 0.033795234 0.054698884
0.043478496 0.012295086 0.012867816 0.022265708 -0.0185734 0.022523884 0.07037756 -0.06977893
-0.053979743 0.03693154 -0.04849305 -0.0018242581 -0.03999611 -0.041866794 0.06225621 0.01495783
-0.07340772 -0.05457587 0.06741148 0.057259396 0.004560438 -0.015092822 0.008834468 -0.02803847
0.056556474 0.054241717 -0.06295601 0.056729775 0.0056669484 0.012819748 -0.049469598 0.043169945
0.03279903 0.04413159 -0.032052144 0.019508973 -0.0043320707 -0.0048701996 0.05454401 0.007424299
-0.0010505738 0.008555056 0.009997102 0.044380635 0.009851072 -0.038658846 -0.030932622 -0.047314875
0.012529815 -0.029063242 0.04065726 -0.0068927296 0.032148216 0.064651184 0.012723495 0.046988845
0.0624941 0.046469104 0.012615744 -0.057503983 -0.05261561 0.06978427 0.05159844 -0.0274888
0.05024034 -0.06860858 0.0075395755 -0.06674455 -0.06272974 -0.006217159 -0.014620766 0.027008561
-0.023893796 -0.010032427 0.05457917 -0.05768506 -0.02925876 -0.066186875 0.020917244 0.021273792
-0.054931466 -0.04435006 0.06372477 -0.02605879 -0.0400481 -0.0141976 0.07154756 -0.022030741
-0.024519265 0.072469756 0.01921196 0.012332736 -0.048078224 0.049724657 -0.01629182 -0.05929217
0.046367075 -0.055513274 0.00056205573 0.035389468 0.032186985 -0.070866734 0.029893653 0.042731877
0.020347059 0.013676209 -0.05215249 -0.06576393 0.06675245 -0.043293506 -0.053720254 -0.023362828
0.037294403 -0.026381616 0.004092675 -0.00436896 -0.06933964 0.015745461 -0.024899239 -0.010909666
-0.009768102 -0.04846187 0.017857827 0.031450562 0.0015155582 0.066978805 -0.057059977 -0.0024611626
-0.07104486 0.004469437 0.0052614217 0.024211356 -0.054564577 0.07926548 0.009145083 -0.06974671
0.028634392 0.055121303 0.00460699 -0.04861865 -0.06576207 -0.0105830515 -0.06489606 0.051134367
-0.044953097 -0.04105095 0.055727907 0.055926397 -0.018804196 0.005302687 -0.022534514 0.07495777
-0.02035568 -0.02318336 -0.051908348 -0.02772631 -0.0353234 0.07146208 -0.067653574 0.03804948
0.047445092 0.018911205 0.06082962 0.03727451 -0.04866632 -0.02886116 0.046722542 -0.057431016
-0.013637452 0.0725588 0.06220181 0.06486237 -0.064932406 -0.025711842 -0.0630332 -0.023058683
0.027262341 0.07393456 0.039704207 -0.001891926 0.059059504 0.010680826 0.045646124 0.028214483
0.039659716 -0.002214864 0.052092675 0.007697474 -0.01160043 0.053423315 -0.004297562 0.026695084
-0.06314735 -0.041459985 -0.044438913 0.057188287 0.04310541 -0.046995874 -0.06502957 0.01926647
00000000: 3e2d eebc 8e69 f0bb 9946 90bd 05eb 973d
00000010: e855 3ebd 1728 0c3d 4082 4cbc 91a9 1b3d
00000020: 0541 243d 8588 50bd 4684 343d ccf9 763d
00000030: 59ab 463d 9116 26bd c326 e6bc 2a14 f43c
00000040: 7c8a 3dbb 84ce bebb 27bd ab3c 903c 8cbd
00000050: d39d 43bd a298 143d 07e1 89bb 5cc9 fdbc
00000060: 4e1d 43bb f21b 133d 779b debc 8761 e6bc
00000070: 16ab 3a3d 54be 40bd b1f7 803c a5e1 bb3c
00000080: 834a 103d 4829 f43c 49eb 4bbd 577d 39bd
00000090: 0f3d 1cbd 09b3 5a3b a6a2 90bd b59d dbbc
000000a0: b648 473d a16d 59bd 4df5 85bb e94d bbbc
000000b0: 32a4 643c 2857 bc3c cf26 3e3c 4807 16bc
000000c0: 13ca 7cbd 63dc 7ebd 9bde 39bd 8c41 94bd
000000d0: b884 36bc 6591 643d df6c 0a3d f00b 603d
000000e0: 8216 323d 5471 493c 88d3 523c 9366 b63c
000000f0: 3e27 98bc 0284 b83c 1c22 903d 41e8 8ebd
00000100: dd19 5dbd 8745 173d a6a0 46bd f21b efba
00000110: f6d2 23bd 847c 2bbd 5e00 7f3d b011 753c
00000120: c956 96bd f38a 5fbd 080f 8a3d d488 6a3d
00000130: ba6f 953b e247 77bc 72be 103c efb0 e5bc
00000140: c3a7 673d 902c 5e3d 15ef 80bd 7b5d 683d
00000150: cfb1 b93b ec09 523c a2a0 4abd f8d2 303d
00000160: 4758 063d 53c3 343d 1c49 03bd 48d1 9f3c
00000170: 0bf4 8dbb 3296 9fbb 8a69 5f3d 8947 f33b
00000180: 68b3 89ba 812a 0c3c e3ca 233c 78c8 353d
00000190: 6466 213c bd58 1ebd 6966 fdbc 3ecd 41bd
000001a0: da49 4d3c 0916 eebc 3a88 263d 68dc e1bb
000001b0: d9ad 033d d767 843d 3576 503c 6077 403d
000001c0: d0f9 7f3d 6356 3e3d 44b2 4e3c 4c89 6bbd
000001d0: 7783 57bd 0eeb 8e3d e358 533d 3130 e1bc
000001e0: d1c8 4d3d a882 8cbd 8b0e f73b 5eb1 88bd
000001f0: 7378 80bd 4fb9 cbbb f08b 6fbc 0f41 dd3c
00000200: ecbc c3bc 0c5f 24bc 688e 5f3d 2b47 6cbd
00000210: 11b0 efbc fc8c 87bd a45a ab3c 6046 ae3c
00000220: d1ff 60bd 69a8 35bd 2282 823d 3e79 d5bc
00000230: 7a09 24bd 0d9d 68bc 8787 923d d079 b4bc
00000240: a0dc c8bc 066b 943d 6662 9d3c 3e0f 4a3c
00000250: aced 44bd 15ac 4b3d 6c76 85bc 59dc 72bd
00000260: 67eb 3d3d e361 63bd ec56 133a 8cf4 103d
00000270: 80d6 033d 9422 91bd 89e3 f43c 9f07 2f3d
00000280: e0ae a63c 2e12 603c d99d 55bd 3daf 86bd
00000290: 82b5 883d 8854 31bd c509 5cbd 6763 bfbc
000002a0: 04c2 183d 421e d8bc d91b 863b 7e29 8fbb
000002b0: f101 8ebd a0fc 803c 7df9 cbbc 75be 32bc
000002c0: 640a 20bc f47f 46bd 944a 923c 4ed2 003d
000002d0: b2a5 c63a 2f2c 893d b9b7 69bd 754b 21bb
000002e0: f87f 91bd 5b74 923b 0168 ac3b e556 c63c
000002f0: 1b7f 5fbd f155 a23d 42d5 153c 5dd7 8ebd
00000300: ac92 ea3c e0c6 613d 3cf6 963b 5924 47bd
00000310: 44ae 86bd 8964 2dbc 3ae8 84bd 4572 513d
00000320: bd20 38bd 0a25 28bd f242 643d 1413 653d
00000330: 420b 9abc 2ac2 ad3b 4d9a b8bc 7683 993d
00000340: f4c0 a6bc 08eb bdbc d99d 54bd 4922 e3bc
00000350: 45af 10bd b65a 923d f58d 8abd c6d9 1b3d
00000360: c955 423d aceb 9a3c 7b28 793d 28ad 183d
00000370: 5656 47bd 3d6e ecbc 2360 3f3d c93c 6bbd
00000380: 9f6f 5fbc b599 943d 53c7 7e3d 90d6 843d
00000390: 48fb 84bd a4a1 d2bc 8d17 81bd 90e5 bcbc
000003a0: 4655 df3c 016b 973d e1a0 223d 81fa f7ba
000003b0: 61e8 713d a2fe 2e3c 6ef7 3a3d 0f22 e73c
000003c0: 3a72 223d 4027 11bb 215f 553d 183b fc3b
000003d0: bb0f 3ebc 68d2 5a3d 90d2 8cbb a6af da3c
000003e0: 6653 81bd f2d1 29bd 9405 36bd 443e 6a3d
000003f0: 4c8f 303d bf7e 40bd 392e 85bd b7d4 9d3c

fc1.bias f4 [128]
0.061999284 -0.043558106 0.045270525 -0.022209493 0.02757843 -0.040838964 -0.008803579 0.027569227
0.057428412 -0.04424338 0.023852289 -0.010151765 0.06943428 -0.029428588 -0.009333062 0.042202644
-0.028082723 0.036727052 0.034553945 0.021105165 -0.060820904 -0.014550429 0.01799628 -0.0420865
-0.010093573 0.06751525 0.0035063669 -0.06552379 0.045323543 -0.003513114 0.017577391 0.023976566
0.01512532 0.06513082 0.044800095 0.05350165 -0.03862427 0.050713956 0.07157155 -0.032964
0.019881075 0.02362762 -0.02739324 -0.04662697 -0.042520918 0.024883317 -0.0155936945 -0.04936043
-0.011644701 -0.057234574 -0.0613867 -0.06179373 -0.014021207 0.026206538 -0.017265465 0.07100957
-0.008805931 -0.0073969592 0.060333196 -0.003024125 0.075130366 0.0072908057 -0.048137162 0.026242837
0.031478688 -0.053474337 0.06455099 0.06323352 -0.022076253 -0.06748698 -0.03929311 -0.06666769
0.011825977 0.02425651 0.03934045 0.01623134 -0.024851553 -0.047096733 0.02653458 -0.034599334
0.050463725 0.051562544 0.009038935 0.0035149779 0.011046871 0.023965584 -0.054131918 0.025816863
-0.036998905 0.06799997 0.02955568 0.026907908 0.04756499 -0.017385093 0.039615035 0.06048325
-0.048947122 0.045374136 -0.021995138 0.048787683 -0.018932406 -0.04368175 0.04611841 0.03694649
0.033916697 0.0343595 0.00973702 -0.016882852 0.028080616 -0.041738443 -0.002117739 0.02242086
0.03863856 -0.06545419 -0.0505154 -0.009940922 -0.020320613 0.039062634 -0.06772966 -0.048205055
0.059601903 0.043837517 0.06914552 0.06429386 0.0027165755 0.03319862 -0.036879417 -0.030651651
00000000: f6f2 7d3d fc69 32bd 966d 393d aff0 b5bc
00000010: 29ec e13c c246 27bd e33c 10bc dcd8 e13c
00000020: 0e3a 6b3d 8c38 35bd e065 c33c 9753 26bc
00000030: 8f33 8e3d 3914 f1bc b3e9 18bc aedc 2c3d
00000040: bd0d e6bc 1b6f 163d 7088 0d3d bde4 ac3c
00000050: 571f 79bd ec64 6ebc ef6c 933c e562 2cbd
00000060: 835f 25bc 6f45 8a3d 13cb 653b 5631 86bd
00000070: 2ea5 393d 463c 66bb 76fe 8f3c 816a c43c
00000080: 31d0 773c 4f63 853d 4e80 373d 8c24 5b3d
00000090: 7c34 1ebd 70b9 4f3d 1b94 923d 4205 07bd
000000a0: a3dd a23c b68e c13c ca67 e0bc ecfb 3ebd
000000b0: 6a2a 2ebd 19d8 cb3c b27c 7fbc 2a2e 4abd
000000c0: 6ac9 3ebc cd6e 6abd 9f70 7bbd 6c1b 7dbd
000000d0: 34b9 65bc 18af d63c 4e70 8dbc 776d 913d
000000e0: c046 10bc 3162 f2bb f11f 773d 6630 46bb
000000f0: f3dd 993d b6e7 ee3b 792b 45bd 38fb d63c
00000100: ccef 003d e807 5bbd 4f33 843d 9380 813d
00000110: 42d9 b4bc 9d36 8abd d0f1 20bd 1289 88bd
00000120: bec1 413c 97b5 c63c 7423 213d 96f7 843c
00000130: 7c95 cbbc 81e8 40bd 0c5f d93c 08b8 0dbd
00000140: 0db3 4e3d 3f33 533d 0b18 143c 8b5b 663b
00000150: effd 343c 7953 c43c 6eb9 5dbd e37d d33c
00000160: 2a8c 17bd 9143 8b3d c11e f23c f96d dc3c
00000170: 82d3 423d 2f6b 8ebc 6043 223d 49bd 773d
00000180: c77c 48bd 3bda 393d 262f b4bc 98d5 473d
00000190: 2218 9bbc a2eb 32bd a8e6 3c3d 3455 173d
000001a0: 3cec 0a3d 8cbc 0c3d 0688 1f3c e84d 8abc
000001b0: 5209 e63c eef5 2abd c4c9 0abb f4ab b73c
000001c0: 7743 1e3d d90c 86bd 3ce9 4ebd 40df 22bc
000001d0: 6a77 a6bc 2400 203d d9b5 8abd aa72 45bd
000001e0: 2021 743d f88e 333d 2b9c 8d3d 80ac 833d
000001f0: 9308 323b 47fb 073d df0e 17bd 2c19 fbbc

fc2.weight f4 [64, 128]
-0.059601426 0.028256267 0.033815585 0.079321004 -0.08495675 -0.0025858656 -0.052832685 0.04604221
-0.002107121 0.012266353 0.0146121085 0.07103755 -0.012862176 -0.018377766 -0.05552179 -0.0850295
0.067248456 0.05748575 0.021837302 0.042001255 -0.05364062 0.06290456 -0.08015041 -0.088299215
-0.030460633 0.03243263 -0.03183404 -0.070910156 -0.05021188 0.02921015 -0.031076 -0.012348153
0.08011057 0.006199971 0.006929025 -0.06619317 0.085478626 0.017638698 0.007689327 -0.049374115
0.045991845 0.033302657 0.038760103 0.042099513 0.028270833 -0.08140206 -0.06586944 0.06635138
0.07828695 0.027656615 0.04808434 0.004360229 -0.024690107 0.04850524 -0.021958932 -0.023845255
-0.077709064 -0.072500825 0.064198606 0.0029446557 0.049176075 0.0059443936 -0.073801845 0.0031535923
0.009123474 -0.030497313 -0.05234549 0.08456891 0.054450937 -0.067802235 0.03168015 -0.0065666065
0.009361349 -0.076980785 -0.0041596442 -0.016317531 0.0016858652 -0.05299395 0.08410374 -0.007680759
-0.06365449 0.05950261 -0.036371656 0.0815602 0.022952594 -0.036313407 -0.07129298 -0.07544841
-0.05073687 -0.07424283 0.001873143 -0.08120729 -0.02760236 0.026352897 -0.006964758 -0.07537402
-0.05891391 -0.028272264 -0.037991304 0.08291941 0.056289904 -0.00060269237 0.009386681 -0.086357795
0.003175564 0.08354009 0.04286299 -0.015525274 0.06541989 -0.08463537 -0.02915505 -0.04737232
-0.06464428 0.011237942 -0.012881391 -0.080576375 0.022807702 -0.030020155 -0.029206786 -0.0066794977
-0.059664395 0.015432209 -0.036136687 -0.083486974 -0.038549688 0.07937101 -0.05308505 -0.05955004
0.050795335 -0.002372083 -0.018957315 -0.005757099 0.052132662 0.0258387 0.03157004 0.01794698
0.02458097 -0.0040093386 0.061036818 -0.06508291 0.07065963 -0.085006826 -0.007901595 -0.07756795
-0.0052834717 -0.00689039 0.05466411 -0.015056123 0.013096592 -0.080171525 0.061044756 0.0027920327
-0.034243356 -0.030972369 -0.08325897 -0.029023135 0.065726355 0.043920893 0.041114908 0.04007285
-0.07235079 0.087078445 -0.08593525 0.036147017 0.082295835 -0.08533459 -0.071783856 -0.0015618495
0.016442934 0.032580886 -0.060371917 0.06704919 -0.031098071 0.08351868 -0.05282625 0.059704956
-0.026613347 0.07088754 0.0008723769 -0.03571262 0.021775216 -0.06582527 0.00026696065 -0.06058372
0.041315295 0.06857949 0.05399977 0.06653716 -0.016210573 0.038943257 -0.02177181 0.06058077
-0.038183957 0.021405341 -0.034014896 0.0145417005 0.03983733 0.052845545 0.027898053 0.047678713
0.040358488 -0.080793716 0.07454299 -0.0033312205 -0.0077985046 -0.046489406 -0.07656729 0.042594034
-0.06556126 -0.04981353 0.08145295 0.038908575 0.0803309 -0.05016854 -0.019489897 -0.086881325
-0.034016408 0.06500546 0.06820098 -0.008426747 -0.047361568 -0.008440889 0.028597103 0.006192461
0.047929835 0.08219027 0.0046862513 -0.010971457 0.0772423 -0.06851008 0.07366719 -0.006916409
0.084556945 -0.07749518 0.047272246 -0.0051864246 0.055025928 0.03343145 -0.071121685 0.02800699
0.05695974 -0.03676058 -0.037951328 0.0036912486 0.0686311 -0.012231077 0.032237306 0.04471286
-0.06575012 0.04015807 -0.079049125 -0.0639605 0.016991412 -0.007995729 -0.025271948 0.020248463
00000000: a020 74bd b079 e73c 3682 0a3d 0d73 a23d
00000010: cefd adbd a077 29bb 1667 58bd c296 3c3d
00000020: a017 0abb d0f8 483c a067 6f3c 237c 913d
00000030: e0bb 52bc f88c 96bc d16a 63bd f223 aebd
00000040: 8fb9 893d 2e76 6b3d 24e4 b23c 8209 2c3d
00000050: 44b6 5bbd 1bd4 803d e625 a4bd 38d6 b4bd
00000060: 9488 f9bc 14d8 043d 6964 02bd 5839 91bd
00000070: f9aa 4dbd 204a ef3c 1893 febc e84f 4abc
00000080: 0311 a43d 2029 cb3b e00c e33b 4990 87bd
00000090: 6b0f af3d 087f 903c c0f6 fb3b 833c 4abd
000000a0: f261 3c3d 5e68 083d eac2 1e3d 8a70 2c3d
000000b0: 3c98 e73c 20b6 a6bd 8fe6 86bd 3be3 873d
000000c0: e954 a03d 2090 e23c 16f4 443d 40e0 8e3b
000000d0: e842 cabc 6ead 463d 38e3 b3bc 2057 c3bc
000000e0: ee25 9fbd 507b 94bd 8f7a 833d 20fb 403b
000000f0: da6c 493d 30c9 c23b 6c25 97bd 80ac 4e3b
00000100: a07a 153c 80d5 f9bc 3968 56bd 7732 ad3d
00000110: f207 5f3d e6db 8abd 0cc3 013d b02c d7bb
00000120: 5860 193c 1aa8 9dbd a04d 88bb 58ac 85bc
00000130: 40f8 dc3a 2f10 59bd 953e ac3d e0ae fbbb
00000140: 495d 82bd 02b9 733d 72fa 14bd 0909 a73d
00000150: 1407 bc3c 5ebd 14bd 0e02 92bd b284 9abd
00000160: 77d1 4fbd a00c 98bd 4084 f53a 0250 a6bd
00000170: 581e e2bc 08e2 d73c a038 e4bb b25d 9abd
00000180: b64f 71bd 3c9b e7bc c59c 1bbd a7d1 a93d
00000190: 3e90 663d 00fe 1dba 98ca 193c 5bdc b0bd
000001a0: 201d 503b 1117 ab3d 1a91 2f3d b85d 7ebc
000001b0: ddfa 853d 4f55 adbd 92d6 eebc 7a09 42bd
000001c0: 3864 84bd 581f 383c 780c 53bc 3a05 a5bd
000001d0: 38d7 ba3c d4ec f5bc 1243 efbc b0df dabb
000001e0: a762 74bd 60d7 7c3c 1004 14bd 38fb aabd
000001f0: 47e6 1dbd 458d a23d b66f 59bd beea 73bd
00000200: c50e 503d f374 1bbb 5f4c 9bbc 0ca6 bcbb
00000210: 0f89 553d aeab d33c 964f 013d 8c05 933c
00000220: 085e c93c c560 83bb be01 7a3d 304a 85bd
00000230: ffb5 903d 0f18 aebd b175 01bc f2db 9ebd
00000240: f920 adbb c8c8 e1bb 79e7 5f3d f5ad 76bc
00000250: 1793 563c f830 a4bd 110a 7a3d 89fa 363b
00000260: c342 0cbd c4b9 fdbc ae83 aabd edc1 edbc
00000270: 8a9b 863d 65e6 333d 1b68 283d 6e23 243d
00000280: a72c 94bd 2f56 b23d d2fe afbd e50e 143d
00000290: b88a a83d e7c3 aebd 6a03 93bd f9b6 ccba
000002a0: 55b3 863c 8973 053d 8b48 77bd 1651 893d
000002b0: 62c1 febc d70b ab3d 5760 58bd 2f8d 743d
000002c0: 3c04 dabc 7d2d 913d 39b0 643a 6547 12bd
000002d0: f061 b23c 66cf 86bd daf6 8b39 a326 78bd
000002e0: 3a3a 293d 6773 8c3d dd2e 5d3d a244 883d
000002f0: 09cc 84bc f782 1f3d cb5a b2bc 8b23 783d
00000300: c866 1cbd 415a af3c 3453 0bbd 5040 6e3c
00000310: 782c 233d 9274 583d 758a e43c c14a 433d
00000320: f14e 253d 2d77 a5bd ffa9 983d 9b50 5abb
00000330: 998a ffbb ad6b 3ebd 50cf 9cbd 1577 2e3d
00000340: fb44 86bd 4609 4cbd ced0 a63d 995e 1f3d
00000350: 8784 a43d 877d 4dbd 47a9 9fbc d6ee b1bd
00000360: ca54 0bbd 9521 853d f5ac 8b3d 5710 0abc
00000370: 34fe 41bd a84b 0abc 7944 ea3c 21ea ca3b
00000380: 1352 443d 5f53 a83d 208f 993b a0c1 33bc
00000390: 3631 9e3d 034f 8cbd d3de 963d 0ba3 e2bb
000003a0: 312c ad3d cbb5 9ebd 8ba0 413d e2f2 a9bb
000003b0: de62 613d 6bef 083d 3fa8 91bd ea6e e53c
000003c0: 9e4e 693d 4392 16bd da72 1bbd e0e8 713b
000003d0: 768e 8c3d db64 48bc 440b 043d d524 373d
000003e0: 00a8 86bd ca7c 243d 82e4 a1bd b9fd 82bd
000003f0: 9331 8b3c 8500 03bc 1e07 cfbc 1be0 a53c

fc2.bias f4 [64]
0.015972093 0.057901524 0.062564336 0.034090683 0.02236579 0.075569816 0.05891511 -0.0023428712
0.010406576 -0.07095223 -0.06579435 -0.04961816 -0.03424271 -0.060034007 -0.054704245 -0.057201512
-0.02341941 0.070034586 0.07487829 -0.069103666 -0.060305577 0.05311676 0.029242307 0.038770176
0.03129819 -0.06834532 -0.0061766244 0.032675847 -0.08247883 0.008214789 0.0800144 -0.053083364
0.08731927 0.009253034 -0.024045616 -0.025355967 -0.0760222 -0.054174863 0.07833161 -0.061410576
0.047251787 -0.01889152 -0.0590721 -0.07894399 0.03760401 0.08037699 0.06969677 -0.014991537
0.023872964 0.055830296 -0.06046552 0.024012975 0.033339493 0.03106706 0.07503706 -0.051132314
0.04915898 0.008692271 0.034447465 -0.048517317 -0.004400442 -0.02669514 0.059087202 -0.05614159
00000000: e8d7 823c 262a 6d3d bb21 803d aca2 0b3d
00000010: 7638 b73c 59c4 9a3d f850 713d db8a 19bb
00000020: 5880 2a3c 674f 91bd 30bf 86bd 693c 4bbd
00000030: 1542 0cbd 38e6 75bd 8f11 60bd 224c 6abd
00000040: 10da bfbc 4b6e 8f3d ca59 993d 3986 8dbd
00000050: fb02 77bd f690 593d 908d ef3c 7acd 1e3d
00000060: 8832 003d a2f8 8bbd 4865 cabb 1cd7 053d
00000070: a9ea a8bd 5397 063c 97de a33d f16d 59bd
00000080: 72d4 b23d 0a9a 173c 50fb c4bc 51b7 cfbc
00000090: 87b1 9bbd 76e6 5dbd 536c a03d a889 7bbd
000000a0: 178b 413d 64c2 9abc 96f5 71bd 63ad a1bd
000000b0: aa06 1a3d b19c a43d 2ebd 8e3d 109f 75bc
000000c0: 3c91 c33c 4fae 643d b1aa 77bd dcb6 c43c
000000d0: fe8e 083d 5980 fe3c 08ad 993d 1e70 51bd
000000e0: ed5a 493d 076a 0e3c c918 0d3d 18ba 46bd
000000f0: 9531 90bb c4af dabc 6c05 723d b9f4 65bd

fc3.weight f4 [2, 64]
0.07732414 -0.047284998 0.117273815 0.028081993 0.074611016 -0.050148163 -0.08640111 0.095651105
-0.055589177 -0.0107179005 -0.018227251 0.033484176 -0.008100788 -0.009141374 0.056805793 0.12118812
-0.0015242696 0.012897589 -0.0544213 0.021019474 -0.008251428 -0.11517466 -0.053319763 -0.11844262
0.11629436 0.11385309 -0.028585052 0.102977335 -0.05099149 0.119649835 -0.025122713 -0.0950039
0.006597888 0.028968705 -0.050452843 0.10333948 0.11271037 -0.05271876 -0.050399013 0.05766306
0.06527154 0.036113665 -0.046506353 0.101869464 0.066091165 -0.017008208 -0.10425579 0.08338137
0.059764896 -0.0702305 0.09694092 -0.04294001 -0.0877016 -0.00800876 -0.03168377 0.01066371
-0.08156505 0.113834865 0.051340245 -0.080775976 -0.048354156 0.025090218 0.0019611164 0.08885616
-0.11824559 0.0173262 -0.02643026 0.0048313034 -0.06722099 -0.013147659 0.11386687 -0.029599708
-0.0006441317 0.03557299 0.08871301 -0.05948398 0.09943529 0.10565078 -0.107190125 0.037269358
0.121305734 -0.101526596 0.07910646 0.05041827 0.047749184 -0.07528003 0.03791557 0.1325889
-0.029017555 -0.059177417 -0.012275933 0.025861865 0.033526614 -0.07768627 -0.07954183 0.05894734
-0.017608183 0.057252333 0.032987297 -0.057621274 0.03544864 0.12410462 0.07347712 0.025986385
0.04948578 0.014384285 -0.03740012 -0.07822444 0.019844716 0.018653296 -0.004312194 0.12175867
0.12087595 -0.05050416 -0.07730767 -0.015557027 0.009967069 -0.08109904 0.124117054 -0.09261021
-0.030846652 0.11270309 -0.08454613 0.056170136 -0.014248443 0.063182876 0.08617432 0.023960108
00000000: 1e5c 9e3d eaad 41bd 412d f03d 350c e63c
00000010: a9cd 983d 2968 4dbd 11f3 b0bd bae4 c33d
00000020: 7ab1 63bd 229a 2fbc 5151 95bc b426 093d
00000030: 2bb9 04bc b4c5 15bc 31ad 683d 7a31 f83d
00000040: 00ca c7ba 6950 533c dee8 5ebd 0831 ac3c
00000050: ff30 07bc b1e0 ebbd d365 5abd 0b92 f2bd
00000060: bd2b ee3d cf2b e93d 332b eabc c8e5 d23d
00000070: 74dc 50bd f90a f53d 26ce cdbc 6891 c2bd
00000080: 1933 d83b c74f ed3c a4a7 4ebd a6a3 d33d
00000090: b2d4 e63d a0ef 57bd 326f 4ebd 1a30 6c3d
000000a0: 16ad 853d eceb 133d 727d 3ebd f0a0 d03d
000000b0: ce5a 873d cc54 8bbc 0f84 d5bd dac3 aa3d
000000c0: 09cc 743d 02d5 8fbd f688 c63d dde1 2fbd
000000d0: e59c b3bd 2d37 03bc d7c6 01bd d7b6 2e3c
000000e0: 940b a7bd 4122 e93d 264a 523d e06d a5bd
000000f0: 020f 46bd 008a cd3c 1386 003b 38fa b53d
00000100: be2a f2bd adef 8d3c 4684 d8bc e94f 9e3b
00000110: 29ab 89bd 4769 57bc 0933 e93d 167b f2bc
00000120: f2da 28ba fcb4 113d 2baf b53d 79a5 73bd
00000130: bba4 cb3d 705f d83d 7f86 dbbd c1a7 183d
00000140: 246f f83d 2ded cfbd 9102 a23d 6383 4e3d
00000150: a694 433d 6b2c 9abd 5b4d 1b3d 62c5 073e
00000160: 39b6 edbc 0564 72bd ff20 49bc 43dc d33c
00000170: 3453 093d fb19 9fbd d4e6 a2bd c472 713d
00000180: 093f 90bc 6c81 6a3d b01d 073d 4904 6cbd
00000190: 9832 113d 902a fe3d 2c7b 963d 66e1 d43c
000001a0: 9ab1 4a3d 10ac 6b3c de30 19bd 2334 a0bd
000001b0: 6391 a23c ccce 983c 4e4d 8dbb 9c5c f93d
000001c0: cf8d f73d 73dd 4ebd 7c53 9ebd e7e2 7ebc
000001d0: eb4c 233c 4117 a6bd 1531 fe3d 6caa bdbd
000001e0: 1eb2 fcbc e1d0 e63d 8526 adbd a812 663d
000001f0: 4d72 69bc 0666 813d 297c b03d fd47 c43c

fc3.bias f4 [2]
-0.113506176 -0.10239454
00000000: ed75 e8bd 3bb4 d1bd
