model_to_load/mod64_save2.pt (torch_old, 172265 bytes, 12 tensors)

conv1.weight f4 [18, 64]
000000 d0 0a 99 bc 4d 73 83 be 0c d0 84 3e 72 45 5b 3e
       -0.018681914 -0.25673905 0.25939977 0.2141321
000010 40 f0 32 3c 6c 8c 25 3e 77 b5 88 be 60 3a 8a 3e
       0.010921538 0.16166848 -0.26700947 0.26997662
000020 98 5b 68 3d 70 e5 23 3e f8 d1 2c 3e 9c 10 b1 3d
       0.056727976 0.16005492 0.16876972 0.08645746
000030 b2 55 82 3e a0 3e 08 3c 44 04 79 3e 14 c0 4b be
       0.25456005 0.008315712 0.24318033 -0.1989749
000040 a9 79 75 be e4 d3 67 be 79 40 49 be b0 13 98 3c
       -0.23972191 -0.22639424 -0.196535 0.018564075
000050 c6 03 7e be f0 53 d2 3d 70 b5 cd 3d 68 bf 57 3e
       -0.24806127 0.10269916 0.10044372 0.2106911
000060 a5 44 12 be 70 d7 d2 3d 30 ad 1e 3d 36 bd 44 be
       -0.14283998 0.10294998 0.038739383 -0.19212803
000070 ec 78 5d 3e 80 2b 5c bd 12 4a 20 3e 10 5d 7f bd
       0.2162816 -0.053752422 0.15653256 -0.06234461
000080 17 a3 0f be 9c 97 b8 bd dc be f1 3d c0 a4 cd bd
       -0.14027058 -0.09013292 0.11803982 -0.10041189
000090 12 bd 9d bd a4 ef dc 3d 2c 98 c7 3d 40 5e 66 be
       -0.07702078 0.10787895 0.09745821 -0.22496891
0000a0 28 bc db bc 8a 4f 22 3e 70 b3 b8 bd 10 e6 54 3d
       -0.026823118 0.15850654 -0.090186 0.051977217
0000b0 e7 10 5c be 00 76 4f 3c d8 23 84 be 1a 9c 3e 3e
       -0.21490823 0.012662411 -0.25808597 0.18614236
0000c0 b8 3f 82 3e 3a 2a d1 bd 3b 09 27 be f4 ac c7 3d
       0.2543924 -0.10213132 -0.16312115 0.09749785
0000d0 54 d7 46 bd f8 ba 2a be 4a e3 4e 3e 98 bd 4d 3e
       -0.048545197 -0.16672885 0.20203891 0.20091856
0000e0 d0 81 81 3e 80 d6 37 3e b8 7e 7c 3d 38 e6 c9 bc
       0.25294352 0.17952919 0.061644286 -0.02464591
0000f0 88 2c f0 bd 16 00 5e 3e a6 5d 5f 3e cd 8f 7c be
       -0.11727244 0.2167972 0.21813068 -0.2466423
000100 c6 73 63 bd b2 aa 66 bd d9 bb 2e be e6 3a 6d 3e
       -0.055530332 -0.05631513 -0.17063846 0.23166999
000110 bd 2a 87 3e 01 93 9d 3d e9 e3 cb 3d c0 6b 8b be
       0.26399794 0.076940544 0.0995558 -0.27230644
000120 96 03 22 bd 4d 86 86 3e 48 3a 7c be f0 63 83 3d
       -0.0395542 0.26274338 -0.24631608 0.06415546
000130 50 1e 72 3e 91 26 de 3d d8 e3 64 be 85 c6 38 3e
       0.23644376 0.108472 -0.2235254 0.18044479
000140 32 09 5a be d0 2b c5 bb c8 29 6f 3e 56 43 0a bd
       -0.2129257 -0.0060171857 0.23355782 -0.033755623
000150 d3 2a 37 bd 3a d3 0c be 03 b4 4e 3e eb b4 3b be
       -0.044718575 -0.13752452 0.20185857 -0.18330733
000160 17 43 66 be db 8e 77 bd 33 9f a8 bd 4c 8f 43 3e
       -0.2248653 -0.060438972 -0.0823349 0.19097632
000170 0d ce 3a be 13 61 8d 3d 0c 40 ab 3c 79 8b 24 3e
       -0.18242665 0.06903281 0.020904563 0.1606883
000180 a1 1e 99 3c a8 0b 6d be 4e f4 19 be 01 94 83 be
       0.018691363 -0.23148978 -0.15034601 -0.25698856
000190 d6 51 ce bd 45 75 0a 3d 2e bb 9b 3b 5b 1a 80 be
       -0.10074203 0.033803243 0.004752538 -0.25020108
0001a0 70 1b 3e 3e 4b 78 8f 3e e1 7a a5 bd 2b 24 32 3e
       0.18565154 0.28021464 -0.08080078 0.1739661
0001b0 9b 43 03 be 1b 5b 37 3e b4 dd 8b 3e f7 a3 24 bd
       -0.12818758 0.17905848 0.27317584 -0.04019543
0001c0 b3 df 1d be 53 fb f6 3d 9d 1f 9e 3d 19 ca 2a be
       -0.15417366 0.12059655 0.077208735 -0.16678657
0001d0 8e af f6 3d 10 1f 5b be 83 e0 c3 bd 9f 47 1f 3e
       0.12045203 -0.21398568 -0.095643066 0.15554665
0001e0 4a 9f 8b 3d a7 04 6a 3e cd ce 46 3e 29 cf 6e bd
       0.06817491 0.22853337 0.19414826 -0.058303032
0001f0 cc a1 98 3d 84 4b ff bd ac 4c a8 bc f8 b2 99 3d
       0.07452735 -0.12465575 -0.020544372 0.07504839
000200 57 24 90 bd be 6b 5a be 4f 3f 4a 3e 22 bc cb bc
       -0.07038181 -0.21330163 0.19750713 -0.024869982
000210 85 fb 84 be 29 d1 75 be a2 7b e6 bd 0f 10 8a be
       -0.25973144 -0.2400557 -0.1125405 -0.26965377
000220 ec d5 67 be 64 3b 69 bd 4f f2 83 be b9 04 c9 bd
       -0.22640198 -0.056941405 -0.25770804 -0.09815354
000230 a3 63 af 3d 21 f8 c4 3d 9b 4b 37 be 92 3a 36 be
       0.08563926 0.09617639 -0.17899935 -0.1779578
000240 f6 51 81 3d 99 b6 63 3e 08 43 b4 bd b3 be 59 bd
       0.06314461 0.22237624 -0.08801848 -0.05316038
000250 37 22 3c 3e 5e a7 92 bd 7e b7 40 be 07 f7 68 be
       0.18372427 -0.07160829 -0.18819997 -0.22750483
000260 73 64 c2 3d 4d f6 8a be 81 03 35 3d 30 b7 f7 bd
       0.094918154 -0.27141038 0.044192795 -0.12095487
000270 7b 51 8b be d6 55 7c 3e 78 e4 5c 3e 39 2c a4 3d
       -0.27210602 0.24642119 0.21571529 0.08016247
000280 cf c3 85 3e 3c af 92 3d a2 ee 6e 3e 3d aa 38 3d
       0.26125953 0.071623296 0.23333219 0.045084227
000290 8e 6b 4c 3e b5 09 94 bd 4a 45 82 be 7d 2f ce bd
       0.19962904 -0.07228414 -0.25443488 -0.100676514
0002a0 d5 a3 23 3e 04 f5 3e be 35 04 ea 3d 28 de 84 be
       0.15980466 -0.18648154 0.11426584 -0.25950742
0002b0 f6 3c 4e 3d 1e 84 6d be 6d 7f dd bd 94 68 d1 3d
       0.050351106 -0.2319493 -0.1081532 0.10225025
0002c0 28 e0 82 be df b3 b8 3c 57 7a 3e be 13 7b 33 3e
       -0.25561643 0.022546707 -0.18601356 0.17527418
0002d0 00 57 bc 3c c6 b3 28 be 95 a1 b2 3c 9f 69 25 be
       0.022990704 -0.16474828 0.021805564 -0.16153572
0002e0 92 53 6d 3e 41 37 1e 3e 36 a8 a1 3c 6c fc 4a 3e
       0.23176411 0.15450765 0.01973353 0.19822854
0002f0 e0 e3 b9 bc b0 49 7e 3e d9 bd 59 be 3f 8b 21 3d
       -0.022691667 0.24832797 -0.21263827 0.039439436
000300 77 c4 a9 bd b7 82 af 3d 8e da 4e 3e 39 41 3f 3e
       -0.08289426 0.08569854 0.2020056 0.18677224
000310 c6 95 46 be 5b 36 fc bd 47 53 45 3e 3d 77 10 be
       -0.19393072 -0.12315055 0.19270049 -0.14107986
000320 1b 00 6a 3c 8c 80 82 3e 9d 16 af 3d 47 e9 dc bd
       0.014282252 0.25488698 0.08549235 -0.107866816
000330 a6 be 18 3e f9 f8 bb 3d 93 55 3b 3e 99 49 5f 3e
       0.14916477 0.09178347 0.18294363 0.21805419
000340 a8 9c 56 3e 64 43 0f 3e d5 6b e1 bc 94 e2 41 be
       0.20958197 0.13990551 -0.027517239 -0.18934089
000350 d2 e8 0d 3e cd bc 1a be 2d 6b 52 3d 71 f1 0d be
       0.13858345 -0.15111084 0.051371742 -0.13861634
000360 97 50 e9 bd 0e 8e 88 3e 50 7b 4b bd 71 86 47 3e
       -0.113923244 0.2667088 -0.049678147 0.19484879
000370 24 04 3f 3e 92 f4 82 bd a4 da 7d 3e 1e 94 14 3e
       0.18653923 -0.06394304 0.24790436 0.14509627
000380 82 f1 59 3e 92 60 78 be 44 45 05 3e 42 ac 0a 3e
       0.21283534 -0.24255589 0.13014704 0.13542274
000390 ad b8 48 3e 9e ce 74 bd a1 a2 10 be ad 3f 7c be
       0.19601698 -0.059767358 -0.14124538 -0.24633665
0003a0 fe 80 45 bd 7a 38 90 bd f2 80 99 3d 29 ce 7b 3e
       -0.04821872 -0.07042022 0.074952975 0.24590363
0003b0 c3 d1 4c be 73 67 fd bd 31 ed e8 bd b8 2b 17 3e
       -0.20001893 -0.12373247 -0.11373366 0.14762771
0003c0 09 3c 42 be c1 01 0a be 2a 78 3c 3e 6e de 55 3e
       -0.18968214 -0.13477232 0.18405214 0.20885631
0003d0 4b 49 99 3d fe 32 ad 3d 91 3a 86 be 40 45 1d 3e
       0.07484683 0.084569916 -0.26216558 0.15358448
0003e0 a2 09 29 be b5 be ec bd cb e1 7b 3e f4 f7 33 3c
       -0.16507581 -0.11559812 0.24597852 0.01098441
0003f0 ec c5 62 bd 5a b7 87 3e 71 f7 49 bd 4d ac 7f be
       -0.055364534 0.26507074 -0.049308244 -0.24968071

conv1.bias f4 [64]
000000 3f b5 f9 3b 7d 2e 29 bb 71 35 45 3b 1c f5 40 ba
       0.007620483 -0.0025815063 0.0030091668 -0.0007360743
000010 45 2b 1c 3c 57 1d 95 ba 5d c8 e7 b9 83 65 dd bb
       0.009531801 -0.0011376542 -0.00044209036 -0.006756486
000020 2a 8a 70 b9 d1 9e 50 ba 88 c5 5d b9 20 4f fc 3a
       -0.00022939654 -0.0007958236 -0.00021149789 0.0019249655
000030 c0 58 a3 3b b2 65 fe 3a 6e 6e e0 ba 76 36 18 bb
       0.004984945 0.001940897 -0.0017122754 -0.002322582
000040 b4 d3 44 3b da 00 a6 ba d2 a5 f6 3a 31 5e 87 bb
       0.0030033411 -0.0012665049 0.0018817729 -0.0041311015
000050 50 33 df ba e4 ed e4 3b 67 51 f3 3b 9b be 48 bb
       -0.0017028842 0.0069863666 0.0074254754 -0.0030631188
000060 ad 16 f9 ba 55 d7 04 ba 56 81 ea 3b c0 3d b1 ba
       -0.001900395 -0.00050674874 0.0071565313 -0.0013522431
000070 9c 14 e0 b8 85 74 31 3b 11 c5 d6 3a 6f 0e b5 3b
       -0.00010684991 0.0027077508 0.0016385635 0.0055254023
000080 b4 e1 3f bb 9f ca ee ba 3b e3 35 3a 8c e6 99 3b
       -0.0029278817 -0.0018218345 0.0006938462 0.004696673
000090 ad 75 78 3a bd 04 88 b9 a5 cb 65 3b 16 c7 c4 ba
       0.0009477984 -0.00025943472 0.0035064009 -0.0015012946
0000a0 f5 9b ab ba 1c b4 db 3a fa e4 00 39 ea 26 28 ba
       -0.0013092743 0.0016762051 0.00012292332 -0.000641449
0000b0 39 72 e6 3b 3b 89 8c b9 0e 6a 40 bb 0b 8a 0d 3b
       0.0070326594 -0.00026805126 -0.0029360089 0.0021597173
0000c0 23 47 ed ba cb 98 1f 3c fb be 3f 3b ae 58 25 ba
       -0.0018102865 0.0097410185 0.002925812 -0.0006307465
0000d0 d0 2e f2 3b 63 76 87 3b ef b3 78 3a 6a ba 46 3b
       0.0073908344 0.004133986 0.00094872614 0.0030323514
0000e0 1c c6 1e 3b 9c 4e 3c b9 40 f3 70 bb 0f 3f 2a 39
       0.002422697 -0.00017958361 -0.0036766082 0.00016235955
0000f0 b5 60 a3 3b 91 df 02 ba f5 44 0c 3b 95 f9 e1 bb
       0.0049858936 -0.00049924204 0.0021403406 -0.0068962076

conv2.weight f4 [64, 64]
000000 cf 57 84 3b 92 70 b0 3d b4 a7 1f be 24 82 10 be
       0.004038788 0.08615221 -0.15591317 -0.14112145
000010 7c fa a6 bd 15 de 34 3e ba 2d c5 3d 56 33 87 bc
       -0.08153245 0.17662843 0.09627862 -0.016503971
000020 81 48 2c bc cb d0 1c 3e ea 17 0c bc 6e 92 21 be
       -0.010515333 0.15314023 -0.008550623 -0.15778515
000030 6a 3c db bd 79 14 3a 3b f1 19 61 3c 2f 6c 17 3d
       -0.107048824 0.002839355 0.013739095 0.036968406
000040 4b 5d 56 3e 36 ca 37 3e a5 90 82 bd 3c b1 cb bd
       0.20934026 0.17948231 -0.06375245 -0.09945914
000050 0f 9f 4b 3e 30 63 00 be f7 38 2f 3e 6e 44 2b be
       0.19884895 -0.12537837 0.17111574 -0.16725323
000060 d7 03 ac bc 6f 97 4d 3e 3a 89 29 3e ab 15 17 3e
       -0.020997925 0.20077299 0.16556254 0.1475436
000070 c2 18 25 3e e5 6d c2 3d 04 47 0b be 48 ec 4c be
       0.16122726 0.09493617 -0.13601309 -0.20012009
000080 3c f1 80 bd d4 fd 3d 3e 31 d9 6d 3d 6d 89 e5 bd
       -0.06296012 0.18553859 0.058068458 -0.112078525
000090 ab dd 3b 3e e1 38 7a bd 57 7d ad bd 51 ae 17 be
       0.18346278 -0.0610894 -0.08471172 -0.1481259
0000a0 13 7f 4d 3d 02 87 4d 3e 4d 53 ee bc 16 36 07 3e
       0.050170016 0.20071033 -0.029092455 0.13204226
0000b0 23 fd d2 3c 5d c7 4c 3e f3 66 2d 3e bf 8f 5e 3e
       0.02575547 0.19997926 0.16933803 0.21734522
0000c0 0a 59 3c bd a1 69 3a bc 0d c1 29 3e d3 6d 54 3b
       -0.04598335 -0.011377723 0.1657755 0.0032414093
0000d0 ea 1c 2a 3e 1f 90 4a 3e 68 54 06 3d 78 ae 6c bd
       0.16612592 0.1978154 0.03279534 -0.057783574
0000e0 d4 b7 18 3c 37 1d 9a bc f0 38 5d bd 54 c0 24 be
       0.009321172 -0.018812759 -0.054009378 -0.16088992
0000f0 4e f6 58 3e e2 53 c1 3d c3 36 d3 3c b1 07 2e bd
       0.21187708 0.094398275 0.025782948 -0.042487804
000100 6a dd 40 3d d9 26 bf bd a4 a6 17 3e a6 d9 ea 3d
       0.047086157 -0.093335815 0.14809662 0.114672944
000110 67 ab 41 3d 97 ea 58 3e c2 c7 14 3e 6c a1 ed 3d
       0.047282603 0.21183239 0.14529327 0.116030544
000120 15 18 20 3e 0c 2d 6d 3d 87 5d 90 bd 72 dc 0e be
       0.15634187 0.05790429 -0.07049089 -0.1395128
000130 33 44 34 3e a4 df d4 bc c4 d6 c4 bb 6f 52 0c be
       0.17604141 -0.025985546 -0.0060070474 -0.13703321
000140 82 90 b6 bd 0d b6 21 be d5 6a 50 3e f8 73 15 3e
       -0.089142814 -0.15792103 0.20353253 0.1459502
000150 da be 40 3d 30 fa 03 3e 13 1e 03 be ad 58 38 3e
       0.04705701 0.12888408 -0.12804441 0.18002577
000160 a2 2b cf bd 4a 6f 0d be 9a 32 ef 3b 8d 7e 1a be
       -0.10115744 -0.13811985 0.0072997333 -0.15087338
000170 8c 1e 30 be ab 5c e8 3d df d4 1e be 58 ca 93 bd
       -0.17199153 0.113458 -0.15510891 -0.072163284
000180 c1 54 47 be c0 e2 0c be 31 75 b3 bd ed 67 c3 bd
       -0.19465925 -0.13758373 -0.08762587 -0.09541307
000190 29 3f 41 3e 0c 4e 36 3d 28 6e 8b 3d 85 48 35 3e
       0.1887175 0.044508025 0.0680812 0.17703445
0001a0 76 1f 09 be d9 76 1d be 57 dc 14 be a4 b5 38 be
       -0.13390908 -0.15377368 -0.14537178 -0.1803804
0001b0 b0 db 1c be 29 47 34 3e 73 3b 00 3e 9c a1 1c 3d
       -0.15318179 0.1760527 0.12522678 0.03824006
0001c0 6b b9 53 3e 8e 56 20 bd 6c c8 41 bd f2 5c 48 be
       0.206762 -0.039145045 -0.047310278 -0.19566706
0001d0 f1 a1 5b bc 39 48 9b 3b 5f 1f 51 3d 11 ae 90 3c
       -0.013405309 0.004738834 0.05105531 0.017661126
0001e0 6e 02 18 3e 1a 62 c8 3d 02 22 19 be c9 54 e9 3d
       0.14844677 0.097843364 -0.14954379 0.113931246
0001f0 f5 ac b6 bd 5e 46 11 be 2e 05 94 bd 53 71 59 3e
       -0.08919708 -0.14186999 -0.072275504 0.21234636
000200 67 75 49 be c1 9c 38 be 14 7b 29 3e 05 bb 46 be
       -0.19673692 -0.18028547 0.16550857 -0.1940728
000210 68 46 1e be 39 e1 4e 3e e9 f1 26 3e 9b 03 d5 bc
       -0.15456545 0.20203103 0.16303219 -0.026002696
000220 65 ed 53 be 7c aa 0b 3b d9 48 4c 3e 35 d9 05 3e
       -0.20696028 0.0021311333 0.19949664 0.13071139
000230 92 98 f0 bc f8 f8 70 bd 56 29 16 3e a5 8d 47 be
       -0.029369626 -0.058831185 0.14664206 -0.19487627
000240 50 ad a4 bb 94 48 b7 bd af be 0b 3e 33 1e 10 3e
       -0.0050255433 -0.0894939 0.13646959 0.1407402
000250 8c db 3b be d3 17 0e 3e b8 e6 53 be 6b 45 d4 3d
       -0.18345469 0.13876276 -0.20693481 0.10364803
000260 26 63 99 3d 6a 55 af bd bc 7f 2e 3e 7c 30 93 bc
       0.07489614 -0.08561213 0.17040914 -0.017967455
000270 c6 0b 41 3e 01 66 56 3d cf 1b eb bd 69 d3 2b bc
       0.18852147 0.052343372 -0.114799134 -0.010487416
000280 df 4f ac 3d d3 80 4a 3e 84 c5 c9 3c 81 62 24 be
       0.08413672 0.19775705 0.024630316 -0.16053201
000290 4b 76 ef bd 71 0b e2 bd 69 6c 00 3e b5 30 98 bd
       -0.116924845 -0.110373385 0.12541355 -0.07431165
0002a0 3a a7 12 3e 04 47 25 bd 9e 11 03 be aa 39 1c 3e
       0.14321604 -0.04035093 -0.12799689 0.15256372
0002b0 f9 40 07 be 87 00 e9 3d ad 6b 0f 3e 78 99 55 3e
       -0.13208379 0.11377054 0.14005919 0.20859325
0002c0 5a a4 b4 bd 84 d8 01 bc 28 66 56 3e 33 c9 11 3e
       -0.0882041 -0.0079251565 0.20937407 0.14236908
0002d0 01 0f 77 bd fd 86 c3 bc 71 46 43 be ea cf 33 be
       -0.060317043 -0.023868078 -0.1906984 -0.17559782
0002e0 17 85 19 be a7 5d 3f be 2c d3 e6 bd 8a e8 82 bd
       -0.14992176 -0.1868807 -0.112707466 -0.063920096
0002f0 40 bc 58 bc cf 73 c9 bd 2a 4b bb 3d c5 bd 64 3d
       -0.013228476 -0.09836542 0.09145196 0.05584504
000300 1e 24 4e be 9a 9e 51 be 7d 25 ac 3c 33 c1 2c 3d
       -0.20130965 -0.20470658 0.02101397 0.042176437
000310 b4 f5 17 3e 9a 7a 0e be 23 b5 04 3d 00 77 1a 3e
       0.14839822 -0.13913956 0.032399308 0.15084457
000320 a6 ab 89 3d 14 06 14 3e 50 44 63 bd f3 da d2 3d
       0.067221925 0.14455444 -0.05548507 0.102956675
000330 c7 fe 38 be af 4e 4d be 0e 7d 61 bd 78 60 48 be
       -0.1806594 -0.20049547 -0.055050902 -0.1956805
000340 3f 0a cf bc 2e 43 a0 bc 75 63 e5 bc af 7a e5 3d
       -0.02527344 -0.019563284 -0.028001526 0.11205041
000350 7b 83 12 3d 0d ad e7 3c db 16 35 3e 0b be 4f 3e
       0.03576992 0.02828076 0.176845 0.2028734
000360 75 42 31 be dd 90 07 be 11 dc 12 be 36 0e d9 bd
       -0.17310508 -0.13238855 -0.14341761 -0.10598414
000370 02 ce d6 bd f5 cf 9b bc 5a af 89 bd 9b 0e 8a 3d
       -0.104885116 -0.01902006 -0.06722899 0.06741067
000380 d3 2b eb bc 43 41 98 bd a4 69 a4 3d 28 62 57 be
       -0.02870742 -0.07434323 0.08027962 -0.21033537
000390 46 73 88 bd ee a0 13 3c e1 cf de 3d f8 16 dd 3c
       -0.06662612 0.009010537 0.108794935 0.026988491
0003a0 12 18 43 be 38 7a 31 be 47 85 57 be a4 af 17 be
       -0.19052151 -0.17331779 -0.21046935 -0.14813095
0003b0 a5 98 af bd 3e 68 89 3d f3 bd 0f 3e a5 f5 9a 3d
       -0.085740365 0.06709336 0.14037304 0.07566384
0003c0 32 8a 02 3e 2d 16 a9 3d 02 fc 12 bd 3a 90 1b bb
       0.1274803 0.08256183 -0.035884865 -0.0023737089
0003d0 e7 f3 07 be f8 5b 3a 3e 6a 6e d1 bd bd 5e a5 3d
       -0.13276635 0.18199146 -0.10226138 0.080747105
0003e0 9c 4d 20 be 74 a0 00 be 6c 9a 54 3e 03 42 5a be
       -0.15654606 -0.12561208 0.20762032 -0.21314244
0003f0 2c 5c 1a 3d 76 3a 42 bd 7e ee 23 3e 28 42 e3 bd
       0.03768556 -0.047419034 0.16008946 -0.11096603

conv2.bias f4 [64]
000000 92 aa b5 ba 8f ff 8f b9 1d d8 fa 3a 98 e1 7b 3b
       -0.0013860038 -0.0002746549 0.0019137893 0.0038434025
000010 89 95 75 ba 0a 67 3b ba 96 4e d9 3b ab cb 89 3b
       -0.0009368291 -0.0007148838 0.0066316826 0.0042051873
000020 18 6e 84 3b 47 77 06 3a ce 88 7e bb 79 1c 56 3b
       0.0040414445 0.0005129468 -0.0038838866 0.003267078
000030 cd 34 40 bb 8d fb b0 3a 42 db 33 3b b9 b6 44 bb
       -0.0029328347 0.0013502702 0.002744392 -0.0030016138
000040 f2 93 13 3b 52 c8 a2 ba e1 73 ab 3b ff 18 95 3b
       0.0022518602 -0.0012419319 0.0052323197 0.004550099
000050 f2 0c c4 3a 88 14 1d 3b fd 3c fa ba f1 b5 f9 3b
       0.0014957471 0.0023968536 -0.0019091662 0.007620566
000060 c2 13 c3 39 67 e0 36 3b fe e8 85 3b 69 4d 65 3b
       0.0003720802 0.002790475 0.0040866127 0.0034988767
000070 0f 2b 8b 39 13 c6 c7 39 be 92 0b 3b 21 a7 3f 3a
       0.00026544227 0.00038103815 0.0021297182 0.0007310976
000080 b7 6b 5e 3b 09 4d c5 3a f3 f3 85 bb c5 8e 3b bb
       0.0033938715 0.0015052865 -0.004087919 -0.0028619033
000090 95 3c 1d bb a2 bd 58 3b cd ac cc 3b 91 0a b2 3b
       -0.0023992409 0.0033072014 0.0062461854 0.0054333885
0000a0 30 fd 65 3a e9 ee 23 3b a9 d7 0b bb 80 f8 4c 3b
       0.00087733846 0.0025014228 -0.002133826 0.0031276047
0000b0 fe 15 d9 3a d6 cc 91 3a 3c c0 e5 ba 57 64 bb ba
       0.001656234 0.0011123668 -0.0017528604 -0.0014296871
0000c0 e3 e5 e4 3b 5a a8 df bb 72 4b 0e 3b df f3 21 bb
       0.0069854124 -0.006825489 0.002171245 -0.002471201
0000d0 9d be 8c b8 00 55 a2 ba f5 89 02 ba ed 10 f8 b9
       -6.711225e-05 -0.0012384951 -0.00049796636 -0.00047314857
0000e0 5a 54 9a 3a 2a 3f 10 bb b6 4b 81 bb 5a d2 d6 b9
       0.0011774406 -0.0022010305 -0.003945793 -0.00040973985
0000f0 a7 11 32 ba 23 af 83 ba c9 4b c5 ba 75 4f a0 ba
       -0.00067927915 -0.0010046702 -0.0015052493 -0.0012230711

conv3.weight f4 [64, 64]
000000 9c f8 20 be 7e c2 27 3e bd 52 4e 3e 1f c2 91 bd
       -0.15719837 0.16382787 0.2014875 -0.07117104
000010 0f e1 07 be b2 2d 45 be a8 29 e5 3d 0f f5 07 3e
       -0.13269447 -0.19255713 0.11189586 0.13277076
000020 82 91 3f 3e 62 b1 57 be 6e fa 13 3d 1f 60 cd 3d
       0.1870785 -0.2106376 0.0361275 0.10028099
000030 c8 06 4b be 59 60 26 bd 88 57 0a be ad db 42 3e
       -0.19826806 -0.040619228 -0.13509953 0.19029112
000040 ef c0 e9 3d f7 84 55 bd 57 81 b8 3d 06 12 e2 bd
       0.11413752 -0.05212876 0.090090446 -0.11038594
000050 f8 1d a5 bd 62 e8 d4 bc 90 6f fe bd ba 42 0c be
       -0.08062357 -0.025989715 -0.124236226 -0.13697329
000060 75 ff 3f be 63 d0 bd 3d 58 2b ac 3c 01 d0 a8 bd
       -0.18749793 0.09268262 0.021016762 -0.082427986
000070 f7 64 fa 3d bf c8 92 bd 38 8c bf bc 03 d6 2e 3e
       0.12226289 -0.071671955 -0.023382291 0.17073826
000080 82 17 07 bc 0e 68 25 be 29 b8 04 be 50 83 2f be
       -0.008245351 -0.16152975 -0.12960877 -0.17139935
000090 f1 90 c0 bd fd 25 eb 3d 87 4f 18 bc 2e 1e 1f ba
       -0.094026454 0.11481855 -0.009296305 -0.0006069866
0000a0 e2 e1 7e 3d a7 7c 3b bc 30 3f 11 3e e5 e3 ad bd
       0.062227137 -0.011443294 0.1418426 -0.08490733
0000b0 54 aa 1d 3d 1c ab 43 be 07 40 46 bd 09 9e fa bd
       0.038492516 -0.19108242 -0.048400905 -0.12237174
0000c0 c5 cd 41 3e 49 e9 09 3e 60 b4 f3 bd 88 24 bc 3d
       0.18926151 0.13467897 -0.11899638 0.09186655
0000d0 c4 c9 8f bd 9f 55 5b be 9d d5 d4 bd 2d 02 be bd
       -0.070209056 -0.2141938 -0.10392306 -0.09277759
0000e0 4f e0 25 3c 02 e9 d2 bd f1 86 7e 3d 63 92 b5 3d
       0.01012428 -0.10298349 0.06214041 0.08865812
0000f0 95 40 8e bb b8 9e c2 bb 38 f8 24 be 03 39 df 3d
       -0.004341195 -0.005939331 -0.16110313 0.10899546
000100 e8 54 fa 3d 5f 05 77 3d cf 9f b3 3d fd 86 1e be
       0.12223226 0.060307857 0.087707154 -0.15481181
000110 90 a2 5e 3e 94 68 08 3d b6 fb 38 be 3d f1 15 3e
       0.217417 0.03330286 -0.1806477 0.14642806
000120 97 cc 4d be da 14 2a be 24 4a 0a bd 85 2e 06 3e
       -0.20097576 -0.16609517 -0.033762112 0.13103683
000130 10 ac cb bd 37 63 1b be 4a 03 f7 3d 2e e5 cc 3c
       -0.09944928 -0.15174566 0.12061174 0.025011625
000140 30 15 0a 3d 11 87 0d be 27 11 4b 3e 33 74 07 3d
       0.033711612 -0.13821055 0.19830762 0.0330698
000150 07 9b 33 3e 2f 2d af bd 29 81 1f 3d 09 9c 51 3e
       0.17539607 -0.0855354 0.038941536 0.20469679
000160 8e b5 57 bd d8 b4 f7 bd f6 aa 43 3e 8e 8b 31 be
       -0.05266338 -0.1209504 0.19108185 -0.17338392
000170 86 6d 54 be 4c b1 5a 3e b1 31 83 bd c2 8c 8d 3d
       -0.20744905 0.21356696 -0.06405962 0.06911613
000180 06 03 4d 3e 0b c2 63 3d 9d e1 57 be bb 81 b4 bd
       0.20020685 0.055604976 -0.21082158 -0.088138066
000190 ca f9 29 3e f6 84 26 3c 7f 16 be bd ae 75 cd bd
       0.16599193 0.010163536 -0.092816345 -0.10032211
0001a0 53 8c b7 3d c1 9d 2f 3d ec d5 27 3e b4 c0 70 3d
       0.089623116 0.042875055 0.16390198 0.058777526
0001b0 e2 6a 4d be 1e 19 56 be 8b c2 46 3e 1e d3 2b bb
       -0.20060304 -0.20908019 0.1941015 -0.0026218365
0001c0 25 d8 b3 3d fd 72 7e 3a 07 c4 1c be 39 ba 0b be
       0.08781461 0.00097064656 -0.15309153 -0.13645257
0001d0 36 a2 0b bd 22 d8 1f 3e a1 0b 53 bd d2 a9 db 3d
       -0.034090243 0.15609792 -0.051524762 0.1072575
0001e0 43 20 95 bc a9 40 45 3d 34 60 c3 bd 3a 2c 41 be
       -0.01820386 0.048157368 -0.09539834 -0.18864527
0001f0 ea 46 1d bc 74 ca ed bd 06 07 a1 3d 62 fc ec 3d
       -0.009599427 -0.116108805 0.07862668 0.11571576
000200 46 fe 62 bd 05 9c 11 3e 85 d7 f2 3c c4 3d 02 3e
       -0.055418275 0.14219673 0.029643783 0.12718874
000210 6c d5 1d be d2 fe c1 3d 5a 61 22 3d 77 99 5c 3e
       -0.15413445 0.09472431 0.039643623 0.21542917
000220 9d f2 c4 3d bd 2a 48 be a3 70 27 be 93 20 1f be
       0.09616587 -0.19547553 -0.16351561 -0.1553977
000230 1c 3f f4 bc ed 8c 42 3e e0 98 1b 3e d1 d6 0b 3e
       -0.02981525 0.18999071 0.15195036 0.13656165
000240 0e bb 12 be 71 f0 60 3d 40 1f 8f bd e8 a2 f8 bc
       -0.14329168 0.054916803 -0.06988382 -0.030351117
000250 d7 4b 33 3d f5 33 29 3e 9c 81 03 bd 3d d7 ed bd
       0.0437735 0.16523726 -0.032106027 -0.11613319
000260 7a 5c 1c be 3d 76 e5 3d 43 55 1f be e4 bf 1d 3d
       -0.15269652 0.11204193 -0.15559869 0.03851308
000270 aa 47 34 be 80 ab 43 be ba ff e1 bd 1f e3 46 3e
       -0.17605463 -0.19108391 -0.11035104 0.19422577
000280 84 ab 46 be c4 98 c8 3d 3c 77 bc 3d 5a ee 0b 3e
       -0.19401366 0.09794763 0.0920243 0.13665143
000290 cd 70 6b 3b 07 94 ad bd d6 5e 1d 3e 00 9a 54 3e
       0.0035925389 -0.084754996 0.15368208 0.20761871
0002a0 52 df 56 be 13 59 1c be 25 79 32 3c 6c eb bc bd
       -0.20983627 -0.15268354 0.010893141 -0.09224591
0002b0 e6 fe ca bd f3 f8 40 3d 9c d7 26 3e fa 1f 43 3d
       -0.09911899 0.047112416 0.16293186 0.047637917
0002c0 1e f2 07 3e c7 60 a3 3d a2 3b 43 3e 04 bf 43 be
       0.13275954 0.07977443 0.19065717 -0.19115835
0002d0 20 dc 6e 3d 5a d1 17 3e ea 26 52 be 88 67 35 3e
       0.058315396 0.14825955 -0.20522657 0.17715275
0002e0 6a dd 28 3e e1 55 66 3d 71 87 1c be b3 0a d7 bd
       0.16490713 0.056234244 -0.15286042 -0.105000876
0002f0 52 87 bb 3c 18 76 53 be 2a b2 43 3d c6 23 f3 3d
       0.022891674 -0.20650518 0.047777332 0.118720576
000300 1c b7 b8 bd 16 11 3a 3d 34 72 3f be 89 7a 52 3e
       -0.090193 0.04542645 -0.18695909 0.20554556
000310 b4 40 f1 bd b3 1e 37 3e de 10 b5 bd b3 b2 b6 bd
       -0.11779919 0.17882805 -0.08841108 -0.08920803
000320 ea 4c 33 be b8 13 56 bd 01 2b dc 3d 05 e7 fc bc
       -0.17509809 -0.0522649 0.1075039 -0.030871877
000330 47 06 36 be 84 ab ca 3d a1 a8 49 3b c0 98 01 be
       -0.17775832 0.09895995 0.0030770677 -0.12655926
000340 62 81 f7 bd ce 08 36 be 5a b0 ba bd 22 5a eb 3c
       -0.12085225 -0.17776796 -0.09115668 0.028729502
000350 f7 04 02 bd 1c 9f b7 3d 78 3f 34 3e 1a aa 47 bd
       -0.031743016 0.089658946 0.17602336 -0.048746206
000360 10 75 22 be 8d a1 42 be 0d d2 4a be 70 9e b6 3d
       -0.15864968 -0.19006939 -0.1980669 0.08916938
000370 7a 8f 2b 3e 88 ae 26 be 4d 1d 0c 3d ca b2 ae 3c
       0.1675395 -0.16277516 0.03420763 0.021325488
000380 18 b8 f1 3d 16 69 9e bc 74 f6 67 3c 55 27 ec bd
       0.11802691 -0.019337218 0.01415788 -0.115309395
000390 53 c1 fb 3d 1e 80 dc bd a2 00 9a bd f1 2a be 3c
       0.12292733 -0.10766624 -0.07519652 0.023213835
0003a0 1a 55 d8 bc 83 14 91 3d ef 1e 81 3d 87 7f 29 bd
       -0.026407767 0.070839904 0.06304728 -0.041381385
0003b0 3d 82 d7 3c f8 6b e5 bd e7 f1 ce 3d 20 81 7a 3d
       0.02630722 -0.11202234 0.10104733 0.0611583
0003c0 ec f0 28 3e 0d 8e 03 3e 18 f1 2c 3e b5 3e 90 bd
       0.16498154 0.12847157 0.16888845 -0.070432104
0003d0 fc d0 ae bd 8f 03 36 3e 8a ba db 3d 7e 28 43 be
       -0.08535954 0.17774795 0.10728939 -0.19058415
0003e0 b4 f9 d6 bd ac 5d d6 3d 9f 7d 1c 3e 3f 18 9d bc
       -0.10496846 0.10467085 0.15282296 -0.0191766
0003f0 6a 8b f6 bd 81 9d 07 3d 2c 51 2e be 14 02 3e be
       -0.1203831 0.03310919 -0.17023152 -0.1855548

conv3.bias f4 [64]
000000 a7 86 93 bb a4 87 27 3b 7e 50 79 bb 44 0f a5 3b
       -0.004502136 0.0025563026 -0.0038042362 0.00503722
000010 88 b7 8d 3b 4d 51 22 bb 29 55 37 bb 0d 67 51 3b
       0.004324857 -0.0024767697 -0.0027974343 0.0031952292
000020 e9 23 1d 3b 33 d1 37 3a 62 96 32 bb bf e5 27 bb
       0.0023977703 0.0007012069 -0.002725028 -0.0025619117
000030 40 91 60 3b 59 a3 b6 b8 93 4d 43 bb 00 82 a6 3b
       0.0034266263 -8.708862e-05 -0.0029800877 0.005081415
000040 86 19 06 bb 74 0c 0a bb 41 58 6d 3a 41 88 a4 bb
       -0.002046199 -0.0021064552 0.00090539834 -0.0050211255
000050 9f 59 a5 ba 82 cb 40 bb 0f ed 82 ba c3 06 8c ba
       -0.001261521 -0.0029418175 -0.0009988862 -0.0010683167
000060 b9 e8 01 3b 9d 7f 86 3b 89 a1 55 bb b6 52 55 3b
       0.0019822551 0.004104568 -0.0032597503 0.003255052
000070 ba f0 d3 ba f7 18 f4 39 f6 83 0f 3b 26 2f 93 ba
       -0.0016169765 0.00046557907 0.0021898723 -0.0011229261
000080 f0 09 23 ba 32 ad 39 ba 8d ff c0 bb 19 79 2a ba
       -0.00062194373 -0.0007082998 -0.005889839 -0.00065030303
000090 fb 3f c5 3b c9 e1 93 3a d8 42 e6 ba 3a aa fc ba
       0.00601959 0.0011282499 -0.0017567528 -0.0019276806
0000a0 0a 63 f0 b9 91 3a 9e 3a 14 de 02 bb f1 01 0a 3b
       -0.00045850157 0.0012071898 -0.0019968795 0.0021058286
0000b0 7d e1 a1 39 a7 c4 aa 3b 92 16 2c bb 06 28 88 3a
       0.00030876315 0.005211431 -0.002625857 0.0010387904
0000c0 c5 90 d6 3a ce 68 02 3b 28 32 00 bb c2 a3 d1 ba
       0.0016370049 0.0019898894 -0.0019561145 -0.0015994238
0000d0 69 9b e8 3a 1b 9e f7 3a 87 ac 6a bb 43 34 2a 3a
       0.0017746511 0.0018891724 -0.00358084 0.0006492773
0000e0 7b 1e 19 3a 32 83 a5 39 a2 83 0e 3b e9 12 5a 3b
       0.0005841029 0.00031569 0.002174594 0.0033275431
0000f0 1e 30 0a 3b 86 74 1a bb 75 5e df 39 09 d6 e5 3b
       0.002108581 -0.0023567989 0.0004260425 0.0070140404

fc1.weight f4 [128, 192]
000000 1c 82 45 3d 32 7f 3b bd 68 db 15 3d 9c 07 2c bd
       0.048219785 -0.0457756 0.036586195 -0.041999444
000010 b4 e6 6c 3d e2 91 81 bd c4 b6 95 3c 20 3a ab 3c
       0.057837203 -0.06326653 0.018275626 0.02090174
000020 fc f3 b4 bc e0 32 3e bc 56 12 93 3d c5 5f 58 bd
       -0.022088997 -0.011608809 0.07181232 -0.052825708
000030 68 29 2c 3c 54 94 fd 3c da 7b 8e bd e5 e2 8b bd
       0.010507919 0.030954517 -0.069572166 -0.06830386
000040 ba 6e 76 bd 50 fa ca 3b bb d7 4a bd 58 24 3a bd
       -0.06016419 0.0061943904 -0.049522143 -0.045444816
000050 16 29 05 3d d1 d4 4b bd 28 7b 88 3c e0 bb 08 bc
       0.032509886 -0.049763504 0.016660288 -0.008345574
000060 40 84 be bb 20 a1 43 bc 50 10 76 3c ec 17 14 3d
       -0.0058141053 -0.011940271 0.015018538 0.036155626
000070 60 7e 27 3b 30 b3 d5 3c 68 a5 28 bd d7 60 14 bd
       0.0025557503 0.02608642 -0.04117337 -0.036225166
000080 b8 65 b2 bc 40 9b 5d 3b fe ef 2a bd a0 d4 96 bb
       -0.021777019 0.003381446 -0.04173278 -0.0046029836
000090 12 b5 0a bd 78 6c 23 3d 4e 5a 0e bd 2f 0d 8e bd
       -0.03386409 0.039898366 -0.03475409 -0.06936108
0000a0 c0 5e ea bb f4 5c f2 3c 28 90 83 3d 00 d7 9a b9
       -0.0071524084 0.02958534 0.0642398 -0.00029533356
0000b0 40 ed b8 3b b0 f8 bb 3c 7e 83 0a bd 55 d1 79 bd
       0.005643517 0.022945732 -0.033816807 -0.06099065
0000c0 a0 07 a3 bc 0a 40 ea bc 8d 8c 8d bd e0 18 bd 3b
       -0.019901097 -0.02859499 -0.069115736 0.0057707876
0000d0 a0 04 59 3d 38 1e ac bc 56 40 47 3d fe a8 90 3d
       0.052982926 -0.021010503 0.04864534 0.07063483
0000e0 1c eb 7f bc 1c 28 8a 3d 4a ba 76 bd e4 83 99 3c
       -0.015620019 0.067459315 -0.060236253 0.018739648
0000f0 b2 46 1c 3d 00 c9 3d 3c c0 ac 17 3d c7 01 22 bd
       0.038153358 0.011583567 0.03702998 -0.039552476
000100 70 97 fd 3b b9 b3 68 bd 54 4c 33 bd 80 e6 7c 3a
       0.007739 -0.056812022 -0.043773964 0.0009647384
000110 00 a2 71 bc 32 25 41 3d 71 fd 82 bd 92 1b e4 bc
       -0.0147480965 0.047154613 -0.06395996 -0.027845178
000120 98 59 4a 3c f4 a3 41 bd 6c 26 64 3d 74 42 86 3c
       0.012350462 -0.0472755 0.055700704 0.01638911
000130 77 82 65 bd 0e 63 65 bd a3 73 36 bd 30 a0 70 bd
       -0.056032624 -0.05600267 -0.044543874 -0.058746517
000140 0a ae 82 bd 4a f7 81 bc fc 82 3d bd d0 1b da 3c
       -0.063808516 -0.015864987 -0.046267495 0.02662459
000150 f0 91 e5 3b 0f 97 32 bd 90 40 3c bd 04 ce c9 3c
       0.0070059225 -0.043601092 -0.04596001 0.024634369
000160 e0 79 2d 3b d9 38 79 bd a6 94 25 3d 7c dc 65 bc
       0.0026470348 -0.06084523 0.040424965 -0.014029618
000170 d2 84 4f bd 9b 1e 2e bd e0 b1 92 3d c8 90 88 bd
       -0.050663777 -0.042509656 0.07162833 -0.0666824
000180 22 91 b8 bc de 8f 3a bd ac fc fb 3c 90 26 a0 bc
       -0.022530142 -0.04554736 0.030760132 -0.019549638
000190 9c 7b e5 3c fe 1b 4d bd 70 f4 ac 3b 36 c4 2f 3d
       0.028013043 -0.050075524 0.0052781627 0.04291173
0001a0 80 1e 6d 3d 54 a4 29 3d ea a9 3e 3d 94 0b cb 3c
       0.057890415 0.04141648 0.04654876 0.024785794
0001b0 6c 75 eb bc 28 33 6b 3d d0 a7 42 3d e4 74 7d 3d
       -0.028742515 0.057421833 0.04752332 0.061879054
0001c0 0e dc f3 bc 9c ee 8e 3d d6 00 81 bd 93 10 35 bd
       -0.029768016 0.06979105 -0.062989876 -0.04420526
0001d0 34 bf a2 bc ce b3 47 bd c0 eb da 3a 6c 52 56 bc
       -0.019866563 -0.04875546 0.0016702339 -0.013081174
0001e0 f8 0a 3b 3d ee 1f 74 bd 8c ea de bc a8 fe 3f bc
       0.045664757 -0.059600763 -0.02721145 -0.01171843
0001f0 a8 cc 69 bd 7e 97 49 3d 64 3c 72 3d c0 95 6e 3c
       -0.05707994 0.04921674 0.059139624 0.01456207
000200 56 34 55 3d a8 92 bc 3c a4 35 38 3d c0 33 93 3d
       0.052051865 0.02301915 0.04497303 0.07187605
000210 60 5e 2b bd 5c 2f 28 bc a3 d6 08 bd ed 81 1d bd
       -0.04183805 -0.010265198 -0.03340782 -0.038453985
000220 dc 4d 23 bc 8c ba 85 bd 8c 0c 38 bc 2a ad 93 bc
       -0.009967294 -0.065297216 -0.01123346 -0.018026907
000230 62 00 54 3d a0 59 4a 3c 77 a4 72 bd a4 8c 00 3d
       0.051758178 0.01235047 -0.059238877 0.031384125
000240 38 1e 15 bc 4b c1 21 bd 10 94 34 bd a0 66 76 bc
       -0.009101443 -0.03949098 -0.044086516 -0.015039116
000250 20 e5 eb 3c bb 34 82 bd 78 81 93 3d b6 8e 31 bd
       0.028795779 -0.06357714 0.072024286 -0.04334899
000260 26 76 7c bd 0c 40 2b bd 20 09 e0 3c 62 d1 11 bd
       -0.061636113 -0.041809127 0.027348101 -0.035600074
000270 d8 89 8a 3d 34 cf 03 3d 62 a4 d0 bc 3e 57 c0 bc
       0.06764573 0.032180026 -0.025469009 -0.0234791
000280 c7 9a 00 bd a4 96 17 3d b9 76 14 bd ec 0b f9 bc
       -0.031397607 0.037008896 -0.036246035 -0.030401193
000290 38 52 80 3d 0c 6b f7 3c bc 9a 16 3d 88 c9 1e bc
       0.06265682 0.030202411 0.03676866 -0.0096916035
0002a0 80 3c 00 3c 34 5c a3 bc cd 41 70 bd a0 0c 96 bc
       0.007826924 -0.019941427 -0.058656503 -0.018316567
0002b0 8f 77 75 bd ec 92 7d 3d dd dc 4b bd 64 44 75 3d
       -0.059928473 0.061907694 -0.04977118 0.059879676
0002c0 9e 60 92 bd d4 e4 68 3d f0 45 fc 3c 4a b0 8e bd
       -0.071473345 0.056858853 0.030795068 -0.06967218
0002d0 c6 b5 2b 3d 00 00 4f ba 70 f9 61 3d 48 a5 12 bd
       0.0419214 -0.00078964233 0.055169523 -0.035802156
0002e0 80 10 02 ba 6c 86 eb bc b8 2d 49 3d d0 ee 9a bb
       -0.0004961565 -0.02875062 0.049115866 -0.0047281757
0002f0 00 e2 20 3b d8 05 14 3d 33 26 1c bd 30 84 be bc
       0.002454877 0.036138386 -0.038122367 -0.023256391
000300 8a fd be 3c 7a 3b 42 3d 92 c0 de bb 3b c1 46 bd
       0.023314256 0.047420003 -0.0067978585 -0.048524123
000310 26 76 85 3d c7 cb 3b bd 32 62 1d bc 89 34 be 3c
       0.06516676 -0.045848634 -0.009605931 0.02321841
000320 a6 24 9d bc 8b 17 7d bd a0 7a d6 3c 00 1a bd bc
       -0.019182514 -0.06179003 0.026181519 -0.023083687
000330 91 cf 7a bd 3a 08 05 3c 7f 56 9b bc 5d c0 39 3c
       -0.061233107 0.008119637 -0.018962143 0.011337367
000340 90 79 96 3a a6 7c 33 3d f4 94 85 bd f4 7c 3d bd
       0.001148032 0.043820046 -0.06522551 -0.046261743
000350 c7 84 63 3c 46 29 9c bd 87 d7 cc 3c 6e be 31 3c
       0.013886637 -0.0762506 0.025005115 0.010848625
000360 6c 60 44 3d 91 4d 91 3a d3 0f 79 bc c8 52 37 3d
       0.047943518 0.0011085739 -0.015201527 0.04475668
000370 d9 f8 48 bd e4 87 e2 3c cd 42 9d bc be 71 ad 3c
       -0.049065445 0.027652688 -0.019196892 0.0211724
000380 5f 29 ec 3b 28 59 0f ba f3 3f 1c bd 91 f4 84 bd
       0.0072070803 -0.00054683024 -0.038146924 -0.0649196
000390 b5 5c 7a bd ca ac 95 3d f1 a1 9d ba 35 44 56 ba
       -0.06112357 0.073083475 -0.0012026412 -0.0008173616
0003a0 98 83 78 3d 84 20 6c 3d a8 44 68 3d f1 fd a8 3c
       0.060672373 0.057648197 0.0567061 0.020628901
0003b0 d4 96 cf 3c df 38 06 bd 67 26 9b 3c 30 0c 73 3c
       0.025340475 -0.03276908 0.01893921 0.014834449
0003c0 97 23 4f bd 82 a4 25 bd 31 7a 54 bb 8a a1 69 3d
       -0.05057105 -0.04044009 -0.0032421465 0.05703882
0003d0 03 9f d7 3c 9c 2b d5 bc de 95 29 bd a3 87 89 bc
       0.02632094 -0.026021771 -0.04140269 -0.01678831
0003e0 11 01 6a bc 02 79 49 bd 2f 74 30 bd 0b 1d 83 3b
       -0.014282481 -0.049187668 -0.04307955 0.004001265
0003f0 4c 28 cc bc b7 f8 3e bd 5d d7 0e bd b4 ef 7f 3d
       -0.024921559 -0.04662391 -0.034873355 0.062484458

fc1.bias f4 [128]
000000 0e f1 c4 bc e6 1f c5 bb 13 62 16 bd 58 21 28 3c
       -0.024040725 -0.0060157655 -0.036714625 0.010261856
000010 02 1b 94 bd 72 48 05 bd 42 c3 94 3d 7d 73 8e bb
       -0.07231714 -0.032539792 0.07263805 -0.0043472634
000020 a2 8e 6e bd 33 49 89 bd 8a 3b 60 bd a9 13 4b bd
       -0.058241494 -0.06703415 -0.05474428 -0.049579296
000030 2a ca 06 3d 09 02 12 bc 48 cd 9a 3b 22 58 b4 3c
       0.032907642 -0.008911618 0.0047241785 0.022014681
000040 cd d5 6d 3d c5 94 86 bc 3d e8 22 3c d5 c2 40 bd
       0.058065224 -0.01642836 0.009943065 -0.047060806
000050 f9 05 20 bd ae 49 3e bd e9 e5 97 3d 3a 35 0f bd
       -0.039068196 -0.046456985 0.07416899 -0.03496287
000060 71 4b 58 bc 03 bc 61 3d bb 36 49 bc a8 4f 7c 3d
       -0.01320158 0.055110943 -0.012281115 0.061599404
000070 13 21 dc bc 6f e8 54 3d 2a 75 48 3c b5 f2 72 3d
       -0.02687124 0.05197948 0.012234965 0.059313495
000080 75 c1 fe bc b4 f3 55 3d ae fc a4 3c d8 81 aa bc
       -0.031098107 0.052234367 0.020140018 -0.020813867
000090 84 76 0c 3d e8 9c 8f 3d d2 6e dc bc 35 45 66 bc
       0.034292713 0.07012349 -0.026908312 -0.014054586
0000a0 ab 72 73 3d 60 76 30 bd 4c 18 08 3d 27 74 0f 3d
       0.059435528 -0.04308164 0.033226296 0.03502288
0000b0 f4 4a 48 3d e4 39 32 3d 36 2b e9 3c 35 2c a2 bc
       0.048899606 0.04351224 0.028462987 -0.01979647
0000c0 fb 4d 7c 3d d8 15 d0 bc d8 94 16 bd 2c 97 87 3a
       0.061597805 -0.02540104 -0.036763042 0.0010344735
0000d0 3f f0 54 bd 64 4e 57 bb 25 13 03 3b a2 7a 73 bc
       -0.05198693 -0.003285312 0.0020000425 -0.014860781
0000e0 e4 64 07 3c c9 37 7c 3a ce 41 0d bd 0a ee 8b 3c
       0.0082638 0.000962135 -0.034486584 0.01708128
0000f0 dd c2 41 3d 6f d2 e6 3c e9 16 69 bd 08 76 e2 3c
       0.047304977 0.028176514 -0.056906614 0.027644172
000100 1c ec 14 bc be 08 94 3d 88 c7 80 3d 40 6f c8 3a
       -0.009089496 0.0722823 0.062880576 0.0015291944
000110 61 ec 86 bd 98 c8 1c 3d e6 05 5b bc 18 f6 74 3d
       -0.065880544 0.03827724 -0.0133681055 0.059805006
000120 67 72 91 3c cf f7 92 3c 38 60 92 3c 66 ed 44 3d
       0.017754747 0.01794043 0.017868146 0.048077963
000130 07 ee 25 3c b0 c7 09 bb b3 f4 54 bd 38 9c 63 bd
       0.010127551 -0.0021023564 -0.051991176 -0.055568904
000140 15 b4 bd 3c 88 1b 8c bc ca 38 02 bc d5 25 62 3d
       0.023157159 -0.017102972 -0.00794811 0.05521186
000150 a6 0a 91 3d 7e 2c 42 3d fc 96 52 3d 09 4a 30 3d
       0.07082109 0.047405712 0.05141352 0.043039355
000160 13 b0 2e 3d 40 db 17 3d a5 38 84 bb c5 7c c2 3c
       0.042648386 0.037074327 -0.004035073 0.023741135
000170 da f3 84 3d 31 2d f6 3c c5 88 01 bc c0 9b 7e bd
       0.064918235 0.030050846 -0.007906144 -0.062160254
000180 99 f2 3b bc bb 81 3c 3d b4 1c ed 3c 8e 07 de 3c
       -0.011471414 0.046022158 0.02894435 0.027103212
000190 0b c3 79 bd 9a b8 be bc 7d 70 d6 3c 11 49 e0 3a
       -0.060977023 -0.023281384 0.026176685 0.0017111619
0001a0 58 15 51 3d 6e 97 be 3c 69 35 e2 bc 0e 63 89 3d
       0.051045746 0.023265567 -0.027613359 0.06708346
0001b0 5c ff 89 3d 89 80 0f 3c 06 6a 7d bd 2e ff 1b 3d
       0.06738159 0.0087586725 -0.06186869 0.038085155
0001c0 24 bd 46 3d 2a d5 86 bd 51 da 21 bd bc 85 b5 bc
       0.048520222 -0.065836266 -0.039514843 -0.022158496
0001d0 ae 21 70 bc d3 47 4b 3d bb 01 69 3c 3c 80 29 3d
       -0.014656467 0.049629044 0.014221604 0.04138206
0001e0 f7 eb 71 bd 44 40 0d bd 6a ab 4f bd a1 60 da bc
       -0.059062924 -0.034485117 -0.050700583 -0.026657404
0001f0 24 25 28 bc 50 44 65 3c 59 78 56 3d 4b 15 8f bd
       -0.010262761 0.013993338 0.052360866 -0.06986483

fc2.weight f4 [64, 128]
000000 8e 08 da bc 1f fd aa 3c 10 57 28 3d d2 93 3a 3d
       -0.026615407 0.02087265 0.041098654 0.04555113
000010 e1 ac ba 3c 6f ef 96 3c 30 a2 f1 bc bf d4 b1 3d
       0.022787513 0.018424718 -0.029496282 0.08683156
000020 bc 87 87 3d d2 a4 4d bd 5a 71 06 3d 19 94 5c 3c
       0.06617686 -0.050206013 0.032822944 0.013463044
000030 74 8d d4 3c 73 df 9b bc 20 20 56 bd 3a 79 1e bc
       0.025946356 -0.019027447 -0.05227673 -0.009672457
000040 13 15 64 3c bc e3 9c 3c 08 77 e6 3c 60 c1 a0 3d
       0.01392104 0.019151561 0.02813293 0.07849383
000050 57 c7 8c 3d 54 84 6e bd a3 ef 40 3d a3 79 44 3d
       0.068739586 -0.058231667 0.047103535 0.047967564
000060 fc e8 18 bd 2f a6 23 3d 0e 30 87 bd 32 e2 71 3d
       -0.037331566 0.039953407 -0.066009626 0.059053607
000070 66 75 6c bd f8 3e 61 3d 37 ee 1b bd 52 a6 19 3d
       -0.057729147 0.054991692 -0.038068976 0.03751213
000080 f9 e1 50 bc f2 35 d5 bc 8d e2 79 bd 32 ce 7d bd
       -0.012749189 -0.0260267 -0.06100707 -0.06196422
000090 5e 06 24 bd d6 50 30 bd f6 a8 de bb 6e eb e4 bc
       -0.040045135 -0.04304584 -0.006795044 -0.027944293
0000a0 6b a7 3c bb 4a 0a 68 3d a0 9b 0b 3d 05 19 a0 3c
       -0.0028786312 0.056650437 0.034083962 0.01954318
0000b0 02 8f b4 3c f7 fc bf bc 10 aa 1e bd b2 4b a3 3c
       0.022040848 -0.023436053 -0.038736403 0.019933555
0000c0 24 71 3f bd 94 62 12 3d 84 f5 8e bd a8 6f ba 3d
       -0.04673876 0.035738543 -0.06980422 0.09103328
0000d0 6d 15 64 bd 15 16 71 bd ac 60 ee bc 53 e4 1e 3c
       -0.055684496 -0.05885895 -0.029098831 0.009697991
0000e0 62 db 35 bd 0b f5 29 bd db 38 39 bd 0a 79 3d bd
       -0.044398673 -0.041493457 -0.045220237 -0.04625801
0000f0 5e bc 25 3d 43 ed 2a bb 39 ec 66 bd bf e5 3d bd
       0.040462844 -0.002608136 -0.056377623 -0.04636168
000100 c5 fd c2 bc 7e c8 f7 3c 93 e4 9f 3d 38 88 95 bd
       -0.023802647 0.03024697 0.07807269 -0.07301372
000110 5b 0f 67 3c 09 68 a6 bd 47 d6 4b 3b 3e 57 a8 3d
       0.014102782 -0.08125312 0.003110306 0.08219765
000120 4b 96 ac 3d a7 31 4b 3c 24 4e a2 bd fe 9e bb bc
       0.084271036 0.012401975 -0.079250604 -0.022902962
000130 e8 10 70 bd ae 76 1e 3d af 4f 86 bd 0c 57 9b bc
       -0.058609873 0.0386874 -0.06558167 -0.018962406
000140 0f 96 6f 3d c7 35 d0 3b fa c3 f1 3c 72 b6 6f bd
       0.058492716 0.006354067 0.029512394 -0.058523603
000150 68 8e 28 bc 57 74 07 3d 2f 9a 99 3b 67 3f 83 3d
       -0.010287859 0.033069935 0.0046875696 0.064085774
000160 93 8b 90 bb 62 02 43 3d 90 4d af bc 24 26 23 3d
       -0.00441117 0.047609694 -0.02139929 0.039831296
000170 35 16 81 3d dc 63 9b 3d 3a 11 05 3d df 56 5a 3d
       0.06303064 0.07587406 0.03248713 0.053305503
000180 3a 66 a7 bd 04 12 9a bd f4 1c 42 3d 25 07 f4 bc
       -0.08173795 -0.075229675 0.047390893 -0.029788563
000190 93 2f 86 3d 3b 00 b5 3d d4 c2 a4 3d 84 1c ea bb
       0.06552043 0.088379346 0.08044973 -0.0071445126
0001a0 24 9a 6e bd f9 1b 17 3c 8b 0e af 3d 66 57 5f 3d
       -0.05825247 0.009222978 0.08547696 0.05452671
0001b0 cd 84 4f 3d e6 6b 95 3d 52 5f 6d 3d 8d 13 a2 bd
       0.050663758 0.072959706 0.057952233 -0.07913885
0001c0 84 1a 9b 3d 7d 0f c5 3a c1 8f d1 3c b4 28 b4 3c
       0.07573417 0.0015034523 0.025581243 0.021992065
0001d0 6a 14 5e bd 35 20 c1 3c 15 05 96 bd 75 6e ad bc
       -0.054218687 0.023574928 -0.07325188 -0.021170834
0001e0 2b fe 28 bd a7 f3 d6 bc 8a 9c fc bc 86 25 40 3d
       -0.04125802 -0.02623923 -0.030836362 0.046910785
0001f0 7a 32 5d 3d 2b ad 14 bd fb 07 ad 3d a8 f6 b4 bc
       0.054003216 -0.03629796 0.08448788 -0.022090271
000200 80 68 2e 3c df 5b 9f 3d af dd 68 3d e4 bc f0 3c
       0.010645032 0.07781195 0.05685204 0.029386945
000210 1d e5 ad 3d d7 02 6d 3c f4 36 5c bd 9f 8c 1c 3c
       0.084909655 0.014466009 -0.053763345 0.009555011
000220 e9 44 93 3d 04 f6 36 3d 76 6b 4d 3d f9 83 65 3d
       0.07190878 0.044668213 0.05015131 0.056034062
000230 ec 64 b8 3c e9 49 a1 bd 8b 39 7c bd 12 27 53 3c
       0.02250906 -0.07875425 -0.061578315 0.012887733
000240 20 c6 93 bd 52 f6 83 3d f9 26 3d 3c df 88 94 3d
       -0.07215524 0.06443466 0.011544936 0.072526686
000250 5b e5 a6 3d 8c a9 a9 bd 79 df 83 3d b0 22 8c bd
       0.08149215 -0.082842916 0.064391084 -0.068425536
000260 da 9a 69 3d e4 72 56 3d 06 54 12 3d 4e 0a da bc
       0.057032444 0.052355662 0.035724662 -0.026616242
000270 c1 7c 1e bd 22 c9 a9 3d 75 2c ef bc 0d a0 92 bc
       -0.038693193 0.08290316 -0.029196003 -0.017898584
000280 18 62 58 bd ce 76 67 3d e9 61 98 3d e1 f5 9e 3d
       -0.052827924 0.056509785 0.0744055 0.077617414
000290 ae c1 5b 3c 6d cc 34 bd 48 96 ba 3c 03 74 b0 3c
       0.013412876 -0.044140268 0.022776738 0.021539694
0002a0 1f 7a 0c bd 94 13 a9 3c fd a8 9f bd 65 e9 47 bd
       -0.03429615 0.020639218 -0.07795904 -0.048806567
0002b0 19 8c 98 bd 00 ae 31 3a d6 2c 7b 3c d1 fa a0 bd
       -0.074485965 0.0006777942 0.015330514 -0.078603394
0002c0 c0 9d 21 bc db d7 27 bd a2 a2 00 3d ef 23 aa bd
       -0.009864271 -0.04097734 0.0314051 -0.08307635
0002d0 5d ef 82 3a 4e 5b 7d 3d 0b b0 81 bd 78 f7 63 3c
       0.0009989549 0.061854653 -0.06332406 0.013913982
0002e0 21 7d 80 3d a9 a9 1e bc 4b 99 ab bc d2 db 91 bd
       0.062738664 -0.009684005 -0.02094712 -0.071220055
0002f0 48 35 41 bd a9 fa b7 3d 18 5d 40 3c 08 a3 ce bc
       -0.047169954 0.089833565 0.011740945 -0.025224224
000300 c7 9f ae 3d 6b 86 d0 3c 99 76 b2 bd 50 3f d1 bb
       0.08526569 0.02545472 -0.08714027 -0.0063857213
000310 35 c2 18 bd eb d5 a0 bd b3 07 94 bc 98 9d ed 3c
       -0.037294585 -0.078533016 -0.018070078 0.02900581
000320 42 df 24 bc 40 6a a7 bd e0 d6 58 3c 66 ec 90 bd
       -0.010062994 -0.081745625 0.013234824 -0.070763394
000330 9c a1 a5 3c 30 4e 6a 3d 1a 8b a7 bd 81 b2 92 3d
       0.020218663 0.05720347 -0.081808284 0.07162953
000340 02 eb c9 ba 09 a4 54 bc 7e a6 15 bd 4a cb 6a 3d
       -0.0015405121 -0.012978562 -0.036535732 0.057322778
000350 99 3e 4f bd 91 59 85 3d 76 bc 4a bd dd 1d fa 3c
       -0.050596807 0.06511224 -0.049496137 0.030531818
000360 91 6c 4b 3d 12 c6 9d 3c e4 07 7e bd c8 de 0e 3d
       0.049664084 0.019259486 -0.062019244 0.03488043
000370 a6 8a 58 3d d5 7e 84 3d 1a fd 1a bc 9c 22 9a bd
       0.0528666 0.06469504 -0.009459758 -0.075261325
000380 80 19 03 3a 4a 75 7d bd 21 f2 a0 3d ef df 5c 3c
       0.0005001053 -0.061879434 0.078586824 0.013481124
000390 ae 0d 23 3d ff 4d 9f bd 40 03 1a 3b 43 9f 97 3b
       0.039807968 -0.077785484 0.0023500472 0.00462714
0003a0 2d c1 98 3d 0d 43 ab bd ac c7 27 b9 95 8a 8a 3d
       0.0745872 -0.08362398 -0.00016000745 0.06764714
0003b0 a1 d1 5a 3d d2 23 56 3d 2c cd 6c bd 3e 42 f1 3c
       0.053422574 0.052280255 -0.057812855 0.029450532
0003c0 72 02 a5 3d 35 5d 58 bd c0 3a f3 bc 33 30 84 3d
       0.08057107 -0.052823264 -0.0296911 0.06454506
0003d0 a0 c7 76 3b f8 b8 2e 3d 34 00 d6 bc 48 af b6 3d
       0.0037655607 0.04265687 -0.026123144 0.08920151
0003e0 b0 02 4d 3c ed f5 1f 3d 98 8f a4 bc 00 4b 07 bc
       0.012512848 0.039052892 -0.020088002 -0.0082576275
0003f0 fb e2 2d bd dc 65 7a bd 2d 1e 36 bc 30 b9 3e bc
       -0.042452794 -0.061132297 -0.011115593 -0.011640832

fc2.bias f4 [64]
000000 20 69 02 3d 8e 85 24 bd 14 db 83 3d 44 d8 1a bd
       0.031838536 -0.04016643 0.0643827 -0.037803903
000010 d2 7e 49 bd 32 c8 2d 3d 9c 35 d2 ba a0 48 89 3d
       -0.04919321 0.04242725 -0.0016037705 0.06703305
000020 fd 6b 6e 3d 44 2c 1d bd 58 26 02 bd b8 5d ab 3c
       0.058208454 -0.038372293 -0.03177485 0.020918712
000030 66 5c 5e 3d fa 89 8b 3d 15 c7 b7 3d 60 2e 8f 3d
       0.054287337 0.06813426 0.08973519 0.06991267
000040 68 ea 5b bd 00 b0 1f bb f9 21 84 3c 37 b9 98 3d
       -0.053690344 -0.0024366379 0.01612948 0.07457202
000050 f2 71 ae 3c 9c 61 8a 3d 48 e1 93 bc b1 2b d7 bc
       0.021294568 0.06756899 -0.018051758 -0.02626595
000060 b0 d5 de bc 32 6a f7 3c 23 4f a9 bd 45 8b c7 bc
       -0.027201504 0.030202005 -0.08267047 -0.024358401
000070 d3 12 f1 3c 6f 75 33 3d 3e 62 17 bd a3 08 88 3d
       0.029427921 0.043813165 -0.036958925 0.06642272
000080 96 30 0d bd 54 c8 12 3c 4f 0e 25 3d 92 6b ae bd
       -0.034470163 0.008958895 0.04029685 -0.08516611
000090 73 f1 86 3d f8 c4 09 bc 42 7f 15 3d 04 c6 aa 3d
       0.065890215 -0.008408777 0.036498316 0.0833855
0000a0 26 03 1d bd 0a 2f a0 bd 2d 39 30 bd 75 84 6e bd
       -0.03833308 -0.07821472 -0.043023277 -0.05823179
0000b0 66 9b f4 3c 9e c8 ac 3d 13 66 96 bd b0 f5 31 bc
       0.029859256 0.08436702 -0.07343688 -0.010861799
0000c0 8e 85 94 3d 5f f4 48 3d 03 5e 1d 3d 5a d7 c4 3c
       0.07252036 0.049061175 0.038419735 0.024028469
0000d0 32 79 e5 bc 6d 90 80 bd d6 37 38 3d 28 07 84 3d
       -0.028011892 -0.06277547 0.044975124 0.064466774
0000e0 e2 e3 14 3d 62 35 d4 bb 88 99 d5 3c 23 7d 5d 3c
       0.03635014 -0.0064760903 0.026074186 0.013518604
0000f0 f4 4a 64 3d 31 ca 03 3d 60 c5 74 bc a2 28 49 bd
       0.055735543 0.032175247 -0.014939636 -0.049111016

fc3.weight f4 [2, 64]
000000 fb d7 58 bb ed e6 bc 3c 9a 07 c7 bc 24 fb b7 bc
       -0.0033087719 0.023059333 -0.024295617 -0.02245862
000010 1a 31 b5 bd 4d 43 9a 3c c7 55 27 3d 76 98 d3 3c
       -0.08847256 0.01883092 0.040853288 0.025829535
000020 c5 47 a8 3c 78 96 da bd 51 2b 27 3d 38 e2 f9 bd
       0.020542035 -0.10673231 0.040812794 -0.12201351
000030 b7 39 dc 3d 7f 91 ed bd 9a 03 ee 3b e5 c5 c0 3d
       0.10753196 -0.11600017 0.007263613 0.094127454
000040 50 ee 08 3d a4 84 5b bd 0a db 27 bd 55 d7 76 bd
       0.033430398 -0.053593293 -0.040980376 -0.06026395
000050 72 e2 95 3d 1d 1f 63 bd 54 5a 81 3d 9c f6 b7 bc
       0.07318582 -0.055449594 0.06316057 -0.02245646
000060 40 c2 73 bc 89 d1 5b bd 10 e0 6e bb 3f 28 fc bd
       -0.014877856 -0.053666625 -0.003644947 -0.12312364
000070 8a 0e b4 bc 89 52 ed 3d c8 52 bb bd 60 cd 1f bd
       -0.021979589 0.11588008 -0.09146649 -0.03901422
000080 5e 7d e0 bd ab f9 51 bd cd 15 a5 3d bc 59 7f bd
       -0.10961412 -0.051263493 0.08060799 -0.062341437
000090 3b 63 db bc d0 8f be bd dc 43 ac 3d eb 8a 80 bc
       -0.026780715 -0.09304774 0.08411381 -0.015691241
0000a0 50 a1 bd bd d4 32 82 bd e1 2a c0 bd 88 32 04 be
       -0.092592835 -0.06357351 -0.093831785 -0.12909901
0000b0 75 43 14 bd 22 be 94 bd 59 f3 a2 bd d8 dc a4 3d
       -0.036197145 -0.072628275 -0.07956571 0.08049935
0000c0 ae 65 f0 bd 0b f1 b0 3d e8 5d fe bc be 7e fa 3c
       -0.11738144 0.08639725 -0.031050637 0.030578014
0000d0 25 10 48 bd 21 cb 6f bd fa f2 de 3d af f2 ca bc
       -0.04884352 -0.05854333 0.10886188 -0.024773924
0000e0 39 20 cb 3c 7b ff c0 3d 2e a9 03 be 2f 6a e6 bc
       0.024795638 0.09423729 -0.12857506 -0.028126804
0000f0 56 4f 94 bd 2c a8 f4 bd d6 07 ca 3d 27 6a 8e bd
       -0.07241695 -0.11946139 0.09864776 -0.06953841
000100 02 28 fc bb cc 18 87 3d e6 8c 28 bd 1d 58 b2 bd
       -0.007695199 0.065965265 -0.041149996 -0.087082125
000110 d0 28 92 3d 37 45 db bd 7d 28 9f 3c 45 a7 bc bd
       0.071366906 -0.10706561 0.019428486 -0.09211592
000120 e6 bf 77 bd 20 f9 a2 3d c5 ab b5 3d 64 69 2e 3d
       -0.060485743 0.07957673 0.08870653 0.042580977
000130 b3 51 bd 3d 95 19 fa bd 89 f9 83 bb 41 49 ef bd
       0.092440985 -0.12211911 -0.0040275496 -0.11683894
000140 10 61 a0 3d e0 34 3e 3c aa d1 dc 3d c3 98 34 bd
       0.07831013 0.011609286 0.10782178 -0.044090997
000150 80 ef ae bd 3e 3c 99 3d 50 c6 77 3c 48 8d 9a 3d
       -0.08541775 0.074821934 0.015122965 0.075464785
000160 a8 33 e4 3d 41 f6 45 3d db 9f ad bd 16 f7 13 bc
       0.11142665 0.04833055 -0.08477756 -0.009031078
000170 46 65 5d bd 4f 9f 0c bd 24 eb c9 3d 96 fb a6 3c
       -0.05405166 -0.034331616 0.09859303 0.020383637
000180 e3 80 68 bd fe c8 be bc 89 c6 df bc b0 5e 54 bd
       -0.05676354 -0.0232892 -0.027316349 -0.051848114
000190 a9 7a c9 ba 91 ec 89 3c 89 99 ee bd cc 90 ae 3d
       -0.0015371639 0.016836436 -0.11650378 0.085237116
0001a0 20 c0 68 bd af d9 25 3c d4 c4 02 be 23 7f a5 3d
       -0.05682385 0.010122701 -0.12770396 0.0808089
0001b0 fa bb 06 3d 06 23 b7 3d 21 97 08 bd 60 bc 51 bc
       0.032894112 0.08942227 -0.033347253 -0.01280126
0001c0 74 af 98 bc c4 77 65 3d 82 4b c1 bd af 18 72 bd
       -0.01863835 0.05602242 -0.0943823 -0.05910557
0001d0 20 39 53 bd fc c3 74 bc ff 3f 6f bd 31 b5 79 bd
       -0.05156815 -0.014939304 -0.05841064 -0.060963813
0001e0 15 e5 b2 3d c3 9f e2 3d 0c 8e a8 bb 5c 1a 5b 3d
       0.087351 0.110656284 -0.0051438864 0.053491935
0001f0 81 90 ab 3d 56 50 af 3d d0 8b 79 3c 0d b8 a2 3c
       0.08377171 0.08560245 0.015231088 0.019863153

fc3.bias f4 [2]
000000 a4 25 87 3d ff af f9 3c
       0.06598976 0.03047943
